Navigation/model.pth (torch_old, 574475 bytes, 6 tensors)

fc1.weight f4 [256, 37]
00000000: 9c85 56be e3d0 ac3c a5ab da3d 2e99 173c
00000010: 7bee ffbc 5c90 163e 53f6 4d3d fb58 dc3d
00000020: a426 bdbd c8e2 1fbe 58f2 913e f72b 9e3c
00000030: 41ae 63bf a245 c4be fa6d c1be 62dc 9c3e
00000040: 1c77 38be a5e3 cbbd 976f 54be 7f58 40be
00000050: 7f6e 803d 4bfe bc3e f5dd 62bf a16e 533e
00000060: 0554 6e3d a88f 873d 14e1 2a3e f483 1fbe
00000070: 0d11 5fbe 950c 79be 080f fd3d e444 8a3e
00000080: 3720 05bf 114b c9be f9bb 5ebd 3aaa 1dbe
00000090: 008a c4bd 779b ef3d 6128 fabc 95a1 9f3c
000000a0: 1521 85bd 0748 bdbe 6bd9 2e3e 4d3b a7be
000000b0: 4e1f 9bbe 9a51 99be 522c d7bd b950 1c3e
000000c0: 4323 f1be b83f 043d bd8f 663e 9e0f 8fbe
000000d0: c326 fdbd fca0 a2bc 9a15 3c3e 2946 e2bd
000000e0: 6b92 97be d710 e73b 1058 1abe b19b d1be
000000f0: cb30 5d3e cc4a 8abe 2a3c dcbd 00a4 8f3e
00000100: 564a 0c3d 7bf1 0dbe 3de5 68bd f683 263e
00000110: 0d6e afba 23a8 bdbd c4ff 03bf a3db 45be
00000120: 7852 843d 557b 0b3e 5640 773e 02bb 163e
00000130: bb11 743e c5ab aabe 9b53 283e 1703 41be
00000140: 7741 093d ca35 673e 3604 763d ae9d 9dbd
00000150: 3c79 8d3d 262e ae3a edd8 1d3e 8fdf 83be
00000160: d721 8cbc 14e8 04bd 56ba 2a3e 8d7d 1a3e
00000170: a3d1 473d f636 993e 95c7 ccbd 64da 5ebe
00000180: 25d9 6e3e ca55 0d3e 4d5a 36be 9698 93be
00000190: e062 bf3e 7ee0 463e f90f 82bd 5dab 7d3d
000001a0: b8cc e0bd 1387 29bc 31a6 f83c ba56 3ebe
000001b0: 5b38 213e 7835 ca3c 67e2 89bd 36c6 1c3d
000001c0: 74e3 ccbd 9ee4 d23d 1591 ea3d 2c63 39be
000001d0: bddf 6dbd 05cc dabb 7f1c 82bc b819 8f3c
000001e0: 72a8 80bb 31df 3bbd 7097 aebd c87f 0f3d
000001f0: fd7b 21be e56e 1bbe e3d7 70bd cca1 c2bd
00000200: 810f f0bd 96fa 09be 7900 aebd 2635 8fbc
00000210: 16a7 e5bd ab9e bfbc 5c0a c13d 5907 17bd
00000220: 7e7f 07bd 1114 31bd a069 e2bb 8a14 d63d
00000230: 2250 bb3d 8c94 5e3d 0815 023e 46ff 26bd
00000240: 403a 17be e233 1cbe de40 e53d 80af 8bba
00000250: eadd 8ebd 814c 90bd d543 b3be 76b3 87be
00000260: 2c15 443e d0de 313e befa f8be 9b6f 03bf
00000270: 8253 9c3e 5d3c 4dbe c7ee 803d 4e2f 47be
00000280: 9008 8bbd 3820 a9bd 0ae3 9bbe 5686 34be
00000290: 4c91 c93d 608b b53d d59b 3bbe cda8 f43d
000002a0: c484 a2be 617d 17bc ddeb 0e3e 8d89 0b3c
000002b0: 7ae3 b73e b9e2 413e 33b3 2dbe 3b60 d6bd
000002c0: ca9d fabe 11a2 14bf e4ca 6a3d f76b 98be
000002d0: 6237 133e 73b5 1f3e 52fb 093e 48f8 3b3d
000002e0: eac7 a13d 6024 803e a12e 1abf 5ef3 b53d
000002f0: 47c5 81be 7fdf ebbd bae6 753e cafa 0fbe
00000300: 2d87 5dbe 1bff 133d 5ccd a23d 57ee bdbe
00000310: 7c2c edbe a5bc 853e fddb 35be 793e 64bd
00000320: 9f95 a6bc 4a6e fe3e b73f dbbe b900 81be
00000330: f1a9 a5bd 571c 993d df9e eebd 2b10 243e
00000340: c85a 2a3d 5a22 c6be 1441 c839 5232 93bd
00000350: fb91 ae3d f206 28be f444 29be 65cb 4e3e
00000360: 8636 26bd ccdf 68bf 6598 883e 8a11 d8be
00000370: 3069 41bc 6f88 263e b0a7 d83c bf9a 01be
00000380: ac0f 40bf 291b fb3e c61b e5be c46b 543d
00000390: fa71 29be e1c5 45be c96e 17be fc3b fe3d
000003a0: 160c 89be 7bfa 02be afd1 b23e 4a73 6bbe
000003b0: 27cf 783e d341 6fbe 3b3e 1d3e ad3e debb
000003c0: 3515 6b3e ff1a 783e c6c0 573c a5dc cabe
000003d0: f16c ab3c 507b 8fbd da1e 663e 417d 643c
000003e0: 2503 0dbf a026 60be 0e1d 25be e513 b73e
000003f0: a43c 603e e813 96be ef4f 87be cbf8 7cbe
-0.20949405 0.021095699 0.1067727 0.0092528295 -0.031241646 0.14703506 0.05028374 0.10759159
-0.09235886 -0.15613854 0.28505206 0.019308073 -0.88937765 -0.38334376 -0.37779218 0.3063689
-0.18014187 -0.09955529 -0.20745693 -0.18783759 0.062710755 0.3691276 -0.8861993 0.2064767
0.058185596 0.06619197 0.16687423 -0.1557768 -0.21783848 -0.24321206 0.123563826 0.27005684
-0.5200228 -0.39315084 -0.054378483 -0.15396968 -0.09596634 0.116995744 -0.030536832 0.019486228
-0.065004505 -0.36969015 0.17075126 -0.3266243 -0.3029732 -0.2994507 -0.105065 0.15265168
-0.47097215 0.03228733 0.2251577 -0.27941602 -0.12360909 -0.019852154 0.18367615 -0.11048538
-0.29603896 0.007051568 -0.15072656 -0.40939096 0.21600644 -0.2701019 -0.10753663 0.2805481
0.03425058 -0.13861649 -0.056859244 0.16261277 -0.0013384238 -0.09260585 -0.5156214 -0.19322066
0.06461042 0.13621266 0.24145636 0.14719775 0.23834889 -0.33334175 0.16438143 -0.18848835
0.033509698 0.22579113 0.06006261 -0.07696091 0.06907889 0.00132889 0.15414782 -0.257565
-0.01710598 -0.03244789 0.16672644 0.15086956 0.04878391 0.29924744 -0.09999005 -0.21762997
0.23325022 0.13802257 -0.17807885 -0.2882735 0.37380123 0.19421574 -0.06350703 0.061931003
-0.10976547 -0.010347146 0.030352684 -0.18587771 0.15744154 0.024683699 -0.06732636 0.038274966
-0.10004321 0.102975115 0.114534535 -0.18104237 -0.0580747 -0.006677153 -0.015882729 0.017468318
-0.0039263302 -0.04586715 -0.08524978 0.03503397 -0.15769954 -0.15179022 -0.058799636 -0.095035166
-0.11721707 -0.13474497 -0.08496184 -0.017481398 -0.1121351 -0.023391088 0.09425804 -0.03687224
-0.03308057 -0.043232027 -0.006909564 0.10453136 0.091461435 0.054340884 0.12703335 -0.04077079
-0.14768314 -0.15254167 0.11194013 -0.0010657161 -0.069759205 -0.07045842 -0.3501269 -0.26504105
0.19148701 0.17370152 -0.486288 -0.5134217 0.3053246 -0.20042558 0.06295543 -0.19451639
-0.067887425 -0.08258098 -0.30446655 -0.1762937 0.09842166 0.08864474 -0.18321164 0.11946259
-0.31741917 -0.009246201 0.13957162 0.008516681 0.35915738 0.18934144 -0.1696289 -0.10467573
-0.48948509 -0.58059794 0.057322398 -0.2976987 0.14376596 0.15596561 0.13474777 0.045891076
0.07899459 0.25027752 -0.602274 0.08884309 -0.25345823 -0.11517238 0.24013796 -0.14060512
-0.21633597 0.03613196 0.079493254 -0.370959 -0.46323 0.26120487 -0.177597 -0.05572364
-0.020335017 0.4969352 -0.42822048 -0.25195864 -0.080890544 0.074761085 -0.11651396 0.16021793
0.041590482 -0.38698083 0.0003819546 -0.07187332 0.08523937 -0.164089 -0.1653021 0.20194776
-0.04057934 -0.90966487 0.26678768 -0.4220088 -0.011804864 0.16262983 0.026447147 -0.12656687
-0.75023913 0.4904416 -0.44747752 0.051860586 -0.16547385 -0.19313766 -0.14788355 0.12413785
-0.26767033 -0.12790863 0.349256 -0.22993198 0.24297772 -0.23364954 0.1535577 -0.006782374
0.22957309 0.24229048 0.013168519 -0.39621463 0.02092597 -0.07005942 0.22472706 0.0139458785
-0.55082923 -0.21889734 -0.16124365 0.35757366 0.21898133 -0.29312062 -0.26428172 -0.24704282

fc1.bias f4 [256]
00000000: 5f1d d33d 617c c73d 3817 c53d 3131 05be
00000010: 3ae5 813d 8070 ef3d c928 19be ad44 82bd
00000020: 15e4 bebd 1e30 82be 2d5f 913d d27e e53d
00000030: e791 47be fa7f 13be 49de 2cbe 3874 c8bd
00000040: 0b4d 0e3e c9d2 c9bd 1886 9b3b 762a a9bc
00000050: bcdf 44bd f15b 1cbd d694 a53d 7747 76bd
00000060: cec3 dabd 26f2 b4bc 3d8f 5e3e 4271 a03d
00000070: 3169 0c3d 619d a43d 1c0b cd3d 958c c3ba
00000080: 88a6 a03c ce77 fc3c 48a6 39bd 1e00 213e
00000090: 316c 83bc d438 d73c 6d1a 56be e6fe 463e
000000a0: c2d1 fbbd 8f1b 083d 166f 913c aa9b ab3d
000000b0: a539 0cbe fbd6 5dbd 424a fbbd 9db1 f9bd
000000c0: db9c e4bd 7d2e 363d 9ab8 2dbd 390e 053e
000000d0: d514 1c3d 8294 5bba b75d ac3d 89ec 23be
000000e0: 70bf 203e b6a0 aebd 1bac af3d 9b89 223e
000000f0: c28c b53d 9fc2 1dbd 082c 313d e997 8f3c
00000100: 57f8 973c cabd 4cbc 72c1 62be ba35 d4bd
00000110: 126b 30be d14c c7bd cd3c 52be 3708 d8ba
00000120: 5e3f 40be bae2 663d 82b4 84bc 823f 20be
00000130: 4630 293e 4233 9f3d 42eb dfbc 2085 373c
00000140: 009e 41be 7778 de3d 5208 ebbd 64b4 103c
00000150: 0773 603d 17b5 1abd 22cd 4e3d 38eb c83d
00000160: 1216 ac3d af80 82bb c11c 1a3e c011 91bd
00000170: 73db 17bd afd0 0c3e dd0f e8bd cb9c 143d
00000180: b140 c0bd 68a0 3ebe b4bb 86bd 042b 533d
00000190: e9a0 9bbd add2 85be 5fe5 69be d7e8 96bd
000001a0: 3c58 f1bd 307d 15be 72e4 103e b6ed 1ebe
000001b0: d8c8 22be 3829 213e 9378 be3d 835a a13d
000001c0: 1cdf 313d de00 203d 42e0 093e 61e9 13be
000001d0: 37b0 65be dec2 6f3c 2fe4 25be 36bd bc3d
000001e0: b677 cebb de63 d53d 3b32 eebd 02d8 51bd
000001f0: b7fc f2bd 3b6b bcbd c05c 273e 2eba 033d
00000200: dc6b 303e a890 01be ac35 49bc cb5a 9d3d
00000210: dcb7 93bd 1206 8a3c 10d0 d53c 8362 16be
00000220: adde 08be 5219 04be 2295 46bc e967 1fbe
00000230: 9519 11bb ab00 1b3d 1ac4 ae3d eb98 07be
00000240: 7a29 763d 1651 a1bd 46b6 05be d15b 47bb
00000250: f14a 99bd bc66 ea3d 29d8 18be 26b2 ef3c
00000260: 8939 72bd 43dc 20be f1e7 fabd 39de 9a3d
00000270: becd c73c 55c8 2fbe f8d1 e73c a499 b13d
00000280: b607 883b 85a5 1d3d 29ef c13d cb24 87bd
00000290: 7eed da3d 5b29 b0bd a701 c7bd 9fd0 29bc
000002a0: a688 6c3b 77fd f5bd e3f2 f03d b246 81be
000002b0: 6fc7 8f3d e536 083e caa4 8b3d 56b2 a1bd
000002c0: 6026 613e eff5 25be a9ff 193e 83cb 71be
000002d0: ae88 0d3e 3ac7 20bb fdcd 20be e479 aabd
000002e0: 0b97 27be 3605 5f3d 3fb9 1d3d 3433 ef3c
000002f0: 4d02 a43d 397d 1d3e f863 70be 908e c83d
00000300: a491 21bd 68ff 0e3d 900f af3d 0b37 2abd
00000310: 5707 f13a 166b 45bd ae12 47be ce83 18be
00000320: d0e2 61bc 5821 19bc f5fa 47be 9efc 9a3d
00000330: 7eca eebd 013b 973c 2bef 903d 344b 50bb
00000340: 1887 1b3d 6d39 e7bd 7e79 19be df36 0ebe
00000350: 54ec d4bb 47a9 afbd 2e0f 383d 20b9 d6bd
00000360: 8ede b6bd 9ddd b6bd b826 b13c 3ecf 79bd
00000370: c507 073c 71a0 38be a93b f6bd 9d04 8c3b
00000380: d766 67be d94e c0bd 91ad 153e e913 a5bd
00000390: f767 113e 0092 81be 5643 3abd da2e d83d
000003a0: 4adf 233d edb7 0dbe eaf9 ecbb 8932 57be
000003b0: 5c84 06bd b738 a7bd 737a cbbd d522 97be
000003c0: 0ada 343d 5d83 013d a35e 6cbe d3e3 c9bd
000003d0: c354 b0bd 4611 b8bc 222c a7bc 16ed 243e
000003e0: db9a 313e dab7 123d 5193 66bd 99e1 b7bd
000003f0: 4747 9cbd 421d a33d 05f7 4dbd 55f7 eabd
0.103083365 0.0974052 0.09623569 -0.13007046 0.063425496 0.116913795 -0.14956965 -0.06360755
-0.09320847 -0.25427336 0.070982315 0.1120583 -0.19489251 -0.14404288 -0.1688167 -0.09787792
0.13896577 -0.09854657 0.00474621 -0.02065013 -0.048064932 -0.03817362 0.08085029 -0.060126748
-0.10681878 -0.022088122 0.21734329 0.07834102 0.034280006 0.0803783 0.100118846 -0.0014919216
0.019610658 0.030818846 -0.045324594 0.15722701 -0.0160428 0.026272215 -0.20908518 0.19433174
-0.122958675 0.033229407 0.017753165 0.083793 -0.13693865 -0.0541601 -0.12270023 -0.1219208
-0.1116273 0.04447793 -0.042412378 0.12993707 0.038105804 -0.00083763164 0.08416312 -0.160082
0.15698028 -0.08526747 0.085777484 0.15872805 0.08864738 -0.038515683 0.043254882 0.017528491
0.018551035 -0.012496421 -0.22144106 -0.1036181 -0.17228344 -0.097314484 -0.20531006 -0.001648194
-0.18774173 0.056368567 -0.016199354 -0.15649226 0.16522321 0.077734485 -0.02733386 0.011201173
-0.18907928 0.108628206 -0.11476196 0.008832071 0.0547972 -0.037770357 0.0504886 0.098104894
0.08402647 -0.0039826254 0.15050031 -0.07083464 -0.037074517 0.13751481 -0.11331151 0.036282342
-0.09387339 -0.18615878 -0.0657877 0.051554695 -0.075990506 -0.26137295 -0.22841404 -0.073686294
-0.117844075 -0.14598536 0.14149645 -0.15520367 -0.15896928 0.1573838 0.093003415 0.07878592
0.043425664 0.039063327 0.13464454 -0.14444496 -0.22430502 0.014633862 -0.16200326 0.092157766
-0.0063008917 0.10419439 -0.116306745 -0.05123139 -0.11864608 -0.0920014 0.16343975 0.032159977
0.17228645 -0.12652838 -0.012280863 0.07683333 -0.07212803 0.016848598 0.026100188 -0.14686017
-0.13366194 -0.12900284 -0.012120517 -0.15566982 -0.0022140492 0.037842434 0.08533497 -0.13241927
0.06009815 -0.07876794 -0.13057813 -0.0030419717 -0.07484997 0.11445376 -0.14926209 0.029259752
-0.0591369 -0.15709023 -0.122512706 0.07561917 0.024390098 -0.17166264 0.028298363 0.08671883
0.00415131 0.03848793 0.09469444 -0.065988146 0.10689829 -0.08601638 -0.09717112 -0.010364681
0.003609219 -0.12011235 0.11765077 -0.2524925 0.07020461 0.1330219 0.068185404 -0.07895343
0.21987295 -0.16207097 0.15038933 -0.2361279 0.1382167 -0.002453281 -0.15703578 -0.0832403
-0.16366212 0.05444833 0.038506743 0.02919922 0.08008251 0.153798 -0.23475635 0.09792817
-0.039445534 0.034911543 0.0854789 -0.0415564 0.0018389028 -0.04819783 -0.1944072 -0.1489403
-0.0137869865 -0.009346329 -0.19529326 0.07567714 -0.11659716 0.018460752 0.07076868 -0.0031783106
0.037970632 -0.1129025 -0.14987752 -0.13888119 -0.006497899 -0.08577209 0.04493635 -0.104845285
-0.08929168 -0.08928988 0.021624908 -0.060988657 0.0082415985 -0.18029954 -0.12023098 0.004273011
-0.22597824 -0.09390039 0.14616992 -0.08060438 0.14199816 -0.25306702 -0.045474373 0.10555811
0.040007867 -0.13839693 -0.0072319405 -0.21015371 -0.03284107 -0.081651144 -0.09935465 -0.29518762
0.04415325 0.03161942 -0.23082976 -0.09857907 -0.08609917 -0.022469174 -0.020406786 0.16106066
0.17344229 0.035819866 -0.056292836 -0.08978576 -0.076307826 0.07964565 -0.050284404 -0.11472956

fc2.weight f4 [512, 256]
00000000: d2a7 15bd 9d5d 823c 47e9 5f3c b0b3 b2bb
00000010: d928 713c 1234 0a3d 3b00 2b3d 7ed0 b73b
00000020: 59e5 de3c c53a 023c 85aa 26bc c200 93bd
00000030: 101e 49bc 28c4 98bc 0098 653c 80d7 06bd
00000040: cd54 a6bd ac36 563d 0145 2dbd 791f 97bd
00000050: 2531 28bd 088c 563c 08ac 15bd 12b4 7fbd
00000060: 713d 613b 8c5f c53c 17d1 f13c 492b 9dbd
00000070: 2500 debc 341c c3bc 0465 b1bc f6dd 5fbc
00000080: 107e ff3c d88a 16bd a02a 5b3d fa89 a23b
00000090: 3b37 7abd f3ed 76bc 9ec0 033d 50f7 c73c
000000a0: 04e0 a9bc 8085 fabb ca0d 56bd ec05 23bd
000000b0: e04b 87bc e28d 183d 00db 7c3b fc43 073d
000000c0: 608c 85bd 6087 513c 3611 86bd 4361 19bd
000000d0: 409c ba3c 6fb1 55bc 38ac 3fbd 901b 7cbd
000000e0: 236a 47bd 5b2c 22bd 24a9 6dbd 5683 833b
000000f0: 6683 86bc ea7d 1dbd a79b 063d 5fbb b4bd
00000100: 817c 843c 1a96 3d3d 08ff 5c3c c3c4 cf3b
00000110: 60b7 b5bc b0c2 92bd de2c 6f3d 961c 7ebd
00000120: 54de d0bc 5aff 673d 23f2 35bd c307 e0bc
00000130: e84a 03bd b1e4 8cbc 12d5 16bd 4024 bf3c
00000140: 46a0 793d b3e2 7abd ca97 273d f687 f2bc
00000150: 2976 80bd d7b4 483c 2289 68bd d033 b13c
00000160: 7856 32bc b60d 88bd 0aea 5ebd e59d 87bc
00000170: 2d20 9abd 482a a23c acb9 c33c a639 59bd
00000180: 08d6 053d 0ac9 49bd a0de cf3b d46d 3dbd
00000190: d384 683c 4e75 58bd 9c22 a1bc 289d b5bc
000001a0: 562a 11bd 3080 cf3b b1f4 8ebd d870 0b3c
000001b0: 20ab 393b 847a 41bd 56be 7abc 8134 f63c
000001c0: d29b ad3c abb9 1bbc a379 29bd 4c53 39bd
000001d0: a800 193d 003f b2bb c000 9f3b cf2b 873c
000001e0: e399 65bd 128c 97bd 76c0 2fbd 7cbe 6fbd
000001f0: 1a4b 1b3c fe44 a03c 748e eabc 6847 65bc
00000200: c8f8 55bc 0ae1 26bd a7af 6cbd d4b6 853b
00000210: 2860 b5bc 4e07 8cbd 90f4 3f3c 2496 cdbc
00000220: 98cc 8cbc 7405 91bc fa0f 10bc 27a8 d53c
00000230: cf76 afbd c3a0 39bd 2b03 6c3d 3b4d dfbc
00000240: b84b 28bc e83d 4a3d d572 df3c f88f 963c
00000250: feb1 49bd 6c2f 743d dac0 67bd b85a 9dbd
00000260: 4786 f2bb 7aea 03bd 4827 6ebd bafb 463d
00000270: f045 f83b 0357 82bd cdd8 d53b ca62 3a3d
00000280: c777 10bd ceec 3c3d 0a64 173c 7b6a 8bbc
00000290: 5955 82bd 6b0e 9fbd 0083 6bba 3a92 ebbc
000002a0: 5e1b 90bd 1ad2 96bd 387f 22bd 804a 9d3a
000002b0: 2ead 2bbd 53c6 a7bd 1e7c cfbc 84a8 e1bc
000002c0: c00a 77bc 844f bb3c dd7d 043c 8697 d53c
000002d0: 373b 1e3d 6705 d2bc 52ca 32bd 4557 84bc
000002e0: a09f 233c 0bd8 1bbd ef31 0f3d a5f2 9f3c
000002f0: 0c89 77bd f821 babc c033 c13b cd3e 893b
00000300: 9aaf 2abd 14bf 423d 4363 52bd 5eac 1c3c
00000310: 005b fdbc 92bf 1dbc 18ba ebbc b865 07bd
00000320: 25d4 afbd 904b b43c 384a a23b c80e 9e3c
00000330: ba90 0cbd c8f8 593c 8839 34bd 1300 33bc
00000340: fc03 6f3d 8a82 56bd f45f c43c e21b 25bd
00000350: 2710 43bc 5fdc 8cbc ccd3 283c b287 83bd
00000360: 93fd a53c ea9a 103d 47eb 95bd 52c8 98bd
00000370: d521 943b 2eeb 48bd bcf6 c73c 85a4 79bd
00000380: b53b 92bd df52 cb3b c418 d7bc 048b 64bd
00000390: 3861 983c 687e cf3c a585 b83c ad8c 3e3d
000003a0: 3472 5cbb 68f2 93bc 20ab 2fbc fdd2 323d
000003b0: ac01 47bd bee9 373d 3db1 743c 44b3 c43c
000003c0: 0666 873b 624e a8bd a0b8 cc3c 9b0b 0bbd
000003d0: 18d8 6fbc b123 37bd c314 f63c 0809 2bbc
000003e0: 801b 053a bca9 5abd dc95 443d c24d 6cbd
000003f0: a673 1e3d 4c76 e03c c8e9 1b3c 36db 77bd
-0.036537 0.015913779 0.0136664575 -0.0054535493 0.0147192115 0.033741064 0.041748267 0.005609571
0.02720897 0.007948582 -0.010172491 -0.07177879 -0.012275234 -0.018648222 0.01401329 -0.03292036
-0.08121643 0.052298233 -0.042302135 -0.0737905 -0.041062493 0.0130949095 -0.036541015 -0.062427588
0.0034368897 0.024093412 0.029518647 -0.076742716 -0.027099678 -0.02381716 -0.021654613 -0.013663759
0.031188041 -0.036753505 0.053507447 0.0049602957 -0.061087828 -0.01507138 0.032166116 0.02440992
-0.020736702 -0.007645309 -0.052259244 -0.03980057 -0.016515672 0.037244685 0.0038582683 0.03302382
-0.06520915 0.012788624 -0.065462515 -0.03744627 0.022779584 -0.013042792 -0.0467951 -0.061549723
-0.048685204 -0.039593082 -0.058022633 0.004013459 -0.016420078 -0.03845016 0.032863285 -0.08824801
0.01617265 0.046285726 0.013488539 0.0063405945 -0.022182167 -0.0716604 0.058392398 -0.06203898
-0.02549664 0.056640007 -0.044420373 -0.027347451 -0.032053858 -0.017198892 -0.036824293 0.023332715
0.060943864 -0.061251353 0.04091624 -0.029605847 -0.06272537 0.012250147 -0.056771405 0.021631151
-0.010884874 -0.0664324 -0.054422416 -0.016554782 -0.07525668 0.019795552 0.023892246 -0.053033493
0.03267482 -0.04926399 0.0063436776 -0.04624732 0.014191824 -0.052846245 -0.019669823 -0.022169665
-0.035440765 0.00633242 -0.06980265 0.008510791 0.0028330758 -0.04723598 -0.015304169 0.030054333
0.021192465 -0.009504716 -0.041375767 -0.045245454 0.03735414 -0.005439639 0.0048523843 0.016500382
-0.05605496 -0.07399763 -0.042908154 -0.05853127 0.009478355 0.019564148 -0.02863238 -0.013994075
-0.013059802 -0.040741958 -0.057784703 0.0040806327 -0.022140577 -0.06837331 0.011716023 -0.025096007
-0.017187402 -0.017702796 -0.008792872 0.026081158 -0.08567583 -0.04531933 0.05762021 -0.027258506
-0.010271959 0.049375445 0.027276436 0.018379197 -0.049242012 0.059615538 -0.056580402 -0.07683319
-0.007401261 -0.032206036 -0.05814293 0.04857991 0.0075766966 -0.063642524 0.006526089 0.04550437
-0.03527048 0.046124272 0.00924016 -0.017018547 -0.06363935 -0.07766422 -0.0008984059 -0.02875625
-0.0703647 -0.073642924 -0.039672107 0.0012000352 -0.041913204 -0.08192124 -0.025327738 -0.027546175
-0.015078247 0.022865064 0.008086649 0.026073229 0.03863069 -0.025637342 -0.04364998 -0.016154895
0.009986788 -0.03804783 0.03495973 0.019524882 -0.060433432 -0.022721276 0.0058960617 0.0041883946
-0.041671373 0.047545508 -0.051364195 0.00956258 -0.030927181 -0.009628193 -0.02877526 -0.03305599
-0.08585385 0.022008687 0.004952695 0.019294158 -0.03431771 0.013303943 -0.04400018 -0.010925311
0.05835341 -0.052370586 0.023971535 -0.040309794 -0.0119057065 -0.017194925 0.010304403 -0.06422366
0.020262515 0.035303988 -0.07320266 -0.07460083 0.0045206347 -0.04905241 0.024409644 -0.060947914
-0.071402945 0.0062049474 -0.026256926 -0.055796638 0.018601045 0.02532883 0.022524664 0.046520878
-0.0033637406 -0.018059924 -0.010721952 0.043658245 -0.04858558 0.04490065 0.014934835 0.024011262
0.004132035 -0.08218075 0.02499038 -0.033946615 -0.014638923 -0.044711772 0.030039197 -0.010439165
0.0005077645 -0.053384528 0.04799448 -0.057691343 0.03868451 0.027400158 0.009516187 -0.06051179

fc2.bias f4 [512]
00000000: b760 11bd 3f05 6fbd 569b 64bd 1718 ae3c
00000010: e091 a9bd c9ef c3bd 62b7 b9bc aa2c 563c
00000020: c5e2 88bc 8e58 92bd 32f0 9bbd 27d5 27bd
00000030: 0f7c 733c 9ea1 d2bc 73aa 92bd f0c3 5f3c
00000040: 3284 f83d bf4f d03d 9719 a7bc 2146 74bd
00000050: 89fa 59bd 5112 e53c 04c5 173c d864 32bc
00000060: 5ec3 75bd abe4 9dbd 6392 86bd 938a 8bbd
00000070: 89d7 55bd 6a9f a3bd 437d 00bc 6705 c6bc
00000080: 4274 51bd 1de1 a6bd ba45 4bbd 14ee 6bbd
00000090: 62d8 96bd 33b7 b5bd d4fc c03a 4e63 6b3d
000000a0: 5b78 51bd 5523 353c 4d00 cb3d 6c64 003e
000000b0: 49bc cebc 88d5 243b 041d 28bd cdcb 8bbc
000000c0: de25 a8bd d71e 073d a7da 8abd 0dda f03b
000000d0: 99ec 8fbd ae01 53bd f327 03bd 85a5 a73d
000000e0: 82e2 e9bc fa75 62bc 5dc3 003d 0f0f e3bb
000000f0: 1d76 3a3d 59f8 6fbd 2f9b be3d 37c8 00bd
00000100: 7465 ee3c 5608 6e3e 302f 5c3c 8121 fc3d
00000110: 6f41 84bd 7ca8 de3b 8966 30bd d77e ebbc
00000120: ce8b fe3b 2d8f 21bd ad09 483c ad78 73bd
00000130: e3fd 96bc 7dbb ffbc 8898 bdbd 260e 0dbd
00000140: 36c5 9e3c 4a01 3bbd f810 99bd 31b4 0a3e
00000150: 7ca3 7d3d 7549 463c 6fbc b53d 348e 2e3e
00000160: cc5a 95bd 0b82 bbbc f7a2 81bd de88 e1bc
00000170: cba7 ba3a 6fd2 e7bc b68e 0dbe 01de c0bd
00000180: 4092 80bd 8421 9abd 29c2 dbbc 0c5b 31bd
00000190: 7cc1 d63d 4da1 8bbd 332b acbc f1d3 823b
000001a0: 89dc bd3b bed3 3cbc 53ab 37bd 96f4 85bd
000001b0: e479 c6bd aa29 9dbd 2570 79bc bf60 273e
000001c0: a41f debc 0fed c53d 7d2b dd3d f80c 8b3c
000001d0: ad33 9a3d b32c 93bb adfc 89bc a63d 59bd
000001e0: 092c 85bd 3508 8bbd 86c1 91ba f343 b0bd
000001f0: d2a6 a3bd 7e12 a2bd 4264 cd3d 8184 59bd
00000200: d4fe 8ebd e230 3bbd 3bcb 193d 707f 0b3e
00000210: 80cd 7a3c c8fc acbd efa8 6bbd c598 41ba
00000220: bd1d 35bd d0e3 04bd 3dd0 4dbd 0cc8 74bd
00000230: 98be acbd d21c d53d d7c7 22bc 7c90 973d
00000240: 63e7 8cbb 820c 93bd d227 42bd 5d98 68bd
00000250: 51aa 64bd 2d20 78bd 4d16 64bd 9da3 9fbd
00000260: 1e3b 18bd 564a ebbc 590b 7dbd aed8 a7bd
00000270: 7461 bebd b4d1 b7bd 5584 a6bd b28f a1bd
00000280: 2158 013e 8ac2 2abd a567 99bd b869 7ebd
00000290: d830 babd 5509 d1bc b62b 523d 471d 1a3d
000002a0: e345 b83d 88f9 23bc 398a f7bc 41ab 363c
000002b0: e039 4a3c 230e c7bd 815d d43c 01db 87bc
000002c0: 748d 2cbd 8ace a5bd 5f72 e83d 8351 45bc
000002d0: 438b bf3d 3d6e b3bd 56bc 61bc f356 773c
000002e0: d6d8 c63c a8a9 bb3d 8d98 323c 191b 6e3d
000002f0: 4af7 c93c dc7c 033c d1a3 a6bd 62c0 23bd
00000300: 57c1 023b c191 0f3b c7bf a03d b11b 02bd
00000310: a97b 9ebd 3122 9bbd 1f47 9abc 439a c0bc
00000320: d65e b8bc e834 cbbd 6507 cbba c974 43bc
00000330: 0437 e93c a4c3 46bd a939 cc3d 086d 9dba
00000340: 66d3 0dbd 8b56 9d3b 46d9 5cbd 37d8 3bbc
00000350: f285 04bd 2ad1 5d3c a2d6 93bd f230 4d3c
00000360: 8572 83bc 4ef7 8d3c 7294 5a3d d30f 54bd
00000370: 53d3 c8bd 38a1 93bc cac4 e43d cac6 85ba
00000380: 9fdc 90bd 6299 db3d ac1c 59bd 44b5 86bd
00000390: 427c 09bd a155 c93b 15a8 edbc aa9b 90bd
000003a0: 07d4 893c 255f 9bbc 0de1 80bd a3ed d9bc
000003b0: ca19 9b3d e0b2 123d 9f77 703e 7764 9bbd
000003c0: f0e4 f5bb 819b d4bc 5ed1 36bd 7ed6 94bd
000003d0: 6159 8fbd 1636 b5bd 3538 c9bd 226f 62bb
000003e0: 7229 713d 20b7 a8bd f5c9 703b 1745 8dbd
000003f0: bbc8 1dbd ff59 0fbb 8f1c 673b e7d9 f7bc
-0.035492625 -0.058354612 -0.055812202 0.021251721 -0.082797766 -0.0956722 -0.022670452 0.013072172
-0.016709695 -0.07145797 -0.07614173 -0.040974762 0.014861121 -0.02571183 -0.07161417 0.013657555
0.12134589 0.1017146 -0.020397944 -0.059637193 -0.053217445 0.027962836 0.009263281 -0.010888301
-0.06000077 -0.077096306 -0.0657089 -0.0681354 -0.052207503 -0.0798939 -0.007842365 -0.024172498
-0.051136263 -0.08148406 -0.049627043 -0.057600096 -0.073654905 -0.08872833 0.0014723786 0.05746775
-0.05114017 0.011055787 0.09912167 0.12538308 -0.025236266 0.0025151689 -0.041043296 -0.017064953
-0.082103476 0.032988396 -0.06779986 0.0073502124 -0.07027549 -0.051515274 -0.03202052 0.08185867
-0.02855039 -0.013822073 0.031436313 -0.0069292854 0.045522798 -0.058586452 0.09306943 -0.03144094
0.029101111 0.23245367 0.013438985 0.12311078 -0.06457793 0.0067949872 -0.043066535 -0.028747005
0.007768131 -0.039443184 0.012209338 -0.059441257 -0.01843161 -0.031217331 -0.09257609 -0.03443732
0.019381147 -0.045655526 -0.0747394 0.135453 0.06192349 0.012102474 0.088738315 0.17046434
-0.07292709 -0.022889158 -0.06329911 -0.027531084 0.001424068 -0.028298585 -0.13823971 -0.09417344
-0.06277895 -0.07525924 -0.026825981 -0.04329972 0.10486123 -0.06817875 -0.021016693 0.0039925505
0.005794112 -0.011525093 -0.044841122 -0.06540792 -0.096912175 -0.076739624 -0.015224491 0.163455
-0.027114697 0.09664356 0.1079931 0.016973957 0.075293876 -0.0044914125 -0.016844118 -0.05303731
-0.0650254 -0.06788675 -0.0011120297 -0.0860671 -0.07990803 -0.07913683 0.10028888 -0.05310488
-0.06982198 -0.045700915 0.03754733 0.13622832 0.015307784 -0.08446652 -0.057534155 -0.000738513
-0.044217814 -0.03244382 -0.05024742 -0.059761092 -0.084347904 0.10405888 -0.009935341 0.07400605
-0.0043000444 -0.0718012 -0.047401257 -0.05678593 -0.05582649 -0.06057756 -0.05568533 -0.07794879
-0.037165754 -0.02872197 -0.0617784 -0.08195625 -0.092959315 -0.089755446 -0.08130709 -0.07888736
0.12631275 -0.041689433 -0.07490472 -0.06211254 -0.090913475 -0.025517145 0.051311217 0.037625577
0.08997705 -0.010008223 -0.030217277 0.011149229 0.0123429 -0.09719493 0.025923492 -0.016583921
-0.042127088 -0.08096035 0.113499396 -0.01204336 0.09352734 -0.08761261 -0.013777813 0.015096414
0.024273317 0.09163219 0.010900629 0.05813131 0.02465405 0.008025374 -0.08136714 -0.039978392
0.0019951665 0.0021906944 0.078490786 -0.03176469 -0.0773843 -0.07574881 -0.018832741 -0.023511058
-0.022506159 -0.099222004 -0.0015489875 -0.011929699 0.028468616 -0.04852642 0.09971935 -0.0012010643
-0.034625433 0.0048015765 -0.053918146 -0.011465124 -0.032354303 0.013538638 -0.07218672 0.0125238765
-0.016045818 0.017329838 0.053364225 -0.051772904 -0.09805932 -0.018021211 0.11170347 -0.0010206338
-0.0707333 0.10722615 -0.05300586 -0.065775424 -0.033565767 0.006144241 -0.029010812 -0.070609406
0.016824735 -0.018966267 -0.06292925 -0.026602572 0.07573278 0.03581512 0.23483132 -0.075875215
-0.007504098 -0.025953056 -0.04463326 -0.07267474 -0.069994695 -0.08848207 -0.09825174 -0.0034551104
0.058877416 -0.08238053 0.003674147 -0.068979435 -0.03852151 -0.002187371 0.0035264825 -0.030255271

fc3.weight f4 [4, 512]
00000000: 779e 093d c8d2 da3c d9d3 283c 3c4b 3ebe
00000010: 774c 423b 7a22 f0b9 c7a7 12bf 7b1a 983c
00000020: 135b 52be ca0a 253a 0ff6 05bc 2f6d 7dbc
00000030: 8043 0fbe 0d56 3b3c 3fb6 003d b691 82ba
00000040: da9e 803e 06bc 49be b496 9b3c 000a 0ebc
00000050: 3f21 b5bb 2f4b 573c 95d7 8f3c 87a0 62bc
00000060: 7e5b 5c3c c8de 87bc 4426 97bb ae2e 69b9
00000070: 26b1 31bb c6f3 67bd 5fd2 343c d6c2 70bb
00000080: 5a71 c13b 99ac 203c 7dea 333d 19e7 e2bc
00000090: ff1e 043c cd87 883c 36cf 7eba d372 8ebe
000000a0: 5734 9e3c f070 043c 814d 2dbe ffe4 2cbe
000000b0: 4fae 57be 5b53 563c c705 6fbc 88d7 1c3b
000000c0: 7a09 c33c b6fc a6be 09f7 66bc e3f2 a43b
000000d0: a488 f73b 167f ac3c 5613 6cbc 7616 54be
000000e0: 7927 58bc 2bcd 583b c1d6 afbc 84a8 9a3c
000000f0: fadc 82be 44a2 e2bb 68d1 31be 4bd5 edbd
00000100: d326 5fbe 9c8f 803f 1613 e03c ca52 a83e
00000110: aa90 4e3c a9f2 dcbb 9fa4 db3b a995 48bb
00000120: c7e9 3bbe e383 11bd afdf d5bc 2d13 803c
00000130: 8088 193d db6a 10bf dd59 d13b 1c01 41bd
00000140: 779c 853b e66b b1bc 9a43 9dbc 05c3 083f
00000150: ef7d 34be 03a8 0a3d 9409 15be 12db a4be
00000160: c248 ae3c 01aa 0b3c eddf cc3b ec9e 52ba
00000170: 1c0c 36be 9c23 8abc 2b01 fabc 6850 96bb
00000180: 95a4 3fbc 51cc c73c 4144 67bc e5cc 09bd
00000190: ce1c 913e 7d7c 153d fe36 19be 34a0 0fbc
000001a0: 9d59 8a3b 7452 dd3c 3966 973c ad30 073d
000001b0: fc96 223c 0794 7c3c fc44 5abc e518 963e
000001c0: bcdb a8ba 44a8 2dbe 5025 aebe 0e1e 39be
000001d0: 824f 22be 0de3 8ebc b774 d0bc 1f1b d5bc
000001e0: f536 7e3c cac4 4bbc d355 083d 8e09 933c
000001f0: 7fef 02bd 00db 2dbb d881 2ebe d53b 193d
00000200: 73b9 e9bc ae75 22bb 6c10 4fbe 81ff 48be
00000210: 274c b1bc dd7c 133c dd34 3a3b 6e32 67bc
00000220: 2aa1 493c 84af 4fbc 8828 a53c 296d af3c
00000230: e71c 033c a35f 04be d502 a9bc 3d3b b1be
00000240: 35f3 2e3d b5d4 f43c 6130 58bc 72d9 123d
00000250: a3fd 483a ae92 d0bc 027c 4dbc 2323 003d
00000260: ab17 453c 7fbb 933c a7bc 803c 4eda d33c
00000270: ad94 27bc caab 2d3c 6ba2 b23c dfcc 673a
00000280: 55e3 943e f475 87bb d752 4fbc 3cfe aebb
00000290: 2000 0dbd ec22 da3b 1471 63be a5da 8d3c
000002a0: a155 b9be fa67 c8b9 6ece d53c 274d a73d
000002b0: 248a 5a3e f5b7 053c e196 703b 6c94 cebb
000002c0: 235e f8bb 369c 66bb a1ae a23e 96e2 103c
000002d0: f77b 5a3e 5fe6 2f3c 1f9f 37be 500e 38bc
000002e0: 4a7f e3bc 4680 18be dc6d e83c a338 4d3e
000002f0: 18ec 02bc aafd a03c e522 30bd 87fb 85bb
00000300: f95d 88bc 8dd0 d53c f277 33be ac81 f3bc
00000310: eba9 1b3c ed97 943c 7f9d cbbb fedc 70bc
00000320: 313d 51bc 4576 34bd c521 8ebc 00b1 ad3b
00000330: 4407 853c abed 95bb bad3 e4be f008 52bc
00000340: 7c2a f13c 981d 963c e8b6 8a3c a97b aabc
00000350: b93f 98bc f628 f6bc fc6c 8a3c ea44 8e3c
00000360: 93da 30bc badf a5bc 5dc7 1bbe 2744 173c
00000370: f9a6 04bd fba2 3a3c 51c4 37be 576a a13c
00000380: 0021 fbbc 13e0 34be fa67 27bd bcd6 f7bb
00000390: b843 2dbd 3834 07bd 6cfa 3bba 8846 babb
000003a0: dc5d bdbc 875d e0bc 9a39 5dbd 13d4 4bbc
000003b0: 54ac 33be 4b47 2ebe 952e 2e3f 63d6 b93c
000003c0: 4a1e d23c 5387 053b 9e1b 8ebc 381b 323d
000003d0: 88c5 34bc 854a 1abd 043b aebc 3af0 6b3c
000003e0: 788e 95be f7db c4bb 3f28 81bb 4b8e 6d3c
000003f0: bab3 4cbd 6029 a0bb 64c1 bfbb f9b4 513c
0.03359839 0.026711836 0.010304415 -0.18583387 0.0029647627 -0.00045802054 -0.5728726 0.018567314
-0.20542555 0.0006295858 -0.008176341 -0.015467926 -0.13990593 0.01143409 0.031423803 -0.0009961638
0.25121194 -0.19700631 0.01899276 -0.008669376 -0.005527645 0.013140484 0.017558852 -0.013832218
0.013449548 -0.016585723 -0.004612716 -0.00022238001 -0.0027113645 -0.056628965 0.0110364845 -0.0036737225
0.005903405 0.0098067755 0.043924797 -0.027698087 0.008064031 0.016666317 -0.0009720208 -0.2782198
0.019312067 0.008083567 -0.16924097 -0.1688423 -0.21062587 0.013081397 -0.01458878 0.0023932178
0.02380823 -0.32614678 -0.014096984 0.005033837 0.0075541306 0.021056693 -0.014408907 -0.20711693
-0.013193005 0.0033081274 -0.021464707 0.018879183 -0.25559217 -0.006916316 -0.17365038 -0.11612948
-0.21792154 1.0043826 0.02735285 0.32875663 0.012607733 -0.0067427945 0.006702974 -0.0030606783
-0.18350898 -0.035526168 -0.026107637 0.015634144 0.037483692 -0.5641305 0.0063888864 -0.0471202
0.00407749 -0.021657895 -0.019197274 0.53422576 -0.17626165 0.033851635 -0.14554435 -0.32198387
0.021274928 0.008524419 0.00625228 -0.00080345455 -0.17778057 -0.016862683 -0.030518135 -0.004587222
-0.011696954 0.024389418 -0.014115394 -0.03364267 0.2834229 0.036495674 -0.14962384 -0.008766223
0.0042221085 0.027016856 0.01848136 0.033005405 0.009923693 0.015416152 -0.013322111 0.29315868
-0.0012882869 -0.1695872 -0.34012842 -0.18077871 -0.15850642 -0.01744225 -0.025446279 -0.026013909
0.015516032 -0.012437055 0.033284973 0.017948892 -0.031966683 -0.002652824 -0.17041719 0.037410576
-0.028530812 -0.002478938 -0.20221108 -0.19628717 -0.021642758 0.009001938 0.0028412857 -0.0141111445
0.012306491 -0.0126761235 0.020160928 0.021414356 0.008002496 -0.12927108 -0.020631233 -0.34615508
0.04271241 0.029886583 -0.013195128 0.035851903 0.00076671893 -0.025460567 -0.012541773 0.03128351
0.012029569 0.018033741 0.015714956 0.025860932 -0.010228318 0.01060004 0.021805963 0.0008842479
0.2907969 -0.004133934 -0.012654028 -0.0053403657 -0.034423947 0.006656995 -0.22211105 0.017316172
-0.36198142 -0.0003822444 0.02609941 0.081690125 0.21341759 0.008161535 0.0036711025 -0.0063043144
-0.0075795813 -0.0035188324 0.31773856 0.008843085 0.21336351 0.010736077 -0.17931794 -0.011233881
-0.027770657 -0.14892682 0.028372698 0.20041136 -0.007990859 0.019652206 -0.043002028 -0.0040888223
-0.016646372 0.026100421 -0.17526224 -0.029724918 0.009500961 0.01813885 -0.0062138434 -0.014701126
-0.012770937 -0.044058103 -0.017350087 0.005300641 0.016238816 -0.0045754514 -0.44692785 -0.012819514
0.029439203 0.018324658 0.01693292 -0.020810919 -0.018585073 -0.030048829 0.01689767 0.017366845
-0.0107943 -0.020248283 -0.1521277 0.009232557 -0.0323858 0.011391397 -0.17945983 0.019704027
-0.030655384 -0.17663603 -0.040870644 -0.00756344 -0.04230091 -0.033008784 -0.00071707997 -0.0056846775
-0.023116045 -0.027388347 -0.05401001 -0.012440699 -0.17546207 -0.17019384 0.6803983 0.022685235
0.025649209 0.002037485 -0.017347153 0.04348299 -0.011033423 -0.037668724 -0.021268375 0.014400536
-0.29210258 -0.006007667 -0.0039415653 0.014499257 -0.049976088 -0.004887745 -0.0058519114 0.012799495

fc3.bias f4 [4]
00000000: be38 a63d 2f8a a83d 81f9 a03d e86f a63d
0.081162915 0.082294814 0.07860089 0.08126813
