Continuous Control/checkpoint_actor_every20_st5.pth (torch_old, 176486 bytes, 14 tensors)

fc1.weight f4 [256, 33]
-0.0549232 -0.01564496 0.009825245 -0.012087361 0.003254226 -0.06171222 0.050549753 -0.0465456
0.056560393 -0.05132019 0.012293859 -0.040379655 0.029446863 0.036109656 -0.045298584 0.010154581
-0.050821446 -0.04799067 0.022412827 -0.04134268 0.012552645 0.05414682 -0.022083372 0.0020023314
0.0039301286 0.059190188 0.024518583 0.0037087128 0.02199328 -0.042750187 -0.021138541 0.060483173
-0.028916573 0.04582734 -0.016513098 -0.008409006 0.011966622 0.04284587 -0.0088079935 -0.05328154
0.059841592 0.027428899 0.035384197 -0.03081521 -0.052934617 0.04727085 0.007334271 -0.0012603063
0.053884443 0.028611202 0.029759195 -0.02403906 -0.025097309 0.016291237 -0.023833638 -0.061316285
0.060868848 0.0004476714 -0.066480294 -0.036235176 0.039194487 0.028384602 -0.052216135 0.0021686086
-0.0006171018 0.01988813 -0.0504257 -0.050171584 -0.0154759195 -0.036636993 0.047404196 -0.024274606
0.02546184 0.029769659 -0.008417164 -0.011648755 0.047455348 0.028406883 0.050497595 0.012888214
0.044285785 -0.007148196 -0.025978269 -0.010713111 0.048782025 -0.05721369 -0.032601677 0.033251047
-0.028641438 0.03396521 -0.013290585 -0.030223997 -0.058392163 0.028144997 0.024666492 0.015139796
0.022516768 0.033562094 -0.059283506 0.016688967 -0.030163473 -0.04506586 0.038699392 -0.0068258103
0.055863276 0.0052446965 -0.051427368 -0.0066680294 0.049837843 -0.030676048 -0.067296796 0.028893398
-0.0043540886 -0.056055382 -0.017317038 0.04878984 -0.036567125 0.013661777 0.05096833 0.03725621
-0.040265065 -0.05281417 -0.013053722 -0.016763056 0.0482634 -0.008245204 0.02184437 0.017465243
-0.040498957 -0.018777965 -0.04898952 0.012194186 0.056978688 -0.05278587 -0.00018592617 -0.03399132
0.04841742 0.05616838 -0.032671075 0.034318868 -0.0029307636 -0.059917815 -0.03132407 0.035210468
0.052312326 0.025727384 0.012570512 0.014935266 -0.0063274764 0.010858485 0.006765701 -0.05716675
-0.041071147 0.04619683 -0.043106634 0.024464322 0.051071037 0.0037710378 -0.033966888 0.019751647
-0.045853954 0.0050613508 0.060432386 -0.028539188 -0.053825483 0.04526005 -0.012064516 0.03962758
-0.0068412535 0.0490821 -0.050003994 -0.05220358 -0.008883244 0.032685366 0.053543817 -0.050087985
-0.045532413 0.03940293 0.010049675 -0.03921418 -0.019617438 0.03618849 -0.029905815 0.021098478
0.032675166 0.008527233 -0.010167704 0.0065623773 0.060648263 -0.01089592 -0.05046382 -0.04200952
0.0476886 0.0052896035 0.024180293 -0.0015583762 -0.036200486 0.0005109121 0.030090578 -0.06110996
-0.005864122 -0.046790216 0.0426851 0.04303041 -0.018293694 0.038537443 0.030150525 0.038290918
0.06045944 0.034174144 -0.0076076714 -0.0039231614 -0.04564051 0.009105715 0.045651793 -0.016826322
-0.019972371 0.0062135425 0.031031577 -0.0056404592 -0.0012717358 0.021653244 -0.03035292 0.008599724
0.0090003 0.0580229 0.030309483 -0.062168412 -0.007883142 0.031473935 0.028861035 -0.0042721606
0.008243022 0.02562543 0.005564151 0.022126708 0.060678836 0.020183198 -0.0053590555 -0.005780229
0.041245986 0.0413923 -0.023499383 0.037093148 0.04089246 0.018933272 -0.010725365 0.057085875
-0.023246078 -0.043963723 -0.017807955 0.05328321 -0.043625392 0.060240738 0.05792283 -0.037786093
00000000: 26f7 60bd dc29 80bc 10fa 203c 110a 46bc
00000010: da44 553b f4c5 7cbd 420d 4f3d 99a6 3ebd
00000020: dfab 673d 1f35 52bd 2f6c 493c 2365 25bd
00000030: 8c3a f13c b8e7 133d 028b 39bd 665f 263c
00000040: 262a 50bd dd91 44bd 1b9b b73c f156 29bd
00000050: 9ca9 4d3c 0ec9 5d3d 30e8 b4bc 8c39 033b
00000060: 4fc8 803b 6971 723d 32db c83c e00d 733b
00000070: 402b b43c d21a 2fbd bc2a adbc 34bd 773d
00000080: 73e2 ecbc 73b5 3b3d 7a46 87bc edc5 09bc
00000090: a70f 443c 277f 2f3d 674f 10bc be3d 5abd
000000a0: 751c 753d 92b2 e03c 05ef 103d 2e70 fcbc
000000b0: f8d1 58bd 149f 413d 5354 f03b dd30 a5ba
000000c0: efb5 5c3d 0a62 ea3c 8ec9 f33c 90ed c4bc
000000d0: df98 cdbc 3375 853c c33e c3bc c926 7bbd
000000e0: 9d51 793d 70b5 ea39 d226 88bd 566b 14bd
000000f0: 668a 203d d386 e83c 96e0 55bd 371f 0e3b
00000100: 00c5 21ba 6eec a23c 2e8b 4ebd b880 4dbd
00000110: b68e 7dbc ac10 16bd e72a 423d 8adb c6bc
00000120: 5995 d03c 80df f33c 25e8 09bc 6bda 3ebc
00000130: 8a60 423d 8db5 e83c 91d6 4e3d 1629 533c
00000140: 0365 353d 6a3b eabb 61d0 d4bc 0b86 2fbc
00000150: a9cf 473d e758 6abd 5689 05bd 4032 083d
00000160: 73a1 eabc 1b1f 0b3d c1c0 59bc 5198 f7bc
00000170: 9f2c 6fbd 5690 e63c 6211 ca3c e80c 783c
00000180: 1675 b83c 6878 093d 43d3 72bd 4db7 883c
00000190: 6319 f7bc fb96 38bd 4183 1e3d 0cab dfbb
000001a0: e4d0 643d b4db ab3b 81a5 52bd 7c7f dabb
000001b0: c422 4c3d 564c fbbc e7d2 89bd d9b1 ec3c
000001c0: beac 8ebb 549a 65bd 76dc 8dbc dbd7 473d
000001d0: 69c7 15bd a5d5 5f3c 2bc4 503d f899 183d
000001e0: fbec 24bd ac53 58bd 47df 55bc ad52 89bc
000001f0: d8af 453d e416 07bc f7f2 b23c 4513 8f3c
00000200: 3ce2 25bd 3fd4 99bc 3ca9 48bd 20ca 473c
00000210: 7c62 693d ff35 58bd 2df5 42b9 7b3a 0bbd
00000220: 5851 463d d110 663d 1bd2 05bd f191 0c3d
00000230: 0e12 40bb 626c 75bd ab4d 00bd da38 103d
00000240: 7345 563d 3cc2 d23c 8cf4 4d3c 0cb3 743c
00000250: b856 cfbb c9e7 313c d0b2 dd3b af27 6abd
00000260: 383a 28bd e338 3d3d 9590 30bd 6769 c83c
00000270: dd2f 513d 8423 773b dd20 0bbd 35ce a13c
00000280: 5bd1 3bbd b0d9 a53b f387 773d 04cb e9bc
00000290: 1c78 5cbd 9a62 393d 3faa 45bc 8850 223d
000002a0: 982c e0bb 500a 493d fdd0 4cbd 6cd3 55bd
000002b0: 078b 11bc 17e1 053d c350 5b3d 0f29 4dbd
000002c0: 3280 3abd f764 213d 64a7 243c 0c9f 20bd
000002d0: c0b4 a0bc 623a 143d 0afd f4bc b7d6 ac3c
000002e0: 65d6 053d cfb5 0b3c 7196 26bc 3609 d73b
000002f0: 506a 783d cd84 32bc 27b3 4ebd 2d12 2cbd
00000300: 1f55 433d 6954 ad3b c015 c63c 6e42 ccba
00000310: f646 14bd bbee 053a 8480 f63c 704e 7abd
00000320: d227 c0bb 19a7 3fbd 92d6 2e3d a840 303d
00000330: a8dc 95bc 70d9 1d3d 3cfe f63c f0d6 1c3d
00000340: 51a4 773d 30fa 0b3d c649 f9bb dd8d 80bb
00000350: 8bf1 3abd 2330 153c 60fd 3a3d 5bd7 89bc
00000360: 199d a3bc f99a cb3b ef35 fe3c 9ad3 b8bb
00000370: 5fb0 a6ba 2562 b13c b0a6 f8bc dbe5 0c3c
00000380: ff75 133c 6ca9 6d3d 984b f83c 4ea4 7ebd
00000390: 4b28 01bc d0ea 003d fa6d ec3c 7bfd 8bbb
000003a0: bd0d 073c 6cec d13c 7b53 b63b 1243 b53c
000003b0: 5f8a 783d 3c57 a53c 049b afbb 1368 bdbb
000003c0: 8df1 283d f98a 293d c781 c0bc fcee 173d
000003d0: da7e 273d f319 9b3c 71b9 2fbc e1d2 693d
000003e0: 8f6e bebc 4e13 34bd fde1 91bc 7f3f 5a3d
000003f0: 8ab0 32bd febe 763d 7d40 6d3d 97c5 1abd

fc1.bias f4 [256]
-0.16734312 -0.1677503 0.16423054 0.03455316 -0.057808936 0.15492517 -0.025376594 0.019214304
-0.17221949 -0.15801772 -0.17151302 0.060507633 0.11885656 -0.09581407 0.0767464 0.17156744
0.040945757 0.005782964 -0.044015195 0.0266434 0.13239804 0.11206249 -0.16965531 0.06672592
-0.09209214 0.13375543 -0.1252983 -0.16738854 0.09158819 -0.057920102 -0.0008573834 -0.015817646
0.015596557 -0.049470183 0.02974976 -0.08287823 0.11117974 0.06751079 -0.10014126 -0.035633937
-0.00037061656 -0.006603783 0.13994387 -0.06631098 0.08327241 -0.12185508 5.96411e-05 -0.111595854
-0.031412832 0.06295755 -0.039330024 0.14415841 -0.036153372 0.090262465 -0.015535391 -0.12617987
0.044328265 -0.06272907 0.089294605 -0.055653993 -0.12634553 0.15781029 -0.17415048 0.02599057
0.16816157 -0.110765815 -0.16932935 0.119310446 0.020443248 0.11418759 0.03724171 0.004428476
0.061118066 -0.17330688 0.076238014 -0.06876536 -0.106943496 0.048152518 0.008149763 0.14813846
-0.10571758 -0.14181267 0.015194721 0.015318113 -0.0924395 -0.0628188 0.13922097 0.14158925
-0.076780796 -0.045629237 -0.051089995 -0.07091485 -0.008955278 0.052463066 -0.09774106 -0.031838175
-0.15999265 0.10973152 -0.046026286 -0.112656504 0.16531757 0.058290116 0.09216434 0.117796965
0.05746885 -0.09393813 -0.16381255 -0.06887342 -0.0484126 -0.034822807 0.09803129 -0.16523151
0.09261071 0.094190404 0.015896281 -0.032033823 0.096354656 -0.11508554 -0.012546873 0.054778766
0.037828773 0.0061423946 0.042607907 -0.14115106 0.10154552 -0.13578048 0.0637601 -0.020910254
-0.073316246 0.0040657423 -0.03952875 0.15806049 0.1450693 0.06508631 -0.0070430543 0.14007206
-0.14976838 0.15711412 0.07504636 0.117283665 0.1603539 0.0120391995 0.049370915 0.09023908
-0.119256474 0.1704238 -0.008974835 0.06372788 -0.1129808 0.15308031 0.03341186 -0.13455112
0.1138978 0.05992921 0.08303551 -0.016217714 0.030643802 -0.11851754 0.1499441 0.12390599
-0.01208074 -0.15144257 -0.117365755 -0.08438708 0.11473764 -0.1119472 -0.08339663 -0.07551234
-0.13845643 0.06321853 0.057724603 -0.15116309 0.1295601 0.0054179085 -0.10500576 0.01184205
0.03907714 0.052934248 -0.10288905 0.17215306 0.13814214 0.15418802 -0.009357059 -0.0032005378
-0.13462445 0.16113628 -0.026074585 -0.045377083 -0.04522803 -0.111767516 -0.14291617 -0.009156568
-0.14300588 -0.09222052 0.110598505 0.06660098 -0.1275641 -0.029256433 -0.07247965 0.058983758
-0.013254842 0.06977056 0.04339846 0.037687253 0.114232 0.06415497 -0.17076422 0.15281877
-0.13931027 0.1001595 -0.014803451 0.088183835 -0.06765771 -0.024675496 -0.046275727 0.16036676
-0.10143243 0.10815836 -0.150757 0.056529026 -0.14382975 -0.09286783 0.092668205 0.109427065
-0.024453938 -0.14266925 -0.13395491 0.033814654 0.10028264 0.06888321 -0.17123736 -0.08137704
0.075817816 0.12636071 0.08720948 -0.041675113 -0.025936976 -0.053891882 -0.061464995 -0.029007677
0.05548598 -0.009347045 0.040361203 -0.020560334 0.09322811 -0.06731833 0.019953754 -0.011338697
-0.1188203 -0.00032602597 0.03702773 0.03263394 0.038608603 -0.08603656 -0.13258511 0.063184336
00000000: ff5b 2bbe bcc6 2bbe 0d2c 283e 9d87 0d3d
00000010: 10c9 6cbd b4a4 1e3e 93e2 cfbc 5167 9d3c
00000020: 4e5a 30be 66cf 21be 1ca1 2fbe dad6 773d
00000030: 116b f33d 2b3a c4bd 372d 9d3d 60af 2f3e
00000040: bdb6 273d 057f bd3b 4749 34bd 4243 da3c
00000050: 5a93 073e 0581 e53d 1fba 2dbe 99a7 883d
00000060: ce9a bcbd 2ff7 083e 334e 00be e767 2bbe
00000070: 9792 bb3d a13d 6dbd 07c2 60ba 0294 81bc
00000080: b488 7f3c 3fa1 4abd c5b5 f33c 10bc a9bd
00000090: 34b2 e33d 1943 8a3d dc16 cdbd e4f4 11bd
000000a0: 504f c2b9 8c64 d8bb 724d 0f3e 0dce 87bd
000000b0: ba8a aa3d 288f f9bd 2527 7a38 5e8c e4bd
000000c0: beaa 00bd e3ef 803d 8518 21bd 439e 133e
000000d0: 8f15 14bd 87db b83d 2788 7ebc 4c35 01be
000000e0: 8e91 353d 1978 80bd 17e0 b63d 71f5 63bd
000000f0: b960 01be 0599 213e 8154 32be 2dea d43c
00000100: 8c32 2c3e 30d9 e2bd ac64 2dbe 0959 f43d
00000110: 9978 a73c 2fdb e93d c38a 183d c01c 913b
00000120: f056 7a3d 5c77 31be ad22 9c3d dad4 8cbd
00000130: 3105 dbbd 933b 453d 9586 053c 9cb1 173e
00000140: 7582 d8bd 5737 11be 47f3 783c d3f8 7a3c
00000150: ec50 bdbd 25a7 80bd f18f 0e3e c6fc 103e
00000160: 403f 9dbd b9e5 3abd be43 51bd ce3b 91bd
00000170: 29b9 12bc 83e3 563d 772c c8bd bf68 02bd
00000180: 1dd5 23be ebba e03d 0f86 3cbd 74b8 e6bd
00000190: 0249 293e 9ec1 6e3d a8c0 bc3d 893f f13d
000001a0: 7564 6b3d a262 c0bd 7abe 27be 820d 8dbd
000001b0: 4a4c 46bd 5ca2 0ebd a1c4 c83d 7332 29be
000001c0: afaa bd3d e6e6 c03d eb38 823c e635 03bd
000001d0: 9755 c53d f8b1 ebbd 6691 4dbc b35f 603d
000001e0: 58f2 1a3d 2446 c93b a185 2e3d e789 10be
000001f0: 19f7 cf3d 0a0a 0bbe a894 823d fb4b abbc
00000200: d426 96bd eb39 853b e6e8 21bd 9cda 213e
00000210: 0c8d 143e f94b 853d 6cc9 e6bb 0d6f 0f3e
00000220: e25c 19be 86e2 203e e8b1 993d 6b32 f03d
00000230: d033 243e 1040 453c 2839 4a3d 44cf b83d
00000240: bd3c f4bd 9483 2e3e 300b 13bc c383 823d
00000250: 7a62 e7bd 16c1 1c3e e0da 083d c5c7 09be
00000260: 4043 e93d 5578 753d 850e aa3d 03db 84bc
00000270: b608 fb3c 53b9 f2bd f28a 193e 6cc2 fd3d
00000280: 4cee 45bc c313 1bbe 755d f0bd 22d3 acbd
00000290: 91fb ea3d 9344 e5bd dacb aabd 37a6 9abd
000002a0: 86c7 0dbe b778 813d a270 6c3d 7fca 1abe
000002b0: 67ab 043e b688 b13b 430d d7bd 2805 423c
000002c0: 5a0f 203d 95d1 583d 7fb7 d2bd e448 303e
000002d0: 2275 0d3e 77e3 1d3e 5a4e 19bc 1dc0 51bb
000002e0: feda 09be e900 253e 5e9a d5bc 52dd 39bd
000002f0: 0741 39bd 5ee6 e4bd 9e58 12be 6e05 16bc
00000300: 2270 12be 1dde bcbd 7881 e23d 1866 883d
00000310: 2aa0 02be 30ab efbc 3670 94bd f498 713d
00000320: d62a 59bc dee3 8e3d 95c2 313d f35d 1a3d
00000330: 78f2 e93d ae63 833d d1dc 2ebe 867c 1c3e
00000340: 5aa7 0ebe 6d20 cd3d 2c8a 72bc ba99 b43d
00000350: 2090 8abd 4424 cabc 9e8b 3dbd 2f37 243e
00000360: cebb cfbd 2182 dd3d 0b60 1abe fb8a 673d
00000370: 1b48 13be 7d31 bebd d4c8 bd3d 4c1b e03d
00000380: a053 c8bc e317 12be 7a2b 09be 3c81 0a3d
00000390: fc60 cd3d a412 8d3d d958 2fbe 01a9 a6bd
000003a0: 5f46 9b3d b464 013e e29a b23d 86b3 2abd
000003b0: c879 d4bc bcbd 5cbd b8c2 7bbd 82a1 edbc
000003c0: 4445 633d 5924 19bc ca51 253d 256e a8bc
000003d0: 61ee be3d 31de 89bd 0e76 a33c f1c5 39bc
000003e0: 0f58 f3bd 77ee aab9 64aa 173d 2bab 053d
000003f0: 0e24 1e3d f033 b0bd 64c4 07be ca66 813d

bn1.weight f4 [256]
0.542781 0.27095363 1.0006642 0.6946518 0.9300265 0.0788977 0.6126866 0.026397873
0.2181739 0.62768507 0.7052023 0.6887438 0.761078 0.22298074 0.32812977 0.42909625
0.58484703 0.5731342 0.25787446 0.87435085 0.021652434 0.77734673 0.028626017 0.005242611
0.49325135 0.9601729 0.46621606 0.46369112 0.8683225 0.67596954 0.9418286 0.873015
0.33046925 0.668855 0.15763667 0.91247755 0.3219904 0.89837146 0.17953043 0.63494307
0.5361778 0.92650086 0.88584775 0.17212866 0.16768894 0.24224041 0.17587021 0.547106
0.33521527 0.5926903 0.9152162 0.17434081 0.07348747 0.6975423 0.10688283 0.05590401
0.12534544 0.63496494 0.014706917 0.5643995 0.98273045 0.5550789 0.85082394 0.8695074
0.09498059 0.72384804 0.73993987 0.61590177 0.037586592 0.901818 0.13037951 0.87845296
0.0543098 0.53392065 0.9210866 0.44503346 0.043216 0.2397402 0.90211034 0.45733878
0.815599 0.5573965 0.88255584 0.372373 0.8567776 0.49807078 0.8033411 0.5604933
0.92905265 0.9743933 0.036921475 0.7151115 0.62095755 0.45711148 0.7043001 0.8936464
0.3132017 0.9812511 0.79986733 0.739994 0.15206923 0.9777036 0.8636873 0.49183697
0.099661894 0.38587308 0.8503291 0.16080219 0.64567 0.18478651 0.38610712 0.6746064
0.7601197 0.2168513 0.1511153 0.54534 0.45502037 0.120253205 0.32446545 0.03705041
0.5224228 0.7986434 0.37394124 0.56025606 0.63443005 0.2705509 0.88921875 0.53682524
0.7871618 0.17276998 0.6012336 0.0515305 0.40595528 0.6238015 0.14996415 0.14482512
0.13858643 0.27577886 0.81393147 0.6437987 0.23449895 0.5787945 0.12802099 0.14414407
0.3801138 0.29144856 0.53187585 0.613879 0.068119936 0.25451812 0.28696322 0.12958406
0.6820842 0.53518957 0.43088824 0.3024685 0.9971938 0.06728536 0.22226855 0.050211843
0.6751906 0.1434036 0.56201696 0.26570258 0.067263775 0.044543702 0.30021515 0.6643003
0.16299652 0.467429 0.5249408 0.6221841 0.24403918 0.1353388 0.7135385 0.601939
0.50182456 0.75747937 0.85616726 0.6788739 0.6555143 0.2292843 0.89095944 0.40879738
0.9079719 0.27146298 0.097271696 0.13814378 0.5040005 0.512232 0.5320266 0.96715254
0.06704152 0.53843534 1.0007308 0.4717701 0.099696994 0.562567 0.07490644 0.20940436
0.24577616 0.90915155 0.7180678 0.27271125 0.7572276 0.14031124 0.12179372 0.52309275
0.36620623 0.76195973 0.7739881 0.9985687 0.3517123 0.9035602 0.45512238 0.18037732
0.38655 0.5675263 0.79374665 0.91173023 0.11629422 0.9542544 0.7682265 0.52347213
0.02182484 0.5488559 0.5708585 0.2414129 0.23489325 0.10147462 0.47510847 0.56511676
0.93998337 0.8428714 0.34666663 0.5778135 0.9561778 0.7923226 0.5444276 0.82991827
0.18090971 0.5640413 0.5242015 0.85803944 0.40643457 0.04474605 0.41547832 0.4534917
0.6125097 0.009761062 0.17049865 0.758769 0.8834274 0.5848579 0.5460743 0.99620974
00000000: b2f3 0a3f 6fba 8a3e c415 803f b3d4 313f
00000010: 3716 6e3f 1e95 a13d 07d9 1c3f 5a40 d83c
00000020: fb68 5f3e f8af 203f 2388 343f 8451 303f
00000030: 02d6 423f 1055 643e a000 a83e 81b2 db3e
00000040: 89b8 153f ecb8 123f 1f08 843e 75d5 5f3f
00000050: 7260 b13c 3200 473f 1c81 ea3c 35ca ab3b
00000060: 718b fc3e e4cd 753f dfb3 ee3e ec68 ed3e
00000070: 624a 5e3f 570c 2d3f ae1b 713f e97d 5f3f
00000080: 4433 a93e 153a 2b3f 826b 213e 2198 693f
00000090: eddb a43e acfb 653f d3d6 373e a18b 223f
000000a0: f342 093f 292f 6d3f ebc6 623f 7f42 303e
000000b0: a6b6 2b3e df0d 783e 5217 343e 240f 0c3f
000000c0: 56a1 ab3e 8dba 173f 9c4b 6a3f 6686 323e
000000d0: 9980 963d 2292 323f 63e5 da3d 9afb 643d
000000e0: 8e5a 003e 108d 223f 48f5 703c 7c7c 103f
000000f0: 3994 7b3f a719 0e3f 99cf 593f 0998 5e3f
00000100: 2f85 c23d 1b4e 393f b36c 3d3f bdab 1d3f
00000110: 66f4 193d 8bdd 663f 3582 053e 4be2 603f
00000120: f473 5e3d 06af 083f 55cc 6b3f 6ddb e33e
00000130: 4303 313d 747e 753e b4f0 663f 4f28 ea3e
00000140: 19cb 503f 89b1 0e3f 2eef 613f ada7 be3e
00000150: c755 5b3f 2203 ff3e c3a7 4d3f 7d7c 0f3f
00000160: 65d6 6d3f d771 793f f93a 173d 8c11 373f
00000170: 13f7 1e3f 840a ea3e 034d 343f 03c6 643f
00000180: f95b a03e 4633 7b3f 1bc4 4c3f 3f70 3d3f
00000190: 09b8 1b3e c84a 7a3f 9c1a 5d3f 0ed2 fb3e
000001a0: 891b cc3d 2891 c53e 2baf 593f 54a9 243e
000001b0: a14a 253f ad38 3d3e d5af c53e 01b3 2c3f
000001c0: 3497 423f 440e 5e3e f8bd 1a3e 679b 0b3f
000001d0: 6ef8 e83e 5047 f63d 5620 a63e 2cc2 173d
000001e0: 80bd 053f e573 4c3f 3a75 bf3e f16c 0f3f
000001f0: 026a 223f a685 8a3e d7a3 633f 616d 093f
00000200: 7083 493f 9dea 303e 72ea 193f a511 533d
00000210: 5fd9 cf3e 75b1 1f3f 3490 193e 094d 143e
00000220: 9ae9 0d3e e332 8d3e d05d 503f fecf 243f
00000230: 7e20 703e e02b 143f ef17 033e 819a 133e
00000240: 479e c23e bf38 953e 0429 083f 2d27 1d3f
00000250: 7782 8b3d 3350 823e d8ec 923e afb1 043e
00000260: 129d 2e3f 2f02 093f 629d dc3e 27dd 9a3e
00000270: 1848 7f3f e8cc 893d 5e9a 633e efaa 4d3d
00000280: 4bd9 2c3f 65d8 123e 58e0 0f3f 2b0a 883e
00000290: 97c1 893d 7573 363d cdb5 993e 960f 2a3f
000002a0: 8fe8 263e db52 ef3e 8562 063f 7547 1f3f
000002b0: 68e5 793e 4196 0a3e 76aa 363f ad18 1a3f
000002c0: 9377 003f 2bea 413f c72d 5b3f aeca 2d3f
000002d0: c9cf 273f 81c9 6a3e eb15 643f e44d d13e
000002e0: d970 683f 32fd 8a3e 6236 c73d 9075 0d3e
000002f0: 2d06 013f a321 033f e532 083f 4f97 773f
00000300: 104d 893d e6d6 093f f217 803f da8b f13e
00000310: f02d cc3d 6404 103f 8c68 993d 196e 563e
00000320: bfac 7b3e 28be 683f 4bd3 373f cfa0 8b3e
00000330: abd9 413f c0ad 0f3e fc6e f93d 68e9 053f
00000340: 627f bb3e cb0f 433f 1624 463f 33a2 7f3f
00000350: a213 b43e b94f 673f cd05 e93e d5b4 383e
00000360: e2e9 c53e 6749 113f fb32 4b3f 2767 693f
00000370: aa2b ee3d 044a 743f 7eaa 443f 4502 063f
00000380: 02ca b23c d281 0c3f c823 123f f134 773e
00000390: db87 703e edd1 cf3d 6b41 f33e 7eab 103f
000003a0: c0a2 703f 6cc6 573f 4a7e b13e 96eb 133f
000003b0: 11c8 743f a7d5 4a3f 9b5f 0b3f 8675 543f
000003c0: 6540 393e 0365 103f 1232 063f 79a8 5b3f
000003d0: 3118 d03e a247 373d 93b9 d43e 1030 e83e
000003e0: 70cd 1c3f ddec 1f3c 3397 2e3e af3e 423f
000003f0: 4c28 623f 3fb9 153f 86cb 0b3f 9a07 7f3f

bn1.bias f4 [256]
0.00065157964 0.0018143812 -0.0025691132 0.008126896 0.0017540882 0.00026971166 -0.0031525597 -0.0054292735
0.0061847274 0.0021644544 0.012596694 -0.0069884304 0.0048095677 -0.011739197 0.003076273 0.012909931
-0.008697376 0.0070846356 0.0018018866 0.005421277 -0.0010987738 -0.010645237 0.00083436095 0.0038275484
0.0066576255 0.010191447 -0.0037526619 0.0056638196 -0.00054820336 0.0008828333 0.0017209498 -0.004030874
0.00394921 -0.003458161 -0.0069926246 0.0013267111 0.008573167 0.0017384167 -0.0050685764 0.014550754
-0.0043513915 0.0048088087 -0.0011809447 0.0029781088 -0.0043489635 -0.008867485 0.0033932833 -0.00316229
-0.0062598293 -0.013247752 0.007551936 -0.008571731 -0.003387781 -0.00015086733 0.0074909953 -0.008442677
0.004320771 0.002835505 -0.0007317749 0.0037178881 -0.0031124917 0.0065796217 0.00832073 0.006721294
-0.0038853223 -0.0011302807 -0.009562992 0.015918614 -0.0012018409 0.00036729535 -0.008522867 -0.011874434
-0.009299612 -0.0018419415 0.008897053 -0.0089928005 0.002089092 0.006698777 0.0011052346 0.0006200142
0.001638342 0.0035471844 -0.002023085 0.003992572 0.0041613257 -0.011912823 0.0019361459 0.0021269806
0.009693994 0.0041544004 -0.0012527924 0.005965067 0.002547464 0.0067787208 0.012563244 0.010138572
-0.006836919 -0.0052661523 0.00683785 -0.009486863 -0.004760021 0.015238367 -0.0029746501 0.011285268
0.0040757395 -0.0053395936 0.0063507296 0.0043148194 0.005235122 0.0022371442 0.0040099802 0.00301479
-0.005698197 0.00878451 -0.0007851795 0.004744471 0.0075142924 -0.0032379075 0.0052480595 0.0050606667
-0.0049170936 0.002440519 0.0032946786 -0.0010746628 -0.001440635 0.00038132782 0.005353555 -0.0058295093
-0.0032652325 -0.0052247476 0.012510362 0.008507131 0.005416094 0.010031213 -0.0062625455 -0.010784664
-0.015648207 -0.0018420658 -0.0062101325 -0.00019282314 -0.0006728048 0.014337834 -0.003906869 0.013763516
-0.005191763 0.015141511 -0.008454319 0.008106969 -0.0013126442 -0.0067648944 -0.0015973998 0.005917973
0.01690952 0.014800499 -0.007704586 -0.003236815 0.009944354 0.0009045498 0.0030841052 0.005386543
0.0045460695 -0.003533792 -0.00036784643 0.012297197 -0.0036930179 0.00023849284 -0.004134781 -0.0042480244
-0.0010268119 -0.004631459 0.009317581 0.00079913787 -0.0048608165 0.012772856 -1.528602e-05 0.011528055
0.013944115 -0.0034985936 -0.0006817176 0.005224858 0.0017234185 -0.005712639 0.007620581 0.0038426772
0.009036518 -0.00229016 0.004292069 0.004646964 -0.006760576 -0.0002041567 -0.0105203595 -0.0011342781
-0.0015544082 0.0043817014 -0.011059244 0.0043257438 -0.0041333153 0.0073504252 0.009521428 0.003764486
0.0024506117 0.00039726865 0.007870225 -0.011954628 0.00046666732 -0.002535026 -0.004972052 0.0018543829
0.01496713 -0.0023773143 0.0014718876 0.0008283299 -0.0131298425 -0.00568572 0.00534465 -0.0043965033
0.003677889 0.010596126 0.0035104088 0.0062049627 0.0058112233 0.009547438 -0.0037647989 -0.002753909
-0.0023381559 -0.006733042 0.0018121836 -0.01363282 -0.004066432 -0.002450181 -0.0014506951 0.00356762
-0.0027175788 0.0059331553 -0.0017347274 0.016388075 -0.0019319118 0.0033251862 0.0004069001 -0.016016563
-0.0012298892 0.0030989472 -0.0011956857 0.01305789 0.0028816292 0.0027441327 -0.010228047 0.001299137
0.012120069 -0.0041491324 -0.004677674 0.0021187868 0.00896396 -0.004305123 0.0032909748 -0.0019531043
00000000: c5ce 2a3a 88d0 ed3a 915e 28bb ac26 053c
00000010: 6fe9 e53a 1668 8d39 2d9b 4ebb 0ce8 b1bb
00000020: 41a9 ca3b 85d9 0d3b 5d62 4e3c 34ff e4bb
00000030: 9499 9d3b c355 40bc 4c9b 493b 2d84 533c
00000040: 707f 0ebc 3b26 e83b 482d ec3a f8a4 b13b
00000050: bb04 90ba 5c69 2ebc 04b9 5a3a 9bd7 7a3b
00000060: 3628 da3b 07fa 263c 38ef 75bb 9097 b93b
00000070: 4eb5 0fba f16d 673a 7e91 e13a 6c15 84bb
00000080: 6068 813b 50a2 62bb 6322 e5bb 0ae5 ad3a
00000090: 7876 0c3c 96db e33a 4d16 a6bb 4966 6e3c
000000a0: 1e96 8ebb 3693 9d3b eec9 9aba 602c 433b
000000b0: c081 8ebb ee48 11bc d961 5e3b 6c3e 4fbb
000000c0: 411f cdbb 190d 59bc 3b76 f73b 7270 0cbc
000000d0: 8905 5ebb 2432 1eb9 0677 f53b 2753 0abc
000000e0: 4195 8d3b e1d3 393b 95d4 3fba d0a7 733b
000000f0: f2fa 4bbb de99 d73b ac53 083c 4d3e dc3b
00000100: e4a0 7ebb ed25 94ba 18ae 1cbc c167 823c
00000110: 1787 9dba 8c91 c039 7fa3 0bbc fc8c 42bc
00000120: 665d 18bc 4d6d f1ba f2c4 113c 8a56 13bc
00000130: 26e9 083b 6a81 db3b 85dd 903a 7388 223a
00000140: a3bd d63a e177 683b bc95 04bb 1fd4 823b
00000150: bb5b 883b 002e 43bc 47c6 fd3a d064 0b3b
00000160: 8fd3 1e3c a321 883b bd34 a4ba 9c76 c33b
00000170: 5bf3 263b 0820 de3b 11d6 4d3c 411c 263c
00000180: 3c08 e0bb b08f acbb 0b10 e03b ca6e 1bbc
00000190: f3f9 9bbb 58aa 793c 59f2 42bb d8e5 383c
000001a0: c88d 853b c2f7 aebb c819 d03b 5463 8d3b
000001b0: 638b ab3b 0d9d 123b 2766 833b c893 453b
000001c0: f1b7 babb e8ec 0f3c 81d4 4dba 8277 9b3b
000001d0: 743a f63b 1333 54bb eaf7 ab3b f3d3 a53b
000001e0: 921f a1bb 1df1 1f3b 89eb 573b b3db 8cba
000001f0: b0d3 bcba f4ec c739 e06c af3b 7805 bfbb
00000200: 83fd 55bb 5c34 abbb 43f8 4c3c 7e61 0b3c
00000210: 7d79 b13b f559 243c 0a36 cdbb 29b2 30bc
00000220: ab30 80bc 7971 f1ba 5e7e cbbb 9130 4ab9
00000230: 2a5f 30ba 3ce9 6a3c 3105 80bb 5f80 613c
00000240: aa1f aabb 1a14 783c fc83 0abc 18d3 043c
00000250: 080d acba 0cac ddbb d85f d1ba 8eeb c13b
00000260: d585 8a3c cb7d 723c c076 fcbb bf20 54bb
00000270: a5ed 223c 4f1f 6d3a b31e 4a3b 9981 b03b
00000280: 32f7 943b 3197 67bb 83db c0b9 2f7a 493c
00000290: 8f06 72bb ef13 7a39 0f7d 87bb 0333 8bbb
000002a0: 1796 86ba 7ec3 97bb c4a8 183c 3c7d 513a
000002b0: 7c47 9fbb 3e45 513c 7a3a 80b7 2be0 3c3c
000002c0: db75 643c a948 65bb 4bb5 32ba 4935 ab3b
000002d0: 54e4 e13a 1731 bbbb 11b6 f93b 6dd5 7b3b
000002e0: e70d 143c 8216 16bb 7ca4 8c3b 8f45 983b
000002f0: d287 ddbb e612 56b9 965d 2cbc 0fac 94ba
00000300: 49bd cbba 6094 8f3b d531 35bc f8be 8d3b
00000310: c370 87bb d6db f03b c3ff 1b3c 98b5 763b
00000320: 719a 203b 7f48 d039 1ef2 003c 58dd 43bc
00000330: 07ab f439 ae22 26bb 98ec a2bb c40e f33a
00000340: b138 753c b7cc 1bbb 5aec c03a 4724 593a
00000350: 8d1e 57bc 474f babb 2c22 af3b 8b10 90bb
00000360: bd08 713b 609b 2d3c e30e 663b 0053 cb3b
00000370: 136c be3b db6c 1c3c d8ba 76bb ed7a 34bb
00000380: bf3b 19bb daa0 dcbb cb86 ed3a 315c 5fbc
00000390: b43f 85bb 3793 20bb 4025 beba bbce 693b
000003a0: 6819 32bb ea6a c23b cb5f e3ba 4940 863c
000003b0: 3438 fdba 5eeb 593b 3555 d539 2b35 83bc
000003c0: 3c34 a1ba b517 4b3b 8eb8 9cba c3f0 553c
000003d0: b7d9 3c3b e8d6 333b 8a93 27bc ce47 aa3a
000003e0: 4193 463c 72f5 87bb 2c47 99bb 58db 0a3b
000003f0: 93dd 123c fd11 8dbb 65ad 573b 4eff ffba

bn1.running_mean f4 [256]
0.4064269 1.2484933 0.653025 0.8612615 1.0524024 1.2088485 0.69043964 1.2560525
1.1022462 0.65177613 1.4121895 1.1189494 1.5433067 0.6960105 0.25655776 1.3566563
0.7795895 0.9144478 1.7630427 0.38647377 0.32344288 0.9527875 1.080432 1.059963
0.7269779 1.1784244 0.7213735 1.0828694 1.2063631 1.3512139 0.46066207 1.1108979
1.0786413 0.39558527 1.405267 0.2852134 1.4103425 0.41228697 0.65563303 0.5868771
0.28924906 1.6600052 0.28890005 1.0613561 1.1540762 0.68940514 0.65844077 0.7638267
0.0791855 1.1768421 0.9977684 1.4372767 0.78755164 0.47275472 1.1790204 0.66230154
0.69277376 0.4585343 0.16746718 1.8233964 1.1718724 1.4542894 0.7844962 0.65729684
1.1912905 0.52449226 0.4103636 0.33508506 0.48222542 1.0445731 1.0177044 0.48204657
0.7923297 0.5507147 0.16257522 0.32730147 0.41910487 0.8373365 0.8961128 0.45220572
0.2186753 1.6533989 0.25635454 0.9164454 1.357555 1.2518874 1.0540465 0.6196039
0.27659062 1.6524708 0.61827874 0.79996765 1.0340358 0.72218835 1.4233875 0.5413942
0.4220775 1.1932808 1.1024237 0.81803316 0.5718041 0.5601939 0.8327608 0.1313963
0.78521866 0.96853894 0.38379952 0.24562965 1.0073969 1.222485 1.5917015 0.36849487
0.58932436 0.84955484 0.94041824 0.6452285 0.56739897 1.4704105 1.2194253 0.81057745
0.3892269 0.9992195 1.1051162 0.6961543 1.3192078 0.69671017 0.56609946 0.75386333
0.79779536 0.5197335 1.2857347 1.0428873 1.3675188 0.97156894 0.3982884 1.3010303
0.7032583 0.8145347 1.7839736 1.3268054 1.2163028 0.42902178 1.124259 0.7332322
0.5750503 0.89687407 0.1947092 0.37432763 0.6087474 0.8707041 0.7249175 0.673265
0.8267598 0.6537033 1.2626702 0.37732083 0.45250484 1.1733657 0.5462594 0.7156758
0.6495004 0.22070989 0.693511 0.8262317 0.6049606 0.8141421 0.68413305 1.3419906
0.705749 0.48491654 0.6588045 1.1775765 1.003225 1.0279474 0.6241098 0.7548982
0.37304777 1.0927868 0.6004462 1.2894907 0.93708426 0.8273361 0.86014605 0.70905507
0.9645172 1.1768254 0.4857755 0.8957548 1.0480641 0.48840412 0.25542524 0.7403547
1.7096217 0.28791478 0.60101324 0.9155438 1.0606718 1.3287848 0.44881213 0.39779788
0.31005865 0.9257864 0.75261027 1.7178701 0.90005124 1.2356962 1.2925104 0.5998058
0.86903906 0.810088 1.2344369 0.40001786 1.3584371 1.0527267 1.3502325 1.3602859
0.71640885 0.79557145 0.9026595 0.53231615 0.4170933 0.47515678 1.3673788 0.32001874
0.38191327 0.5117886 1.1714389 0.7563938 0.25884223 0.59433323 0.9757959 0.6378694
0.5744589 0.43728128 0.808774 0.8591163 0.5920411 0.4528614 0.84843737 0.9448451
0.60544956 0.9525204 0.8166727 1.3228647 1.3819138 0.61872923 0.52780765 0.32295686
0.7429505 0.58581215 1.2636033 0.8280567 0.8028376 1.2876385 0.9746705 0.6070585
00000000: 3017 d03e a1ce 9f3f a52c 273f a27b 5c3f
00000010: 1fb5 863f 8cbb 9a3f a7c0 303f 54c6 a03f
00000020: 6716 8d3f cdda 263f a0c2 b43f bc39 8f3f
00000030: 138b c53f be2d 323f 8a5b 833e eaa6 ad3f
00000040: 2d93 473f 4019 6a3f 62ab e13f e4df c53e
00000050: 4e9a a53e e2e9 733f 994b 8a3f deac 873f
00000060: 391b 3a3f 9cd6 963f efab 383f 779b 8a3f
00000070: 1b6a 9a3f 94f4 ac3f e6db eb3e e731 8e3f
00000080: eb10 8a3f 278a ca3e cadf b33f 7e07 923e
00000090: 1a86 b43f 4717 d33e 91d7 273f 943d 163f
000000a0: 7418 943e 0d7b d43f b5ea 933e 84da 873f
000000b0: c5b8 933f db7c 303f 938f 283f 268a 433f
000000c0: 022c a23d c3a2 963f c06d 7f3f aff8 b73f
000000d0: fc9c 493f e80c f23e 24ea 963f 988c 293f
000000e0: 9f59 313f 02c5 ea3e 847c 2b3e 0e65 e93f
000000f0: eaff 953f 2826 ba3f bed4 483f 9b44 283f
00000100: 357c 983f 2045 063f 2e1b d23e 4590 ab3e
00000110: 40e6 f63e 92b4 853f 2344 823f cfce f63e
00000120: 1fd6 4a3f a3fb 0c3f 1e7a 263e 0f94 a73e
00000130: ea94 d63e af5b 563f a667 653f 8287 e73e
00000140: 6bec 5f3e 93a2 d33f e740 833e 2a9c 6a3f
00000150: 5dc4 ad3f d93d a03f ffea 863f 5c9e 1e3f
00000160: 499d 8d3e 2a84 d33f 8447 1e3f aeca 4c3f
00000170: 495b 843f 56e1 383f 9031 b63f cf98 0a3f
00000180: 8b1a d83e 6dbd 983f 381c 8d3f 9f6a 513f
00000190: c161 123f de68 0f3f d02f 553f c08c 063e
000001a0: 1704 493f 2bf2 773f 5f81 c43e 5786 7b3e
000001b0: 62f2 803f 637a 9c3f e0bc cb3f 5cab bc3e
000001c0: f6dd 163f 6d7c 593f 40bf 703f b22d 253f
000001d0: 0f41 113f 6936 bc3f 2116 9c3f 0182 4f3f
000001e0: c048 c73e d9cc 7f3f 7374 8d3f 2b37 323f
000001f0: cddb a83f 995b 323f e5eb 103f 30fd 403f
00000200: 513c 4c3f 410d 053f f492 a43f 557d 853f
00000210: db0a af3f beb8 783f 75ec cb3e 2988 a63f
00000220: bc08 343f 5985 503f 3f59 e43f c2d4 a93f
00000230: cfaf 9b3f bea8 db3e b8e7 8f3f 1bb5 3b3f
00000240: 7f36 133f 8a99 653f d961 473e dfa7 bf3e
00000250: dfd6 1b3f 77e6 5e3f 3194 393f 185b 2c3f
00000260: 88a6 533f 1959 273f 2d9f a13f 3230 c13e
00000270: b7ae e73e d930 963f a8d7 0b3f 8736 373f
00000280: a945 263f c601 623e f089 313f ec83 533f
00000290: b3de 1a3f 9e6b 503f 5823 2f3f 59c6 ab3f
000002a0: f7ab 343f fb46 f83e 69a7 283f d4ba 963f
000002b0: ad69 803f c893 833f a9c5 1f3f 0241 413f
000002c0: 1e00 bf3e 70e0 8b3f d8b6 193f 080e a53f
000002d0: c1e4 6f3f 4ccc 533f 8832 5c3f a284 353f
000002e0: 99ea 763f 37a2 963f 91b7 f83e 3050 653f
000002f0: f726 863f 1b10 fa3e 19c7 823e e387 3d3f
00000300: e2d4 da3f 9169 933e 01dc 193f 1461 6a3f
00000310: 18c4 873f 9f15 aa3f b4ca e53e 2aac cb3e
00000320: 02c0 9e3e 5600 6d3f 11ab 403f 2be3 db3f
00000330: c269 663f 4b2b 9e3f fb70 a53f df8c 193f
00000340: 5879 5e3f ed61 4f3f 0702 9e3f 24cf cc3e
00000350: 44e1 ad3f c0bf 863f 6bd4 ac3f d91d ae3f
00000360: 9266 373f 92aa 4b3f b114 673f df45 083f
00000370: 418d d53e c047 f33e 4506 af3f 7fd9 a33e
00000380: 238a c33e 9404 033f b6f1 953f 06a3 413f
00000390: f886 843e 3926 183f c3cd 793f 694b 233f
000003a0: bd0f 133f 55e3 df3e d00b 4f3f 0cef 5b3f
000003b0: 0190 173f 73dd e73e 3133 593f 5ee1 713f
000003c0: befe 1a3f 60d8 733f 7611 513f a153 a93f
000003d0: 8de2 b03f 0a65 1e3f 671e 073f 9a5a a53e
000003e0: 0132 3e3f c9f7 153f c1bd a13f 86fb 533f
000003f0: c486 4d3f 57d1 a43f 0284 793f 3068 1b3f

bn1.running_var f4 [256]
0.33442098 2.346461 0.6243283 1.035758 1.9110727 2.1908958 0.7012367 2.1983058
1.6670778 0.70362806 3.2999036 2.126935 3.1998508 0.71693814 0.15535255 2.548119
1.0541105 1.3059628 4.6277285 0.26318148 0.15718599 1.206893 1.9707781 1.9600984
0.8759404 2.271699 0.82015806 2.0192335 1.8060683 2.7435703 0.3822932 1.520765
1.8830286 0.299834 2.829432 0.18954739 2.9409032 0.3471016 0.6015102 0.6041461
0.16426662 3.7737372 0.14568548 1.8685167 2.2111235 0.6496908 0.5148768 0.9787281
0.028317858 1.674471 1.5456076 3.0492744 1.0845578 0.36929253 2.0028074 0.699367
0.82136506 0.36156303 0.040749427 5.0641866 2.0002766 2.7649117 0.8556985 0.60654825
1.950386 0.48064908 0.26225778 0.17963125 0.3258483 1.5775313 1.5518618 0.42262393
1.0935272 0.43669584 0.073909335 0.19033408 0.32291225 1.0149943 0.8574945 0.3296598
0.1491237 3.691058 0.14581144 1.4604948 2.8133857 2.3774126 1.4576858 0.51397926
0.122719064 3.8817205 0.72179145 0.8606937 1.3674146 0.77648145 3.3949456 0.56800896
0.3260838 2.0726235 1.5502169 1.135086 0.58652014 0.4979534 1.0557718 0.051628806
1.0451015 1.5639817 0.2578103 0.13607009 1.5129935 2.1333082 3.5394244 0.30623367
0.34838575 1.1339546 1.2717884 0.6006405 0.52686787 3.1077764 1.9485191 1.0466936
0.2959537 1.4565176 1.3858675 0.83643275 2.0451288 0.72776663 0.52529097 0.68404096
0.7527595 0.37121263 2.5472333 1.3031273 2.5475495 1.5628086 0.23552781 2.5508757
0.9095617 0.984677 4.4273095 2.8675506 2.555804 0.34627196 1.6084315 0.84626335
0.4810486 1.1933103 0.08932118 0.23511268 0.681995 1.4175221 0.8857352 0.7544861
1.2423099 0.7244879 2.0824347 0.28798074 0.42693353 2.3537662 0.50581414 0.7819966
0.55094486 0.11331271 0.95286983 1.1974005 0.5190074 1.0532377 0.74285823 2.8968067
0.8667922 0.44345257 0.7398217 2.1786208 1.5378964 1.4451597 0.61797833 0.7838903
0.2684075 1.5132453 0.59293294 2.173622 1.3448323 1.1199527 1.2064016 0.8283286
1.2470926 1.7776307 0.36862123 1.2294108 1.7126448 0.35802767 0.12373493 0.93232644
4.260047 0.1624838 0.5168652 1.1216767 1.8268706 2.723124 0.42324102 0.33209568
0.15192845 1.3189223 1.0162042 3.718106 1.1788276 2.485435 2.558361 0.50908023
1.229662 1.030154 2.4597118 0.28637618 2.731863 1.7381989 2.806216 2.272795
0.6226848 0.87542856 1.2344856 0.5208259 0.2644641 0.27814922 2.5846145 0.18234837
0.31054637 0.4657252 2.2062821 0.67885554 0.114796214 0.5784945 1.5237584 0.7328459
0.6466491 0.28712526 0.8924116 1.1288666 0.6323717 0.39432523 1.0604534 1.1946534
0.5083372 1.2701246 1.091634 2.553898 2.6015348 0.67432004 0.4933773 0.20782809
0.7230589 0.52142936 2.0090418 1.0864065 0.8660144 2.6603444 1.1000124 0.5500907
00000000: 3a39 ab3e 6b2c 1640 fbd3 1f3f b893 843f
00000010: 089e f43f a337 0c40 4084 333f 0bb1 0c40
00000020: ce62 d53f f820 343f 9f31 5340 b41f 0840
00000030: 5bca 4c40 4289 373f bd14 1f3e 6214 2340
00000040: 18ed 863f ca29 a73f 5a16 9440 b9bf 863e
00000050: 5df5 203e 787b 9a3f 7542 fc3f 81e4 fa3f
00000060: a13d 603f 8463 1140 e1f5 513f 1f3b 0140
00000070: 3f2d e73f a896 2f40 efbb c33e 6da8 c23f
00000080: 1507 f13f d883 993e 6a15 3540 b618 423e
00000090: c237 3c40 4db7 b13e 93fc 193f 52a9 1a3f
000000a0: 8235 283e e984 7140 932e 153e 8e2b ef3f
000000b0: 0c83 0d40 2352 263f f7ce 033f ed8d 7a3f
000000c0: dafa e73c 1155 d63f 78d6 c53f 5027 4340
000000d0: cad2 8a3f e913 bd3e ff2d 0040 b709 333f
000000e0: fb44 523f ca1e b93e dfe8 263d d10d a240
000000f0: 8804 0040 50f4 3040 0f0f 5b3f bf46 1b3f
00000100: 40a6 f93f a317 f63e a746 863e 41f1 373e
00000110: 97d5 a63e 8cec c93f 68a3 c63f 2a62 d83e
00000120: b3f8 8b3f 9996 df3e c75d 973d f0e6 423e
00000130: c154 a53e 55eb 813f c284 5b3f 2bc9 a83e
00000140: e2b3 183e 4b3a 6c40 984f 153e 7ef1 ba3f
00000150: 830e 3440 8727 1840 7395 ba3f 2594 033f
00000160: 2254 fb3d 1c6e 7840 53c7 383f 6c56 5c3f
00000170: 7107 af3f 7dc7 463f ca46 5940 0969 113f
00000180: 75f4 a63e dda5 0440 826d c63f 804a 913f
00000190: 2f26 163f bff3 fe3e 8823 873f ba78 533d
000001a0: e3c5 853f 8d30 c83f b6ff 833e f555 0b3e
000001b0: c5a9 c13f 1f88 0840 ee85 6240 a9ca 9c3e
000001c0: 9e5f b23e 6d25 913f f6c9 a23f 93c3 193f
000001d0: d0e0 063f cfe5 4640 1369 f93f 0efa 853f
000001e0: 3e87 973e 2b6f ba3f 1b64 b13f 7520 563f
000001f0: 64e3 0240 ea4e 3a3f 7879 063f 4f1d 2f3f
00000200: d9b4 403f 950f be3e df05 2340 e0cc a63f
00000210: 0d0b 2340 1d0a c83f 342e 713e 8c41 2340
00000220: 09d9 683f cb13 7c3f 85ac 8d40 f385 3740
00000230: 4b92 2340 8f4a b13e 15e1 cd3f b7a4 583f
00000240: 014c f63e 64be 983f 06ee b63d 61c1 703e
00000250: 3997 2e3f 5d71 b53f 8bbf 623f 0026 413f
00000260: 0304 9f3f 0a78 393f 9c46 0540 3672 933e
00000270: 0897 da3e 1ba4 1640 097d 013f ee30 483f
00000280: b90a 0d3f 7e10 e83d 47ef 733f 6b44 993f
00000290: abdd 043f 7ed0 863f f52b 3e3f 4865 3940
000002a0: 18e6 5d3f 370c e33e f464 3d3f 866e 0b40
000002b0: cad9 c43f fefa b83f d433 1e3f 09ad 483f
000002c0: b56c 893e 06b2 c13f 74ca 173f 9f1c 0b40
000002d0: 7723 ac3f 9c5a 8f3f 5e6b 9a3f 580d 543f
000002e0: bba0 9f3f 6789 e33f ecbb bc3e 555d 9d3f
000002f0: f237 db3f 674f b73e bd68 fd3d f2ac 6e3f
00000300: 4e52 8840 2762 263e 4751 043f 1a93 8f3f
00000310: e5d6 e93f aa47 2e40 0cb3 d83e 7208 aa3e
00000320: 2293 1b3e 72d2 a83f fb12 823f 73f5 6d40
00000330: d3e3 963f 5e11 1f40 30bc 2340 1553 023f
00000340: 9065 9d3f 16dc 833f eb6b 1d40 e69f 923e
00000350: d8d6 2e40 4d7d de3f 0b99 3340 7975 1140
00000360: 4568 1f3f 161c 603f a003 9e3f d954 053f
00000370: d767 873e 9369 8e3e 536a 2540 88b9 3a3e
00000380: efff 9e3e 8973 ee3e ba33 0d40 7ac9 2d3f
00000390: 471a eb3d 3718 143f 840a c33f ca9b 3b3f
000003a0: cc8a 253f 1502 933e 1675 643f b37e 903f
000003b0: 1de3 213f ffe4 c93e f0bc 873f 67ea 983f
000003c0: 6322 023f 7193 a23f aaba 8b3f 1173 2340
000003d0: 8c7f 2640 3da0 2c3f f39b fc3e e3d0 543e
000003e0: 631a 393f 657c 053f 2494 0040 5e0f 8b3f
000003f0: 1fb3 5d3f 1543 2a40 35cd 8c3f bed2 0c3f

fc2.weight f4 [128, 256]
0.085788 -0.07249702 0.09155283 -0.04145744 -0.00070626015 0.008833094 -0.093924284 0.041486535
-0.051715378 0.070741236 -0.016863547 -0.06202797 0.06246528 0.004888048 -0.066981696 0.017986834
-0.016337242 -0.08560415 0.016078131 -0.037907317 -0.016697388 0.08263101 0.00080068014 -0.061566498
0.051997308 -0.07811258 0.038995683 0.019734094 0.07160592 -0.0701228 -0.026737446 0.025507826
-0.023312654 -0.054428175 0.012984829 0.04025417 0.0017966809 0.06851875 -0.07413006 0.057184342
0.08078328 -0.035597607 -0.017254893 -0.04552577 -0.088640675 0.006345849 -0.08913967 0.075256124
0.07785219 -0.020682253 0.00082769257 -0.043847747 0.08002299 -0.0135289915 0.022574127 -0.026464097
-0.0004844996 -0.06398711 -0.010437464 0.035052743 0.038314883 -0.07263046 0.036301058 0.037248466
-0.008094002 0.024610437 -0.07505088 -0.041736923 -0.030365119 -0.032048874 0.0050991615 -0.03370688
-0.07326559 -0.051187 -0.00083088374 0.013453898 0.07840624 -0.060955394 0.0411277 0.058716606
-0.034301046 -0.027221397 -0.06633785 -0.013968239 0.007951786 -0.08483489 0.08832807 -0.088188626
-0.040958144 0.011743789 0.0846711 0.0023652376 0.04455734 -0.007875646 0.02172132 -0.036813773
-0.06860388 0.04954325 0.06028598 0.075488985 -0.035756145 0.0028161898 0.07829254 0.06484313
0.04914546 0.005638272 0.021688275 0.078850605 0.0265914 -0.030087601 0.0075446405 -0.061559483
-0.07963521 -0.041474063 -0.026070101 0.05531924 -0.05151654 -0.07046225 -0.010684706 0.03888712
-0.055246014 -0.083973624 -0.061671916 -0.00909561 0.037633304 0.08441387 -0.03967524 0.022972744
-0.0051570204 -0.06463641 -0.014851618 -0.06323475 0.030716566 0.08885634 -0.0846221 -0.08609979
0.0147428345 0.06284609 0.008662692 -0.06756653 -0.03409254 -0.07798613 0.004829112 0.06470621
0.06313152 -0.050445985 0.0854805 0.03127752 -0.02360883 0.054438427 -0.07419413 -0.031000229
0.07262256 0.011907305 -0.039177697 -0.068020165 -0.0706377 -0.041884545 -0.041844647 -0.011590358
0.030757865 0.067796975 -0.002225697 0.069442615 0.07185571 0.03646021 0.06179844 -0.022015855
0.02684429 0.034127157 -0.02573388 -0.08482239 -0.07221688 -0.054176833 -0.00739633 -0.033872414
0.05869897 -0.040629055 0.07044285 0.045881566 -0.06395855 -0.053625878 0.02403771 0.003678071
-0.058922663 0.0018299704 -0.0017552269 -0.007242518 0.058408093 0.027745951 -0.005214496 0.05478892
0.057676375 -0.04540345 -0.08697529 -0.06016128 0.040308975 0.01005346 0.05418454 -0.02579124
0.08069214 -0.030318374 -0.012054734 -0.06429551 -0.070652165 0.018812234 0.075653456 -0.0860637
0.043072384 -0.08410711 0.0530012 -0.06157273 0.05120963 -0.0523881 -0.042620678 -0.01624153
-0.03135641 0.07727581 0.008412496 0.009095736 -0.03488633 0.06432607 0.0053760884 -0.07178701
0.063862815 -0.06896014 0.049591646 -0.030403307 0.043351814 0.015273906 0.05996239 0.078693464
-0.024394955 0.024591593 0.014681076 -0.09238192 0.052031882 0.021738645 -0.002600977 -0.007529217
-0.03904602 -0.046682533 0.043466646 0.09212263 -0.044758372 -0.028383221 -0.013670675 -0.083073385
0.0013287436 -0.07235956 0.016931092 0.0633637 0.060516924 -0.010899511 0.08647921 0.04208379
00000000: 9eb1 af3d 5179 94bd 0d80 bb3d 47cf 29bd
00000010: 5124 39ba aeb8 103c 605b c0bd c9ed 293d
00000020: 81d3 53bd c8e0 903d 6c25 8abc 0a11 7ebd
00000030: 98db 7f3d eb2b a03b b32d 89bd 2059 933c
00000040: aed5 85bc 3b51 afbd 49b6 833c b444 1bbd
00000050: f6c8 88bc 723a a93d bce4 513a 272d 7cbd
00000060: 21fb 543d 7df9 9fbd f0b9 1f3d 65a9 a13c
00000070: 20a6 923d 8b9c 8fbd 7d08 dbbc caf5 d03c
00000080: 2efa bebc 14f0 5ebd 52be 543c 8ee1 243d
00000090: 9b7e eb3a 8f53 8c3d 80d1 97bd 213a 6a3d
000000a0: b471 a53d ccce 11bd 225a 8dbc 3b79 3abd
000000b0: 3e89 b5bd d7f0 cf3b dc8e b6bd e21f 9a3d
000000c0: f870 9f3d d46d a9bc 82f9 583a b299 33bd
000000d0: 18e3 a33d b4a8 5dbc 60ed b83c 3ccb d8bc
000000e0: 6f04 feb9 ad0b 83bd e601 2bbc 7793 0f3d
000000f0: 11f0 1c3d 47bf 94bd 6bb0 143d d991 183d
00000100: b49c 04bc d49b c93c 47b4 99bd 56f4 2abd
00000110: 45c0 f8bc ae45 03bd de16 a73b 3a10 0abd
00000120: 450c 96bd 76a9 51bd aacf 59ba bd6d 5c3c
00000130: 7393 a03d 5dac 79bd 8575 283d d380 703d
00000140: 417f 0cbd 68ff debc 24dc 87bd 0adb 64bc
00000150: 3548 023c eabd adbd 59e5 b43d 3d9c b4bd
00000160: bac3 27bd 0569 403c 0b68 ad3d 1a02 1b3b
00000170: c281 363d db08 01bc e9f0 b13c 0aca 16bd
00000180: 3180 8cbd dded 4a3d 6fee 763d f899 9a3d
00000190: 0975 12bd d38f 383b d757 a03d 7acc 843d
000001a0: c04c 493d 41c1 b83b 9cab b13c 6d7c a13d
000001b0: 35d6 d93c 467a f6bc 0839 f73b cc25 7cbd
000001c0: c917 a3bd b5e0 29bd f790 d5bc 6d96 623d
000001d0: 0203 53bd 834e 90bd e80e 2fbc 1a48 1f3d
000001e0: a549 62bd 5dfa abbd b19b 7cbd c105 15bc
000001f0: 6125 1a3d 2ee1 ac3d 8182 22bd 5631 bc3c
00000200: 39fc a8bb 1860 84bd 3354 73bc 3881 81bd
00000210: 4fa1 fb3c 50fa b53d 5a4e adbd 1655 b0bd
00000220: ee8b 713c 73b5 803d f7ed 0d3c 5260 8abd
00000230: 9fa4 0bbd 31b7 9fbd 873d 9e3b b084 843d
00000240: 194b 813d 73a0 4ebd 6610 af3d db1c 003d
00000250: 4e67 c1bc d4fa 5e3d 18f3 97bd 31f4 fdbc
00000260: 23bb 943d db16 433c cb78 20bd 284e 8bbd
00000270: 80aa 90bd 218f 2bbd 4b65 2bbd 7ce5 3dbc
00000280: ebf7 fb3c 24d9 8a3d 00dd 11bb ee37 8e3d
00000290: 1629 933d 4d57 153d 5c20 7d3d 985a b4bc
000002a0: 8ee8 db3c ebc8 0b3d dccf d2bc 5cb7 adbd
000002b0: 72e6 93bd 87e8 5dbd ea5c f2bb cdbd 0abd
000002c0: 556e 703d a76a 26bd 5744 903d 4fee 3b3d
000002d0: b3fc 82bd cfa6 5bbd bbea c43c cb0b 713b
000002e0: e458 71bd 9edb ef3a a40f e6ba a552 edbb
000002f0: 533d 6f3d 7a4b e33c 5dde aabb 596a 603d
00000300: 103e 6c3d f8f8 39bd 1a20 b2bd ad6b 76bd
00000310: 061b 253d 44b7 243c 9cf0 5d3d 2748 d3bc
00000320: ec41 a53d 3d5e f8bc 3881 45bc 5dad 83bd
00000330: 15b2 90bd 1d1c 9a3c 33f0 9a3d 2a42 b0bd
00000340: ab6c 303d 5940 acbd c917 593d b033 7cbd
00000350: 30c1 513d e894 56bd 0593 2ebd f50c 85bc
00000360: 946f 00bd c842 9e3d 91d4 093c 4806 153c
00000370: f8e4 0ebd 63bd 833d e629 b03b 1105 93bd
00000380: 82ca 823d f93a 8dbd 9c20 4b3d 5b10 f9bc
00000390: ac91 313d 683f 7a3c 209b 753d 0a2a a13d
000003a0: eed7 c7bc 4f74 c93c e588 703c bb32 bdbd
000003b0: 621f 553d 3e15 b23c 2775 2abb a6b7 f6bb
000003c0: b8ee 1fbd 2f36 3fbd 150a 323d caaa bc3d
000003d0: 8e54 37bd ee83 e8bc f8fa 5fbc 6122 aabd
000003e0: 3d29 ae3a 4031 94bd 13b3 8a3c d4c4 813d
000003f0: 98e0 773d dd93 32bc 031c b13d 0d60 2c3d

fc2.bias f4 [128]
-0.036190085 0.058285344 0.018990085 -0.029307885 -0.030949112 0.034628347 -0.02516841 0.016742492
0.021101821 0.057752535 -0.004247492 -0.00776326 -0.007621339 0.01989948 0.019857684 0.047756042
0.018433021 -0.036237784 -0.046601396 -0.056879517 0.04292172 0.0018691765 -0.062354404 0.0574663
0.05210168 -0.01748772 0.06326334 0.031365626 -0.017378768 -0.00677205 0.059311494 -0.041102733
-0.049522072 0.042633522 -0.024873126 -0.016679209 0.003198773 0.028568484 -0.034925804 0.035979535
0.055320483 0.033030134 0.054244958 0.06955398 0.022000674 0.026232686 -0.059579458 0.031223781
0.0012161889 -0.008500454 0.056839373 -0.04447888 0.07095105 0.047147077 0.00779465 0.020570455
0.036307514 0.06621875 -0.02709958 -0.039173625 -0.046414714 0.04818515 -0.028712798 0.035193235
-0.011213162 0.012727647 -0.030675719 -0.009075816 0.014454226 0.040894344 -0.053164795 -0.05290157
0.01394334 -0.012347048 -0.04762417 0.021481222 0.044987686 -0.013216615 0.043712873 -0.0072160526
0.058156017 0.010520892 0.04220943 -0.008899411 0.023526175 0.04081636 -0.012091264 -0.023182016
-0.004759941 0.059561785 0.0375723 0.060244873 0.010838476 -0.022036303 0.012635285 -0.050582625
0.05711667 -0.040618297 -0.034879506 0.011857804 0.044438608 0.042128254 -0.026834622 -0.010855793
0.028681947 -0.056189977 -0.05076779 -0.058620363 -0.03490855 0.0034643814 -0.011356935 0.011741197
-0.032844614 -0.023722086 -0.052684672 0.014889759 -0.018494906 -0.05033439 -0.02181692 -0.031123219
0.040237963 -0.020916503 -0.00435001 -0.02607636 0.04039986 0.008155537 0.058686722 0.0051489836
00000000: 0e3c 14bd 9dbc 6e3d 1891 9b3c 1717 f0bc
00000010: fe88 fdbc 74d6 0d3d fb2d cebc 8d27 893c
00000020: badd ac3c ec8d 6c3d 8c2e 8bbb f262 febb
00000030: 6dbc f9bb 3c04 a33c 95ac a23c d79b 433d
00000040: d900 973c 126e 14bd 1be1 3ebd 7ffa 68bd
00000050: afce 2f3d 28ff f43a 5567 7fbd c861 6b3d
00000060: 9268 553d 6842 8fbc 3690 813d 3e79 003d
00000070: eb5d 8ebc 13e8 ddbb 9cf0 723d 575b 28bd
00000080: a8d7 4abd 7da0 2e3d bac2 cbbc d6a2 88bc
00000090: 81a2 513b 7408 ea3c 5c0e 0fbd 475f 133d
000000a0: bb97 623d 9b4a 073d f62f 5e3d 5172 8e3d
000000b0: c23a b43c eee5 d63c 9709 74bd 04c9 ff3c
000000c0: 8768 9f3a 7d45 0bbc 67d0 683d 7c2f 36bd
000000d0: c94e 913d 4b1d 413d 436a ff3b 5f83 a83c
000000e0: 30b7 143d b29d 873d f0ff ddbc 8674 20bd
000000f0: 5b1d 3ebd cb5d 453d 1a37 ebbc c826 103d
00000100: 69b7 37bc 9f87 503c a54b fbbc bbb2 14bc
00000110: 6bd1 6c3c d480 273d 54c3 59bd 51af 58bd
00000120: 9b72 643c 464b 4abc 9011 43bd 63f9 af3c
00000130: 0245 383d 808a 58bc 450c 333d a374 ecbb
00000140: 0135 6e3d d25f 2c3c cce3 2c3d d6ce 11bc
00000150: f7b9 c03c 0e2f 273d 701a 46bc 36e8 bdbc
00000160: 47f9 9bbb 0ff7 733d 69e5 193d 54c3 763d
00000170: dd93 313c 7a85 b4bc 3a04 4f3c ba2f 4fbd
00000180: 2bf3 693d 5f5f 26bd d0dd 0ebd 3c47 423c
00000190: 4205 363d ad8e 2c3d 48d4 dbbc 7fdc 31bc
000001a0: 67f6 ea3c 7627 66bd e3f1 4fbd e81b 70bd
000001b0: 45fc 0ebd ad0a 633b 7012 3abc 265e 403c
000001c0: 1388 06bd d254 c2bc e2cb 57bd 2df4 733c
000001d0: a182 97bc 6f2b 4ebd 66b9 b2bc 1ff6 febc
000001e0: 90d0 243d 1659 abbc 878a 8ebb 179e d5bc
000001f0: 537a 253d cd9e 053c 7d61 703d ceb8 a83b

bn2.weight f4 [128]
0.22162473 0.49517503 0.47061482 0.06121665 0.13285781 0.9166915 0.47984502 0.20467094
0.63587034 0.81447554 0.4255217 0.80122346 0.16550398 0.52748996 0.43834 0.1801312
0.70068854 0.7822307 0.590075 0.1599878 0.3400622 0.9150305 0.2299455 0.0950463
0.3614691 0.55073804 0.9348122 0.25253546 0.24100827 0.26377353 0.3419255 0.24293584
0.17388043 0.19325688 0.12893513 0.45533103 0.7373168 0.5401157 0.12238645 0.3303798
0.3798917 0.1454156 0.084895745 0.7782373 0.4845405 0.5155072 0.19089015 0.7742621
0.9108935 0.7625908 0.22607833 0.77272654 0.8709236 0.9798093 0.36684245 0.38121745
0.87463087 0.8233057 0.3386957 0.22262034 0.080579944 0.52432895 0.08083128 0.5056188
0.7059221 0.9903637 0.8784216 0.92774516 0.16320574 0.9704446 0.7534696 0.57210827
0.37525186 0.7934003 0.65031546 0.8941225 0.64580053 0.54397917 0.14458449 0.44604748
0.00340343 0.93738914 0.03747947 0.45729473 0.41627142 0.95599407 0.9694076 0.4577687
0.80166066 0.21163452 0.31922385 0.5389085 0.32085374 0.88525033 0.4771181 0.4428475
0.9379672 0.47704652 0.6101742 0.8858255 0.7363017 0.77696687 0.87937564 0.21029629
0.92570513 0.51149404 0.25663364 0.718984 0.24704036 0.60345995 0.36664677 0.65951335
0.62512517 0.20813507 0.13643828 0.2345622 0.23441873 0.21772838 0.19005635 0.24451962
0.6681304 0.4326901 0.82133156 0.4413705 0.17460565 0.35890645 0.7185072 0.21075939
00000000: 98f1 623e 9587 fd3e 6df4 f03e 4fbe 7a3d
00000010: e10b 083e 4bac 6a3f 3fae f53e 4295 513e
00000020: 66c8 223f 7881 503f fbdd d93e fb1c 4d3f
00000030: e079 293e 9509 073f 1a6e e03e 5074 383e
00000040: 5360 333f 4540 483f 280f 173f d8d3 233e
00000050: a21c ae3e 703f 6a3f d576 6b3e a2a7 c23d
00000060: 7a12 b93e 2bfd 0c3f da4f 6f3f 544c 813e
00000070: dfca 763e 530d 873e dc10 af3e 2cc4 783e
00000080: b60d 323e 22e5 453e 9207 043e 2621 e93e
00000090: cbc0 3c3f 0645 0a3f bfa5 fa3d 8b27 a93e
000000a0: 2a81 c23e d4e7 143e d2dd ad3d 8f3a 473f
000000b0: b115 f83e 48f8 033f b578 433e 0a36 463f
000000c0: 5130 693f 2739 433f 1481 673e 68d1 453f
000000d0: d9f4 5e3f c8d4 7a3f c6d2 bb3e ef2e c33e
000000e0: cfe7 5f3f 2ac4 523f 8669 ad3e 96f6 633e
000000f0: 1907 a53d 6c3a 063f df8a a53d 3c70 013f
00000100: 50b7 343f 7a88 7d3f 3de0 603f b580 6d3f
00000110: 681f 273e 0f6f 783f 62e3 403f b075 123f
00000120: 0321 c03e 481c 4b3f 137b 263f 36e5 643f
00000130: 2f53 253f 3842 0b3f f50d 143e 5660 e43e
00000140: 150c 5f3b bcf8 6f3f 1384 193d 8922 ea3e
00000150: 8721 d53e 07bc 743f 192b 783f a960 ea3e
00000160: a239 4d3f b8b6 583e 4f71 a33e e8f5 093f
00000170: f146 a43e c49f 623f d348 f43e e8bc e23e
00000180: 9e1e 703f 713f f43e 6034 1c3f 76c5 623f
00000190: 457e 3c3f 4de7 463f c31e 613f e957 573e
000001a0: 03fb 6c3f 46f1 023f 7c65 833e 560f 383f
000001b0: 26f8 7c3e 5a7c 1a3f 20b9 bb3e ded5 283f
000001c0: 3408 203f 5c21 553e 7ab6 0b3e 1331 703e
000001d0: 770b 703e 30f4 5e3e 229e 423e 5a63 7a3e
000001e0: 980a 2b3f 8f89 dd3e c942 523f 50fb e13e
000001f0: d3cb 323e 96c2 b73e 16f0 373f 4fd1 573e
