Continuous Control/checkpoint_critic_every200_st5.pth (torch_old, 435404 bytes, 7 tensors)

fcs1.weight f4 [256, 33]
0	0x0004edb6	4.52617e-40
1	0x80027e7a	-2.29042e-40
2	0x0008b98f	8.0125e-40
3	0x0007f2e6	7.29984e-40
4	0x0003a207	3.33631e-40
5	0x0007fb3e	7.32977e-40
6	0x000273f2	2.25264e-40
7	0x80025f24	-2.17801e-40
8	0x000632e1	5.69265e-40
9	0x8005ce73	-5.33238e-40
10	0x800864c5	-7.70833e-40
11	0x00020c83	1.8816e-40
12	0x8002bd4f	-2.51582e-40
13	0x0003b57a	3.40608e-40
14	0x0004c275	4.371e-40
15	0x8002ddd5	-2.6325e-40
16	0x8005e6f0	-5.42022e-40
17	0x80028893	-2.32665e-40
18	0x8002e1c0	-2.64655e-40
19	0x0002b4c0	2.48512e-40
20	0x000121fd	1.04028e-40
21	0x80025fcd	-2.18038e-40
22	0x00027b13	2.27822e-40
23	0x8003ad66	-3.3771e-40
24	0x80012628	-1.05523e-40
25	0x8003b3ef	-3.40054e-40
26	0x8007d8dd	-7.20644e-40
27	0x800290c7	-2.35607e-40
28	0x0004c43f	4.37742e-40
29	0x8005958a	-5.12822e-40
30	0x800990f8	-8.78524e-40
31	0x8008a931	-7.95378e-40
32	0x800698b3	-6.05791e-40
33	0x80056ca5	-4.98152e-40
34	0x80046a1a	-4.05404e-40
35	0x0001bd33	1.59707e-40
36	0x0002e2e2	2.65061e-40
37	0x000855de	7.65487e-40
38	0x8004c2e8	-4.37261e-40
39	0x8004f37e	-4.5469e-40
40	0x0002b748	2.4942e-40
41	0x0004c3a4	4.37525e-40
42	0x0006f2ad	6.38069e-40
43	0x000088da	4.9093e-41
44	0x0002da08	2.61886e-40
45	0x80005fa9	-3.4316e-41
46	0x8000046e	-1.589e-42
47	0x800608b0	-5.5413e-40
48	0x800286a1	-2.31967e-40
49	0x800633ca	-5.69591e-40
50	0x00028bef	2.3387e-40
51	0x8008b648	-8.00074e-40
52	0x80094083	-8.49662e-40
53	0x00038324	3.22551e-40
54	0x00041139	3.7352e-40
55	0x000296a9	2.37718e-40
56	0x0003e6cf	3.58305e-40
57	0x0005b423	5.23798e-40
58	0x00067f96	5.96782e-40
59	0x8008ef82	-8.20603e-40
60	0x800450e9	-3.96367e-40
61	0x0005c2e6	5.29094e-40
62	0x80023a3b	-2.0456e-40
63	0x800598b3	-5.13956e-40
64	0x00096f66	8.66482e-40
65	0x000409e2	3.70887e-40
66	0x8007f096	-7.29154e-40
67	0x8002a34e	-2.42254e-40
68	0x80036b2a	-3.1395e-40
69	0x0005a91c	5.19842e-40
70	0x0001670c	1.28802e-40
71	0x000746e4	6.68279e-40
72	0x8007f502	-7.30741e-40
73	0x8005b2c0	-5.23301e-40
74	0x0003aafe	3.36847e-40
75	0x000378fa	3.18905e-40
76	0x80043f3d	-3.90028e-40
77	0x0005aabe	5.20428e-40
78	0x0003a2be	3.33887e-40
79	0x0002bf98	2.52402e-40
80	0x000290c2	2.356e-40
81	0x80017123	-1.32421e-40
82	0x800564fe	-4.95407e-40
83	0x00039392	3.28445e-40
84	0x0000e3a4	8.1662e-41
85	0x0006920d	6.03406e-40
86	0x80045b15	-4.00016e-40
87	0x80058a7e	-5.08859e-40
88	0x800215fb	-1.91556e-40
89	0x80050abf	-4.63032e-40
90	0x8004065b	-3.69622e-40
91	0x0000a1d2	5.805e-41
92	0x0006b55b	6.16071e-40
93	0x0006aef9	6.13781e-40
94	0x8005f399	-5.46564e-40
95	0x800305d1	-2.77593e-40
96	0x8000ecda	-8.4966e-41
97	0x0006b808	6.17031e-40
98	0x0001ddf0	1.71452e-40
99	0x00026c07	2.22424e-40
100	0x0000f8b1	8.9214e-41
101	0x8005a1e1	-5.17249e-40
102	0x0008f399	8.2207e-40
103	0x0005af82	5.22138e-40
104	0x8006c72b	-6.22461e-40
105	0x8000d8d9	-7.779e-41
106	0x800baaec	-1.071506e-39
107	0x000b6658	1.046904e-39
108	0x8007f530	-7.30805e-40
109	0x00068f7f	6.0249e-40
110	0x00026d43	2.22867e-40
111	0x80038857	-3.24416e-40
112	0x0001b1e3	1.55649e-40
113	0x00003ccd	2.1811e-41
114	0x0004049e	3.68998e-40
115	0x00001da1	1.0629e-41
116	0x800977e6	-8.69531e-40
117	0x8000b814	-6.6035e-41
118	0x8002becb	-2.52115e-40
119	0x80042e9c	-3.84062e-40
120	0x00038214	3.2217e-40
121	0x80051abd	-4.6877e-40
122	0x80017348	-1.3319e-40
123	0x00018fe9	1.43461e-40
124	0x80069ada	-6.06563e-40
125	0x00030dd3	2.80466e-40
126	0x800767de	-6.80109e-40
127	0x80030430	-2.77009e-40
128	0x0002cd29	2.57269e-40
129	0x0001a74f	1.51855e-40
130	0x0004ac25	4.29096e-40
131	0x80060678	-5.53334e-40
132	0x8009faf9	-9.16551e-40
133	0x80051b45	-4.6896e-40
134	0x0002c7ad	2.55301e-40
135	0x80032faf	-2.92612e-40
136	0x000630ee	5.68566e-40
137	0x00098e79	8.77629e-40
138	0x0000d419	7.6086e-41
139	0x80040940	-3.7066e-40
140	0x8001580d	-1.23422e-40
141	0x0004fe9d	4.5868e-40
142	0x80027003	-2.23853e-40
143	0x0009afb5	8.89551e-40
144	0x0003c530	3.46244e-40
145	0x800749e8	-6.69361e-40
146	0x80026b38	-2.22134e-40
147	0x00024762	2.09278e-40
148	0x8003fbf1	-3.65886e-40
149	0x8002c89e	-2.55639e-40
150	0x800304e5	-2.77262e-40
151	0x00041058	3.73205e-40
152	0x000506e4	4.6165e-40
153	0x00081a25	7.44063e-40
154	0x00039ba2	3.31337e-40
155	0x0005c545	5.29944e-40
156	0x000603b3	5.5234e-40
157	0x00007375	4.1418e-41
158	0x0004b568	4.32418e-40
159	0x000192ae	1.44454e-40
160	0x0004fcca	4.58026e-40
161	0x80047c59	-4.1195e-40
162	0x80075013	-6.71574e-40
163	0x80031cf3	-2.85892e-40
164	0x80017cd5	-1.36617e-40
165	0x800ba35e	-1.068796e-39
166	0x00055324	4.89003e-40
167	0x80052a26	-4.74297e-40
168	0x000589e7	5.08648e-40
169	0x0008dfe1	8.14997e-40
170	0x0006b0e2	6.14467e-40
171	0x800659a0	-5.83164e-40
172	0x00026681	2.20442e-40
173	0x0001cf92	1.66298e-40
174	0x0004c50a	4.38026e-40
175	0x000301b0	2.76112e-40
176	0x0006fc50	6.41526e-40
177	0x0002f062	2.69904e-40
178	0x00033fc0	2.98376e-40
179	0x0006f09e	6.3733e-40
180	0x0006ad91	6.13277e-40
181	0x00036326	3.11074e-40
182	0x0007246a	6.55911e-40
183	0x8007950c	-6.96316e-40
184	0x80006c21	-3.879e-41
185	0x8006e130	-6.31795e-40
186	0x0001544c	1.22076e-40
187	0x8006a5c7	-6.10483e-40
188	0x00005097	2.891e-41
189	0x0000deb1	7.9887e-41
190	0x80004e00	-2.7981e-41
191	0x000092c0	5.2644e-41
192	0x8002a912	-2.44322e-40
193	0x00028f65	2.35111e-40
194	0x0003ef10	3.61266e-40
195	0x80059e8c	-5.16053e-40
196	0x8009c3b7	-8.96729e-40
197	0x0002f3c3	2.71116e-40
198	0x000b79d3	1.053893e-39
199	0x80029dd2	-2.40286e-40
200	0x800329db	-2.90521e-40
201	0x00061715	5.59293e-40
202	0x800943e1	-8.5087e-40
203	0x00045aca	3.99911e-40
204	0x8002ca56	-2.56255e-40
205	0x80003cc5	-2.18e-41
206	0x0004b02e	4.30543e-40
207	0x00096012	8.60983e-40
208	0x8004f876	-4.56473e-40
209	0x8000da8f	-7.8404e-41
210	0x00001629	7.95e-42
211	0x0005fbfb	5.49571e-40
212	0x80026c77	-2.22581e-40
213	0x800582e8	-5.06138e-40
214	0x80048739	-4.15851e-40
215	0x000343c3	2.99815e-40
216	0x8002827e	-2.30483e-40
217	0x00030c88	2.80002e-40
218	0x8002b7fd	-2.49674e-40
219	0x00007194	4.0744e-41
220	0x0005d487	5.35418e-40
221	0x000388aa	3.24532e-40
222	0x0005ce2b	5.33137e-40
223	0x8001d404	-1.67892e-40
224	0x00096bbf	8.65171e-40
225	0x8003789c	-3.18773e-40
226	0x00061dc7	5.61695e-40
227	0x80029e79	-2.4052e-40
228	0x00045124	3.9645e-40
229	0x8000fadf	-8.9996e-41
230	0x00037ae2	3.19589e-40
231	0x0008b483	7.9944e-40
232	0x800445d2	-3.92389e-40
233	0x00065e59	5.84859e-40
234	0x000892f7	7.87405e-40
235	0x0000ec60	8.4795e-41
236	0x800194fd	-1.45282e-40
237	0x00042ff1	3.8454e-40
238	0x80069bb5	-6.0687e-40
239	0x00062694	5.64852e-40
240	0x80074483	-6.67426e-40
241	0x8008d3c7	-8.10655e-40
242	0x00060576	5.52972e-40
243	0x8003598f	-3.07634e-40
244	0x0005c633	5.30278e-40
245	0x0003000e	2.75526e-40
246	0x00043470	3.86153e-40
247	0x8001e9df	-1.75733e-40
248	0x0006b3f1	6.15564e-40
249	0x0001c600	1.62865e-40
250	0x0004ab5f	4.28818e-40
251	0x00061ddd	5.61726e-40
252	0x800593e4	-5.1223e-40
253	0x8002ef8f	-2.69608e-40
254	0x0002a5be	2.43128e-40
255	0x000601c6	5.51649e-40

fcs1.bias f4 [256]
0	0x0004427d	3.91193e-40
1	0x000cbf12	1.170569e-39
2	0x0001444a	1.16333e-40
3	0x00039cc9	3.3175e-40
4	0x8000a4e0	-5.9146e-41
5	0x0000010f	3.8e-43
6	0x8001114b	-9.8039e-41
7	0x000502a6	4.60128e-40
8	0x8000557b	-3.0665e-41
9	0x8005aac4	-5.20437e-40
10	0x8000e8dc	-8.3534e-41
11	0x00003958	2.0571e-41
12	0x8002bcc6	-2.5139e-40
13	0x8006a327	-6.09541e-40
14	0x800658ee	-5.82915e-40
15	0x00020608	1.85835e-40
16	0x800358ae	-3.07319e-40
17	0x0000857e	4.7888e-41
18	0x80020c4e	-1.88085e-40
19	0x0004243d	3.80342e-40
20	0x800365dd	-3.12048e-40
21	0x80004ed3	-2.8277e-41
22	0x80001175	-6.262e-42
23	0x8002f2b7	-2.7074e-40
24	0x0004ff0c	4.58836e-40
25	0x0003a47e	3.34515e-40
26	0x80040f52	-3.72838e-40
27	0x000511c2	4.65548e-40
28	0x0003452f	3.00325e-40
29	0x800360b9	-3.10204e-40
30	0x00054a9a	4.8594e-40
31	0x80069694	-6.0503e-40
32	0x000697c6	6.05459e-40
33	0x80044b4b	-3.94352e-40
34	0x0000ce06	7.3907e-41
35	0x000298c7	2.38477e-40
36	0x80043f85	-3.90128e-40
37	0x8000d7ec	-7.7458e-41
38	0x800116ff	-1.00085e-40
39	0x0005d3b3	5.35121e-40
40	0x0004d913	4.45214e-40
41	0x00069ef3	6.08033e-40
42	0x0003a219	3.33656e-40
43	0x8002972a	-2.37898e-40
44	0x80064b4b	-5.78023e-40
45	0x00004481	2.4575e-41
46	0x00068ec2	6.02225e-40
47	0x80067cef	-5.95831e-40
48	0x0001aafb	1.53172e-40
49	0x80040777	-3.7002e-40
50	0x80044d93	-3.9517e-40
51	0x0002a966	2.4444e-40
52	0x00043ecc	3.89869e-40
53	0x0002f983	2.73179e-40
54	0x0007bcc5	7.10566e-40
55	0x80072ce4	-6.58952e-40
56	0x00014397	1.16082e-40
57	0x00002125	1.189e-41
58	0x80073f0c	-6.65465e-40
59	0x8005ef9c	-5.45133e-40
60	0x0000fdf3	9.11e-41
61	0x0008b23f	7.98627e-40
62	0x00016a42	1.29954e-40
63	0x000355ea	3.06327e-40
64	0x00054d11	4.86824e-40
65	0x0006fad2	6.4099e-40
66	0x00029aa1	2.39141e-40
67	0x0009df35	9.06591e-40
68	0x8002dc59	-2.62717e-40
69	0x800006da	-2.458e-42
70	0x80094396	-8.50765e-40
71	0x0000432a	2.4094e-41
72	0x00037be1	3.19946e-40
73	0x800246d5	-2.09081e-40
74	0x00020cf5	1.88319e-40
75	0x00064dee	5.78969e-40
76	0x80064866	-5.76985e-40
77	0x80032c1e	-2.91333e-40
78	0x80092501	-8.39794e-40
79	0x80098a3d	-8.7611e-40
80	0x00018326	1.38883e-40
81	0x00039666	3.29459e-40
82	0x00047f7c	4.13075e-40
83	0x00065007	5.79721e-40
84	0x000181ff	1.3847e-40
85	0x800519d6	-4.68446e-40
86	0x0004ff50	4.58931e-40
87	0x00012444	1.04845e-40
88	0x80097bae	-8.70887e-40
89	0x800766d3	-6.79735e-40
90	0x0002bf00	2.52189e-40
91	0x0006878a	5.99635e-40
92	0x8006b8a2	-6.17247e-40
93	0x0004b08b	4.30674e-40
94	0x8000f615	-8.8278e-41
95	0x80036df1	-3.14946e-40
96	0x000111e4	9.8253e-41
97	0x000965c9	8.63033e-40
98	0x80010d06	-9.6507e-41
99	0x0001a7e0	1.52058e-40
100	0x0002b804	2.49683e-40
101	0x000512af	4.6588e-40
102	0x0001f399	1.79222e-40
103	0x8000aa4b	-6.109e-41
104	0x0000bb7c	6.7257e-41
105	0x80032626	-2.89192e-40
106	0x8004848d	-4.14892e-40
107	0x8001b8a8	-1.58078e-40
108	0x00029a31	2.38984e-40
109	0x8003f766	-3.64256e-40
110	0x00006e55	3.958e-41
111	0x800596b9	-5.13247e-40
112	0x80031a6c	-2.84985e-40
113	0x000879e1	7.78406e-40
114	0x00029a46	2.39014e-40
115	0x00032cdb	2.91598e-40
116	0x000664b6	5.87141e-40
117	0x00022ab7	1.98994e-40
118	0x00017fb8	1.37652e-40
119	0x800275af	-2.25888e-40
120	0x00028668	2.31887e-40
121	0x0002ce5b	2.57697e-40
122	0x00062c70	5.66954e-40
123	0x8004c4ed	-4.37986e-40
124	0x00000f01	5.382e-42
125	0x000346f4	3.0096e-40
126	0x8008e8dd	-8.1822e-40
127	0x80018ac3	-1.41614e-40
128	0x0001a431	1.50736e-40
129	0x80068b5e	-6.01009e-40
130	0x80083f8d	-7.57482e-40
131	0x8005addc	-5.21546e-40
132	0x8006c11d	-6.20289e-40
133	0x00017d8f	1.36877e-40
134	0x8002ff41	-2.75239e-40
135	0x8004a101	-4.251e-40
136	0x80048def	-4.18258e-40
137	0x80035181	-3.04745e-40
138	0x8003ea39	-3.5953e-40
139	0x8009a0e0	-8.8423e-40
140	0x00069eb4	6.07945e-40
141	0x80066bbb	-5.8966e-40
142	0x0002181b	1.92318e-40
143	0x0005d9a2	5.3725e-40
144	0x80032990	-2.90416e-40
145	0x0006555b	5.81633e-40
146	0x8004d2ca	-4.42959e-40
147	0x000a28e0	9.33018e-40
148	0x80044c0a	-3.9462e-40
149	0x80076f6b	-6.82818e-40
150	0x0001702a	1.32072e-40
151	0x00027276	2.24732e-40
152	0x80060f89	-5.56586e-40
153	0x8003b426	-3.40132e-40
154	0x80086ccf	-7.73717e-40
155	0x0001196b	1.00954e-40
156	0x0001692f	1.29568e-40
157	0x80026afa	-2.22047e-40
158	0x0000ce4a	7.4003e-41
159	0x00043a9e	3.8837e-40
160	0x8004092e	-3.70635e-40
161	0x0002afdb	2.46756e-40
162	0x8004479c	-3.9303e-40
163	0x80057a82	-5.03125e-40
164	0x0005decc	5.39102e-40
165	0x0004ff71	4.58977e-40
166	0x8002ffac	-2.75389e-40
167	0x00081f75	7.45969e-40
168	0x80082cac	-7.50709e-40
169	0x8000ca6f	-7.262e-41
170	0x0007ea09	7.26804e-40
171	0x000ab312	9.82593e-40
172	0x000129da	1.06849e-40
173	0x0006363c	5.70469e-40
174	0x0005a977	5.1997e-40
175	0x0000bc0d	6.746e-41
176	0x00025f65	2.17892e-40
177	0x00011a0f	1.01184e-40
178	0x8000a4c7	-5.9111e-41
179	0x0005cc67	5.32503e-40
180	0x8003a329	-3.34037e-40
181	0x0001f161	1.78426e-40
182	0x80015277	-1.21418e-40
183	0x80069171	-6.03188e-40
184	0x8003f093	-3.61808e-40
185	0x00070eb5	6.48124e-40
186	0x00066fff	5.9119e-40
187	0x8001b62c	-1.57186e-40
188	0x8004f34e	-4.54623e-40
189	0x00052546	4.72549e-40
190	0x00067e2a	5.96272e-40
191	0x80066a42	-5.89131e-40
192	0x0009b900	8.92885e-40
193	0x80018b14	-1.41727e-40
194	0x0001f107	1.783e-40
195	0x8005ba2f	-5.25968e-40
196	0x00038fb7	3.27062e-40
197	0x80028af9	-2.33525e-40
198	0x80056b5c	-4.97691e-40
199	0x0002a1d4	2.41724e-40
200	0x800297e3	-2.38158e-40
201	0x00059e6c	5.16009e-40
202	0x80032dff	-2.92007e-40
203	0x00009625	5.3862e-41
204	0x8000c347	-7.0052e-41
205	0x8000cec5	-7.4175e-41
206	0x0004cdc6	4.4116e-40
207	0x8003023a	-2.76305e-40
208	0x800058c4	-3.1843e-41
209	0x80054ee2	-4.87475e-40
210	0x0003e85d	3.58863e-40
211	0x000698f9	6.05889e-40
212	0x800353ac	-3.05522e-40
213	0x8006a6a9	-6.108e-40
214	0x8001cfa7	-1.66327e-40
215	0x0003bd4e	3.43416e-40
216	0x000266d0	2.20553e-40
217	0x8004fc6d	-4.57895e-40
218	0x800322b2	-2.87953e-40
219	0x00031b31	2.85261e-40
220	0x80026c08	-2.22425e-40
221	0x000382f3	3.22482e-40
222	0x0003ec8d	3.60365e-40
223	0x000171a5	1.32603e-40
224	0x8002a0e4	-2.41388e-40
225	0x00069c5f	6.07108e-40
226	0x00069b9a	6.06832e-40
227	0x00014d65	1.196e-40
228	0x0005b6e1	5.24782e-40
229	0x800512a4	-4.65864e-40
230	0x0002ca33	2.56206e-40
231	0x00056ded	4.98611e-40
232	0x00073de4	6.6505e-40
233	0x8003782b	-3.18615e-40
234	0x8001394c	-1.1239e-40
235	0x8006353a	-5.70107e-40
236	0x800063d9	-3.5819e-41
237	0x00011ac4	1.01437e-40
238	0x0000ad83	6.2244e-41
239	0x000589ff	5.08681e-40
240	0x00025149	2.1283e-40
241	0x0008d060	8.09435e-40
242	0x80034af5	-3.02396e-40
243	0x00035cdc	3.08818e-40
244	0x0001960a	1.4566e-40
245	0x80028f34	-2.35043e-40
246	0x0000b435	6.4646e-41
247	0x8004a84c	-4.27716e-40
248	0x8000fdc0	-9.1028e-41
249	0x800121bb	-1.03936e-40
250	0x00038c90	3.25931e-40
251	0x800732d7	-6.61086e-40
252	0x00061c91	5.6126e-40
253	0x00034802	3.01338e-40
254	0x8001a59e	-1.51248e-40
255	0x80038819	-3.24329e-40

fc2.weight f4 [256, 260]
0	0x80050ee9	-4.64526e-40
1	0x000254da	2.1411e-40
2	0x000209fe	1.87256e-40
3	0x800669ee	-5.89013e-40
4	0x800a75b9	-9.60586e-40
5	0x80056075	-4.9378e-40
6	0x0002a2d9	2.4209e-40
7	0x800571fb	-5.00066e-40
8	0x0003bccc	3.43234e-40
9	0x0001d310	1.6755e-40
10	0x00030d02	2.80173e-40
11	0x80026393	-2.19391e-40
12	0x8008a9d5	-7.95608e-40
13	0x800288f9	-2.32808e-40
14	0x0002f5da	2.71866e-40
15	0x0003a0e1	3.33219e-40
16	0x00038467	3.23003e-40
17	0x8001d11f	-1.66854e-40
18	0x0002c1d5	2.53205e-40
19	0x0006d64b	6.27887e-40
20	0x00022f4a	2.00635e-40
21	0x80035296	-3.05133e-40
22	0x8000dc82	-7.9103e-41
23	0x80068edb	-6.0226e-40
24	0x8003bc87	-3.43137e-40
25	0x0002cae6	2.56457e-40
26	0x80029888	-2.38389e-40
27	0x0003ba6e	3.42385e-40
28	0x000645d2	5.7606e-40
29	0x0006f4db	6.3885e-40
30	0x0002974d	2.37947e-40
31	0x0009defe	9.06514e-40
32	0x80029d6e	-2.40146e-40
33	0x00018a54	1.41458e-40
34	0x00015fe6	1.26237e-40
35	0x80039144	-3.27618e-40
36	0x0005d44c	5.35335e-40
37	0x80027efa	-2.29222e-40
38	0x000199f3	1.47062e-40
39	0x800360b9	-3.10204e-40
40	0x8003bc1a	-3.42985e-40
41	0x0004a475	4.26338e-40
42	0x80029121	-2.35733e-40
43	0x80038141	-3.21874e-40
44	0x80026eef	-2.23466e-40
45	0x80067ebc	-5.96477e-40
46	0x0004bce1	4.35099e-40
47	0x00037465	3.17261e-40
48	0x8002502b	-2.1243e-40
49	0x8004f2ce	-4.54444e-40
50	0x0003aaa9	3.36728e-40
51	0x0006a40e	6.09865e-40
52	0x00063c61	5.72673e-40
53	0x8004136b	-3.74308e-40
54	0x8006a022	-6.08458e-40
55	0x8006c2a5	-6.20838e-40
56	0x800409e0	-3.70884e-40
57	0x8003310e	-2.93104e-40
58	0x0002c48d	2.5418e-40
59	0x00059024	5.10885e-40
60	0x0003f404	3.63043e-40
61	0x00031316	2.82353e-40
62	0x000502f7	4.60241e-40
63	0x0005b65a	5.24593e-40
64	0x0009b5eb	8.9178e-40
65	0x80053242	-4.77207e-40
66	0x8008e86b	-8.1806e-40
67	0x0000553c	3.0576e-41
68	0x80040b63	-3.71427e-40
69	0x8001eccf	-1.76786e-40
70	0x8001e7ab	-1.74942e-40
71	0x8009a22a	-8.84693e-40
72	0x0001bc52	1.59392e-40
73	0x8002e67a	-2.6635e-40
74	0x000579a9	5.02821e-40
75	0x8009d9b4	-9.04617e-40
76	0x8004d4df	-4.43706e-40
77	0x0004bc51	4.34897e-40
78	0x80014a7d	-1.18557e-40
79	0x80022608	-1.97314e-40
80	0x0006a345	6.09583e-40
81	0x0000940b	5.3108e-41
82	0x8001ce69	-1.65882e-40
83	0x000631a3	5.68819e-40
84	0x80060c0d	-5.55336e-40
85	0x000129db	1.0685e-40
86	0x0005cb8d	5.32198e-40
87	0x00040bf5	3.71631e-40
88	0x0003362b	2.94938e-40
89	0x8002c796	-2.55269e-40
90	0x0002efb9	2.69667e-40
91	0x00054612	4.84314e-40
92	0x000365e4	3.12058e-40
93	0x8009be0c	-8.94695e-40
94	0x0004ec59	4.52128e-40
95	0x8001ffb9	-1.83572e-40
96	0x00095e6b	8.6039e-40
97	0x80057381	-5.00612e-40
98	0x000534f7	4.78178e-40
99	0x00060a58	5.54724e-40
100	0x8008cd08	-8.08235e-40
101	0x80014bac	-1.18981e-40
102	0x80042555	-3.80734e-40
103	0x0007165d	6.50871e-40
104	0x80066637	-5.87681e-40
105	0x800416f9	-3.75583e-40
106	0x00004fda	2.8645e-41
107	0x8000bbc1	-6.7353e-41
108	0x80095c8d	-8.5972e-40
109	0x00035cb1	3.08758e-40
110	0x00034387	2.99731e-40
111	0x8003a3af	-3.34225e-40
112	0x00018b65	1.41841e-40
113	0x8006cf5a	-6.25397e-40
114	0x0005d037	5.33871e-40
115	0x800416f4	-3.75576e-40
116	0x8000abae	-6.1587e-41
117	0x8003a5f4	-3.35039e-40
118	0x00038f2d	3.26868e-40
119	0x00027175	2.24372e-40
120	0x0005df96	5.39385e-40
121	0x800b0d36	-1.01493e-39
122	0x800586d1	-5.0754e-40
123	0x0006268e	5.64844e-40
124	0x80003585	-1.9199e-41
125	0x8000b235	-6.3929e-41
126	0x80007c5d	-4.4613e-41
127	0x0006bb34	6.18169e-40
128	0x00067b4d	5.95245e-40
129	0x8005d152	-5.34267e-40
130	0x8004adfc	-4.29756e-40
131	0x8001ed7f	-1.77033e-40
132	0x000b14f7	1.017711e-39
133	0x8002e023	-2.64076e-40
134	0x0002786c	2.2687e-40
135	0x0009a9d0	8.87437e-40
136	0x80053a41	-4.80075e-40
137	0x80004b7f	-2.7083e-41
138	0x000329fb	2.90566e-40
139	0x0000e047	8.0456e-41
140	0x8000f874	-8.9128e-41
141	0x8002b14b	-2.47272e-40
142	0x000476e2	4.09989e-40
143	0x8000d2a2	-7.5561e-41
144	0x0009a221	8.8468e-40
145	0x0003bab6	3.42486e-40
146	0x0009a7b0	8.86674e-40
147	0x0003848f	3.2306e-40
148	0x80001545	-7.63e-42
149	0x800102ba	-9.2814e-41
150	0x80010a4d	-9.5531e-41
151	0x0006b86e	6.17174e-40
152	0x0001af9b	1.54831e-40
153	0x00036a98	3.13745e-40
154	0x80013f01	-1.14437e-40
155	0x800631b6	-5.68846e-40
156	0x80038462	-3.22996e-40
157	0x80018293	-1.38677e-40
158	0x8009d5b5	-9.03183e-40
159	0x80057c01	-5.03662e-40
160	0x0002a3e4	2.42464e-40
161	0x80059918	-5.14097e-40
162	0x0001ebd3	1.76433e-40
163	0x00025df2	2.17372e-40
164	0x8000c980	-7.2285e-41
165	0x80027d4a	-2.28616e-40
166	0x00009d43	5.6415e-41
167	0x00065b96	5.83868e-40
168	0x00091c5f	8.36697e-40
169	0x00006821	3.7354e-41
170	0x00011abe	1.01429e-40
171	0x80099be9	-8.8245e-40
172	0x8003b191	-3.39205e-40
173	0x00050a77	4.62932e-40
174	0x8008f3c7	-8.22135e-40
175	0x00007fe3	4.5877e-41
176	0x80029e57	-2.40473e-40
177	0x0005269e	4.73031e-40
178	0x00054e50	4.87271e-40
179	0x80033ef4	-2.9809e-40
180	0x00063638	5.70463e-40
181	0x00030c01	2.79813e-40
182	0x80025abb	-2.16219e-40
183	0x00035e38	3.09306e-40
184	0x00080ad3	7.38567e-40
185	0x8006a647	-6.10662e-40
186	0x000080eb	4.6247e-41
187	0x00072abc	6.58179e-40
188	0x8001c17d	-1.61246e-40
189	0x00031636	2.83474e-40
190	0x80008418	-4.7386e-41
191	0x8006f9f2	-6.40676e-40
192	0x0004e7a4	4.50439e-40
193	0x800370f2	-3.16024e-40
194	0x80069fd8	-6.08354e-40
195	0x80060543	-5.529e-40
196	0x80038328	-3.22556e-40
197	0x800416c8	-3.75514e-40
198	0x80039a0e	-3.30771e-40
199	0x80027afd	-2.27791e-40
200	0x8004b35f	-4.31688e-40
201	0x8001c92d	-1.64004e-40
202	0x80013bac	-1.13242e-40
203	0x0002c81d	2.55458e-40
204	0x0006a059	6.08535e-40
205	0x0003cb90	3.48531e-40
206	0x00011221	9.8339e-41
207	0x80039dc1	-3.32098e-40
208	0x800398c0	-3.30303e-40
209	0x0002fce1	2.74387e-40
210	0x0000c480	7.0491e-41
211	0x0005fcc2	5.4985e-40
212	0x8000fd1d	-9.08e-41
213	0x000680d9	5.97235e-40
214	0x8003d71f	-3.52677e-40
215	0x000170c9	1.32295e-40
216	0x80029d35	-2.40066e-40
217	0x8007d5f9	-7.19607e-40
218	0x8002384e	-2.0387e-40
219	0x0002f6c5	2.72195e-40
220	0x00060b32	5.55029e-40
221	0x8002650d	-2.19921e-40
222	0x000508ba	4.62308e-40
223	0x8002d28c	-2.59201e-40
224	0x00053d41	4.81151e-40
225	0x800b77cc	-1.053165e-39
226	0x8001d920	-1.69725e-40
227	0x80038bd9	-3.25674e-40
228	0x80043d42	-3.89317e-40
229	0x8004cdb4	-4.41134e-40
230	0x0000fb6e	9.0196e-41
231	0x0002c6c0	2.54969e-40
232	0x0004274d	3.8144e-40
233	0x0005ffc1	5.50925e-40
234	0x00038583	3.23401e-40
235	0x8006176e	-5.59418e-40
236	0x0002729b	2.24784e-40
237	0x80038861	-3.2443e-40
238	0x80006404	-3.5879e-41
239	0x00015eba	1.25817e-40
240	0x0001870f	1.40285e-40
241	0x0005ab9a	5.20737e-40
242	0x00035f36	3.09662e-40
243	0x8008a2d3	-7.93094e-40
244	0x8001acea	-1.53865e-40
245	0x00007d76	4.5007e-41
246	0x80035870	-3.07232e-40
247	0x8006c6eb	-6.22371e-40
248	0x00051d57	4.69703e-40
249	0x80004545	-2.4849e-41
250	0x8003d987	-3.5354e-40
251	0x8006aa90	-6.12199e-40
252	0x0000c217	6.9626e-41
253	0x80020512	-1.8549e-40
254	0x8002a9d1	-2.4459e-40
255	0x80042456	-3.80377e-40

fc2.bias f4 [256]
0	0x8003cd65	-3.49188e-40
1	0x00063f67	5.73757e-40
2	0x8001de63	-1.71613e-40
3	0x8007b375	-7.07226e-40
4	0x0005bcb2	5.26869e-40
5	0x8006d872	-6.28659e-40
6	0x000b9efb	1.067222e-39
7	0x8003864a	-3.2368e-40
8	0x00098582	8.74413e-40
9	0x0005e067	5.39678e-40
10	0x800293dd	-2.36714e-40
11	0x80068eb0	-6.022e-40
12	0x000311e0	2.81919e-40
13	0x00061836	5.59698e-40
14	0x0001c05a	1.60838e-40
15	0x000168dd	1.29453e-40
16	0x800c7b16	-1.146181e-39
17	0x8001ec09	-1.76509e-40
18	0x8001cc59	-1.65142e-40
19	0x0000cf72	7.4417e-41
20	0x000054b8	3.0391e-41
21	0x80032f6c	-2.92518e-40
22	0x0002fa01	2.73355e-40
23	0x0000b55b	6.5058e-41
24	0x0004b98c	4.33904e-40
25	0x800b21cf	-1.022319e-39
26	0x000201d8	1.84332e-40
27	0x8005ff09	-5.50667e-40
28	0x000bbcfe	1.077988e-39
29	0x00078f86	6.94335e-40
30	0x0002e85d	2.67027e-40
31	0x8001adb7	-1.54153e-40
32	0x00008bcf	5.0154e-41
33	0x800256be	-2.14788e-40
34	0x00010911	9.5088e-41
35	0x8003493a	-3.01775e-40
36	0x8001e28b	-1.73104e-40
37	0x8004cf6e	-4.41754e-40
38	0x000579ad	5.02827e-40
39	0x0003bc54	3.43066e-40
40	0x0006aa5d	6.12128e-40
41	0x8005c37d	-5.29305e-40
42	0x8002d2a3	-2.59233e-40
43	0x8005bd01	-5.2698e-40
44	0x80022b6c	-1.99248e-40
45	0x0006af34	6.13864e-40
46	0x8005fbe2	-5.49536e-40
47	0x800015ad	-7.776e-42
48	0x8006aff8	-6.14139e-40
49	0x8001576f	-1.23201e-40
50	0x0003086f	2.78532e-40
51	0x0005eb99	5.43694e-40
52	0x000140b7	1.15051e-40
53	0x00037593	3.17684e-40
54	0x0002535f	2.13579e-40
55	0x80029ba5	-2.39506e-40
56	0x80083940	-7.55221e-40
57	0x0003499c	3.01913e-40
58	0x00028580	2.31562e-40
59	0x8002f85a	-2.72763e-40
60	0x0006c95d	6.23249e-40
61	0x0003995a	3.30519e-40
62	0x8004785b	-4.10517e-40
63	0x0003da56	3.5383e-40
64	0x0000b848	6.6108e-41
65	0x00021aa9	1.93235e-40
66	0x000b972f	1.064425e-39
67	0x8000983f	-5.4616e-41
68	0x000047ae	2.5714e-41
69	0x80077f61	-6.88543e-40
70	0x00062eec	5.67845e-40
71	0x000026bc	1.3895e-41
72	0x0002f8ba	2.72897e-40
73	0x800711ae	-6.49191e-40
74	0x80098241	-8.73246e-40
75	0x00026e76	2.23297e-40
76	0x80028141	-2.30039e-40
77	0x800096ac	-5.4051e-41
78	0x800b0531	-1.012053e-39
79	0x8005a92d	-5.19866e-40
80	0x0002bb35	2.50828e-40
81	0x80006802	-3.7311e-41
82	0x000455c8	3.98114e-40
83	0x0000efa4	8.5967e-41
84	0x8005ecf8	-5.44186e-40
85	0x00021810	1.92303e-40
86	0x8001d695	-1.68813e-40
87	0x000885e2	7.82712e-40
88	0x000805d2	7.36772e-40
89	0x8008957b	-7.88307e-40
90	0x80042df7	-3.83831e-40
91	0x000424af	3.80502e-40
92	0x80041987	-3.765e-40
93	0x0001e6c2	1.74616e-40
94	0x800a99a0	-9.73465e-40
95	0x000a0c7d	9.22835e-40
96	0x0000e659	8.2633e-41
97	0x800581f8	-5.05801e-40
98	0x00043b99	3.88722e-40
99	0x00014f7c	1.20349e-40
100	0x8009a0f3	-8.84257e-40
101	0x0000c1e3	6.9553e-41
102	0x00067fed	5.96904e-40
103	0x800380b4	-3.21676e-40
104	0x8006373d	-5.70829e-40
105	0x8001ff95	-1.83521e-40
106	0x8000a98e	-6.0825e-41
107	0x8000aad2	-6.1279e-41
108	0x800320fa	-2.87336e-40
109	0x800cbdc1	-1.170097e-39
110	0x8009b76b	-8.92317e-40
111	0x8002f2b1	-2.70732e-40
112	0x80035c95	-3.08719e-40
113	0x00036970	3.1333e-40
114	0x8001a02f	-1.49299e-40
115	0x8001b955	-1.5832e-40
116	0x80032ded	-2.91982e-40
117	0x8005c7ee	-5.30899e-40
118	0x80057a71	-5.03101e-40
119	0x80012f58	-1.08819e-40
120	0x00060d69	5.55824e-40
121	0x80007255	-4.1015e-41
122	0x0008a108	7.92451e-40
123	0x8005caad	-5.31884e-40
124	0x8006b13c	-6.14593e-40
125	0x80054763	-4.84786e-40
126	0x0003da50	3.53822e-40
127	0x0006b623	6.16351e-40
128	0x0007eff0	7.28922e-40
129	0x800363de	-3.11332e-40
130	0x800c731c	-1.14332e-39
131	0x000a385c	9.38573e-40
132	0x00000699	2.367e-42
133	0x80005267	-2.956e-41
134	0x80022d4c	-1.9992e-40
135	0x0004f1bc	4.5406e-40
136	0x00065f31	5.85161e-40
137	0x00067416	5.92657e-40
138	0x80022168	-1.95655e-40
139	0x8008c3ee	-8.0497e-40
140	0x00026ebe	2.23398e-40
141	0x8001ad73	-1.54057e-40
142	0x800002c3	-9.91e-43
143	0x80028838	-2.32537e-40
144	0x8009cbf9	-8.99691e-40
145	0x00007430	4.168e-41
146	0x000bc1b4	1.079678e-39
147	0x80036006	-3.09953e-40
148	0x00035c70	3.08667e-40
149	0x000367b0	3.12703e-40
150	0x00004acf	2.6836e-41
151	0x800a4a26	-9.44954e-40
152	0x80019d5a	-1.48283e-40
153	0x80006ebb	-3.9723e-41
154	0x8003dcd8	-3.5473e-40
155	0x800902bd	-8.27502e-40
156	0x80082a58	-7.49874e-40
157	0x8009d2eb	-9.02183e-40
158	0x80025eb0	-2.17638e-40
159	0x8000ac42	-6.1794e-41
160	0x00036d55	3.14727e-40
161	0x800144c4	-1.16504e-40
162	0x8000a8c5	-6.0543e-41
163	0x000aefa0	1.004316e-39
164	0x00080492	7.36323e-40
165	0x0000f28d	8.7011e-41
166	0x80016d6b	-1.31087e-40
167	0x8005c6c4	-5.30481e-40
168	0x8003b893	-3.41719e-40
169	0x8002298a	-1.98572e-40
170	0x8006e685	-6.33708e-40
171	0x800460fd	-4.02135e-40
172	0x0008281f	7.49077e-40
173	0x80027251	-2.2468e-40
174	0x0003cbaf	3.48574e-40
175	0x0004f56c	4.55383e-40
176	0x80099b35	-8.82197e-40
177	0x0000153e	7.62e-42
178	0x8005512b	-4.88295e-40
179	0x80096bf9	-8.65253e-40
180	0x8006efb7	-6.37006e-40
181	0x80098bef	-8.76718e-40
182	0x0006e419	6.32839e-40
183	0x0001e977	1.75587e-40
184	0x0005acf0	5.21216e-40
185	0x000552c8	4.88874e-40
186	0x0009e5ab	9.08909e-40
187	0x8002a8ae	-2.44182e-40
188	0x0009d50e	9.02949e-40
189	0x00010ccf	9.643e-41
190	0x0003269c	2.89357e-40
191	0x800697bf	-6.05449e-40
192	0x800bb9ed	-1.076888e-39
193	0x8006bc39	-6.18535e-40
194	0x800a0bdc	-9.2261e-40
195	0x00016556	1.28188e-40
196	0x0005d607	5.35956e-40
197	0x000316bf	2.83666e-40
198	0x0008b698	8.00186e-40
199	0x800cb2e6	-1.166203e-39
200	0x8008a923	-7.95359e-40
201	0x000148f5	1.18008e-40
202	0x000044c0	2.4663e-41
203	0x8002902d	-2.35392e-40
204	0x800553cb	-4.89237e-40
205	0x80064b97	-5.7813e-40
206	0x80006518	-3.6266e-41
207	0x00058345	5.06268e-40
208	0x8001e512	-1.7401e-40
209	0x800017e0	-8.565e-42
210	0x0003a560	3.34832e-40
211	0x80007c54	-4.46e-41
212	0x00026ee4	2.23451e-40
213	0x000bcc26	1.083425e-39
214	0x00068e65	6.02095e-40
215	0x0005571d	4.90428e-40
216	0x00058d9b	5.09976e-40
217	0x000489cd	4.16776e-40
218	0x8009c014	-8.95424e-40
219	0x0001dbd4	1.70695e-40
220	0x80028859	-2.32583e-40
221	0x00048378	4.14504e-40
222	0x0000d47e	7.6228e-41
223	0x0001f6e9	1.8041e-40
224	0x800352da	-3.05228e-40
225	0x8006f2c5	-6.38102e-40
226	0x00018edf	1.43088e-40
227	0x80007761	-4.2825e-41
228	0x00012068	1.0346e-40
229	0x0003479e	3.01198e-40
230	0x00007ab3	4.4016e-41
231	0x0002dabc	2.62138e-40
232	0x00001299	6.672e-42
233	0x8004aed8	-4.30064e-40
234	0x00084d9b	7.62524e-40
235	0x000aad9e	9.80637e-40
236	0x80002232	-1.2267e-41
237	0x80035ee3	-3.09545e-40
238	0x00003a84	2.0991e-41
239	0x8007c90d	-7.14972e-40
240	0x000acb27	9.91232e-40
241	0x0004d284	4.42861e-40
242	0x80006651	-3.6704e-41
243	0x8003e5e2	-3.57973e-40
244	0x0002200a	1.95164e-40
245	0x800356e0	-3.06671e-40
246	0x0004a4e6	4.26496e-40
247	0x00093499	8.45388e-40
248	0x0002a0e3	2.41386e-40
249	0x80022c2f	-1.99521e-40
250	0x8000446b	-2.4544e-41
251	0x80081393	-7.41706e-40
252	0x0004762d	4.09735e-40
253	0x800024f4	-1.3256e-41
254	0x8003f0c9	-3.61884e-40
255	0x800cc831	-1.173841e-39

fc3.weight f4 [128, 256]
0	0x00022d17	1.99846e-40
1	0x00001510	7.556e-42
2	0x800ab377	-9.82735e-40
3	0x00087565	7.76797e-40
4	0x00009da8	5.6556e-41
5	0x000807cd	7.37482e-40
6	0x00082cf2	7.50807e-40
7	0x000034c9	1.8936e-41
8	0x000741d0	6.66458e-40
9	0x00087c07	7.79177e-40
10	0x80068412	-5.98391e-40
11	0x00098b64	8.76523e-40
12	0x800a5dec	-9.52048e-40
13	0x00007055	4.0297e-41
14	0x00055407	4.89321e-40
15	0x00089dfc	7.91358e-40
16	0x00088f7a	7.86154e-40
17	0x0006ab23	6.12405e-40
18	0x8000fd99	-9.0974e-41
19	0x800396c9	-3.29598e-40
20	0x80015bbb	-1.24742e-40
21	0x000205e4	1.85784e-40
22	0x000552d9	4.88898e-40
23	0x8004adac	-4.29644e-40
24	0x0003f5ce	3.63685e-40
25	0x0009b23f	8.90462e-40
26	0x8003522e	-3.04987e-40
27	0x8005cea4	-5.33306e-40
28	0x80096cec	-8.65593e-40
29	0x0001e3b8	1.73526e-40
30	0x00039710	3.29698e-40
31	0x8006fa44	-6.40791e-40
32	0x000291d4	2.35984e-40
33	0x80010563	-9.3768e-41
34	0x00065a48	5.834e-40
35	0x80024714	-2.09169e-40
36	0x0003ff44	3.67079e-40
37	0x8004cb4c	-4.40271e-40
38	0x800755d2	-6.73635e-40
39	0x800412f6	-3.74144e-40
40	0x0005ae5d	5.21727e-40
41	0x8009810e	-8.72816e-40
42	0x00034a16	3.02084e-40
43	0x00060395	5.52298e-40
44	0x00033e7f	2.97926e-40
45	0x8002fa5a	-2.7348e-40
46	0x80007c74	-4.4645e-41
47	0x00034dfe	3.03485e-40
48	0x800349dc	-3.02002e-40
49	0x00067b3d	5.95223e-40
50	0x0000153f	7.622e-42
51	0x80037089	-3.15876e-40
52	0x000b027c	1.011082e-39
53	0x80059053	-5.10951e-40
54	0x0001378c	1.11762e-40
55	0x00036411	3.11404e-40
56	0x8005b05d	-5.22445e-40
57	0x000a80c9	9.64554e-40
58	0x8002d479	-2.59892e-40
59	0x800c5f78	-1.136274e-39
60	0x80001a4f	-9.438e-42
61	0x00013a16	1.12673e-40
62	0x0008fbe4	8.25045e-40
63	0x00063888	5.71293e-40
64	0x80050d0d	-4.63859e-40
65	0x80006de7	-3.9426e-41
66	0x800841b4	-7.58254e-40
67	0x8005c089	-5.28246e-40
68	0x0007f2b5	7.29915e-40
69	0x0002c814	2.55445e-40
70	0x8003e050	-3.55975e-40
71	0x00062481	5.64108e-40
72	0x800814ad	-7.42101e-40
73	0x8004fa13	-4.57052e-40
74	0x8007157d	-6.50557e-40
75	0x00067540	5.93074e-40
76	0x8004ffee	-4.59152e-40
77	0x8006d339	-6.26785e-40
78	0x8007f18e	-7.29502e-40
79	0x8005d08b	-5.33989e-40
80	0x00063104	5.68596e-40
81	0x80033ef0	-2.98084e-40
82	0x8001821c	-1.3851e-40
83	0x80037e4e	-3.20816e-40
84	0x80026dca	-2.23056e-40
85	0x80087a27	-7.78504e-40
86	0x00029b19	2.3931e-40
87	0x8000c834	-7.182e-41
88	0x0000a0e6	5.772e-41
89	0x000519aa	4.68384e-40
90	0x0000337a	1.8466e-41
91	0x000020d1	1.1772e-41
92	0x8003f143	-3.62055e-40
93	0x0008e6db	8.175e-40
94	0x0000124e	6.566e-42
95	0x80083c7c	-7.56382e-40
96	0x0009a23d	8.8472e-40
97	0x00016e7c	1.3147e-40
98	0x80032027	-2.8704e-40
99	0x0001d467	1.68031e-40
100	0x800613c7	-5.58108e-40
101	0x80005c4e	-3.3113e-41
102	0x000610ac	5.56994e-40
103	0x00007bc1	4.4395e-41
104	0x8003618b	-3.10498e-40
105	0x8003934b	-3.28345e-40
106	0x0003902f	3.2723e-40
107	0x800121e7	-1.03997e-40
108	0x8004b537	-4.3235e-40
109	0x80024131	-2.07057e-40
110	0x8001961e	-1.45687e-40
111	0x8000a6d3	-5.9845e-41
112	0x80025a51	-2.1607e-40
113	0x80050815	-4.62077e-40
114	0x80069236	-6.03464e-40
115	0x80088a84	-7.84374e-40
116	0x80037fa7	-3.213e-40
117	0x000407be	3.7012e-40
118	0x0000295f	1.4841e-41
119	0x8001448e	-1.16428e-40
120	0x8008acd4	-7.96683e-40
121	0x00028902	2.3282e-40
122	0x000b989e	1.064939e-39
123	0x0009c3bc	8.96736e-40
124	0x800151fc	-1.21246e-40
125	0x0000c5b9	7.093e-41
126	0x8008c725	-8.06124e-40
127	0x800184de	-1.39499e-40
128	0x00020284	1.84573e-40
129	0x8007cc08	-7.16041e-40
130	0x00038a33	3.25083e-40
131	0x8001aced	-1.5387e-40
132	0x8002ce08	-2.57581e-40
133	0x800938e4	-8.46928e-40
134	0x80065eac	-5.84975e-40
135	0x00045077	3.96207e-40
136	0x80005589	-3.0684e-41
137	0x800929a1	-8.41453e-40
138	0x8002aff2	-2.46788e-40
139	0x800376e4	-3.18156e-40
140	0x0000450c	2.477e-41
141	0x8004faf6	-4.5737e-40
142	0x80043be3	-3.88825e-40
143	0x000322f2	2.88043e-40
144	0x8000e703	-8.2871e-41
145	0x000997de	8.80999e-40
146	0x00088266	7.81462e-40
147	0x8000cf44	-7.4353e-41
148	0x000741d3	6.66462e-40
149	0x0002ab9b	2.45231e-40
150	0x80021728	-1.91978e-40
151	0x0006027f	5.51908e-40
152	0x80003bcd	-2.1452e-41
153	0x00081542	7.4231e-40
154	0x00076e21	6.82355e-40
155	0x80010f6b	-9.7366e-41
156	0x8001d64c	-1.68711e-40
157	0x8000174e	-8.36e-42
158	0x00035a20	3.07837e-40
159	0x80002cbd	-1.6049e-41
160	0x800137ec	-1.11896e-40
161	0x000590fc	5.11188e-40
162	0x8002816d	-2.301e-40
163	0x8004dc18	-4.46297e-40
164	0x800620e3	-5.6281e-40
165	0x00058f74	5.10639e-40
166	0x80057799	-5.02081e-40
167	0x800657d1	-5.82516e-40
168	0x00022416	1.96616e-40
169	0x800201f3	-1.8437e-40
170	0x80045f8f	-4.01622e-40
171	0x8006a712	-6.10947e-40
172	0x00084da9	7.62543e-40
173	0x000b04f6	1.01197e-39
174	0x800a4b41	-9.45351e-40
175	0x00016a36	1.29937e-40
176	0x800312e8	-2.82289e-40
177	0x0006a4da	6.1015e-40
178	0x8001372a	-1.11625e-40
179	0x8005aa8a	-5.20355e-40
180	0x00077f15	6.88437e-40
181	0x00026a17	2.21729e-40
182	0x000694ee	6.04439e-40
183	0x80040627	-3.69549e-40
184	0x8004b88c	-4.33545e-40
185	0x000672cc	5.92194e-40
186	0x80009916	-5.4917e-41
187	0x80030e65	-2.8067e-40
188	0x80029423	-2.36812e-40
189	0x0005cac6	5.31919e-40
190	0x8004cd1e	-4.40924e-40
191	0x00026b92	2.2226e-40
192	0x800c225f	-1.114356e-39
193	0x800cd5f6	-1.17878e-39
194	0x8000a131	-5.7825e-41
195	0x0003947c	3.28773e-40
196	0x0007fa88	7.32722e-40
197	0x8009ae6d	-8.89092e-40
198	0x8002bd7a	-2.51642e-40
199	0x0002a6ff	2.43578e-40
200	0x0008f45c	8.22344e-40
201	0x8002574b	-2.14986e-40
202	0x0000d0c3	7.489e-41
203	0x000076c7	4.2609e-41
204	0x80039847	-3.30133e-40
205	0x0003ecc6	3.60445e-40
206	0x800818b9	-7.43553e-40
207	0x80064ec9	-5.79276e-40
208	0x8000691a	-3.7703e-41
209	0x800a75fd	-9.60681e-40
210	0x0003a4e2	3.34655e-40
211	0x8005b008	-5.22326e-40
212	0x800a6145	-9.53249e-40
213	0x8008982c	-7.89273e-40
214	0x00098b8c	8.7658e-40
215	0x8005cee6	-5.33399e-40
216	0x80026731	-2.20689e-40
217	0x80045f3b	-4.01504e-40
218	0x800a0338	-9.1951e-40
219	0x0008ffa4	8.2639e-40
220	0x8001b797	-1.57695e-40
221	0x00011b6f	1.01677e-40
222	0x00097428	8.68188e-40
223	0x0008c855	8.0655e-40
224	0x000ac622	9.89432e-40
225	0x0004703e	4.07607e-40
226	0x80029688	-2.37671e-40
227	0x000a603c	9.52877e-40
228	0x00081691	7.42779e-40
229	0x000646da	5.7643e-40
230	0x000296d7	2.37782e-40
231	0x8000746a	-4.1761e-41
232	0x8006854b	-5.9883e-40
233	0x00055ba4	4.92052e-40
234	0x0001e864	1.75202e-40
235	0x00053aa4	4.80214e-40
236	0x8002a405	-2.4251e-40
237	0x0001d1f2	1.6715e-40
238	0x0001b0bc	1.55236e-40
239	0x0004af56	4.3024e-40
240	0x80036b7e	-3.14067e-40
241	0x80035fd5	-3.09885e-40
242	0x00022684	1.97488e-40
243	0x0004fe98	4.58673e-40
244	0x8003322d	-2.93506e-40
245	0x80005860	-3.1703e-41
246	0x8003a46d	-3.34491e-40
247	0x80046d4e	-4.06553e-40
248	0x0003a275	3.33785e-40
249	0x80032b9d	-2.91152e-40
250	0x80052003	-4.70661e-40
251	0x0005bf43	5.27789e-40
252	0x00028c12	2.33919e-40
253	0x00079f03	6.99891e-40
254	0x000608b5	5.54136e-40
255	0x0004541e	3.97518e-40

fc3.bias f4 [128]
0	0xadb265bf	-2.0281441e-11
1	0x80281481	-3.680775e-39
2	0x97c85283	-1.2945526e-24
3	0x0001185d	1.00575e-40
4	0x28f7f2ae	2.7527754e-14
5	0x93ab9168	-4.330985e-27
6	0x0005175d	4.67559e-40
7	0x924658b5	-6.2587124e-28
8	0x218f7698	9.721448e-19
9	0x98173727	-1.9544137e-24
10	0x04479352	2.3459984e-36
11	0x835c5535	-6.475e-37
12	0xabd74ea1	-1.5298493e-12
13	0x1aea2227	9.683531e-23
14	0xa5215f2a	-1.3996767e-16
15	0x89d245df	-5.0621368e-33
16	0x89006df0	-1.5459132e-33
17	0x9b0cf992	-1.1661169e-22
18	0x97425dba	-6.280308e-25
19	0x9dccb1b3	-5.4182087e-21
20	0xa0bc3d2d	-3.1888922e-19
21	0xbb88b3b6	-0.004171814
22	0xaf076c7f	-1.2316724e-10
23	0x30932f63	1.0709126e-09
24	0x2db06d67	2.0057468e-11
25	0x85839e0c	-1.2377238e-35
26	0x078c5435	2.1114351e-34
27	0x801134c6	-1.580135e-39
28	0xafbf968e	-3.4849673e-10
29	0x80133dc0	-1.767026e-39
30	0xa1852d2b	-9.024386e-19
31	0x2840a44e	1.0693769e-14
32	0x09bf41c3	4.604342e-33
33	0x1f5f1ffa	4.7248537e-20
34	0x9968ba4e	-1.2031743e-23
35	0x800c3464	-1.12082e-39
36	0x80027f93	-2.29436e-40
37	0xa1417282	-6.5542493e-19
38	0x36ffcd3c	7.6234846e-06
39	0x80054a4b	-4.85829e-40
40	0xb18313ad	-3.8148387e-09
41	0xa72e0527	-2.4150144e-15
42	0xaef9918e	-1.1349065e-10
43	0xadac999b	-1.962235e-11
44	0x9da6b9a7	-4.4131794e-21
45	0x9ef2dd29	-2.5714216e-20
46	0x2227d1fd	2.2743887e-18
47	0x8d2b7921	-5.2839247e-31
48	0x968c1547	-2.2631648e-25
49	0x8e647c65	-2.8163064e-30
50	0x8c2d7901	-1.3363849e-31
51	0xad4d339e	-1.1664362e-11
52	0x328be540	1.628598e-08
53	0x9fdfe3f8	-9.4821316e-20
54	0x3295bf42	1.7432857e-08
55	0xac1f8e72	-2.2674332e-12
56	0x81f6dc4e	-9.068225e-38
57	0x9d6b7eec	-3.1167608e-21
58	0xa602720d	-4.525738e-16
59	0x000295de	2.37433e-40
60	0x8006d5b8	-6.27681e-40
61	0x8001200e	-1.03335e-40
62	0x86c02ecc	-7.2291135e-35
63	0x80082f98	-7.51757e-40
64	0x959ffa19	-6.4614173e-26
65	0x3ae23dc8	0.0017260844
66	0x1606d36b	1.0891146e-25
67	0x9f0c3202	-2.968752e-20
68	0xb358dfff	-5.0495142e-08
69	0x991f7033	-8.242766e-24
70	0x8005b7f0	-5.25162e-40
71	0x9fa1d0c1	-6.8531507e-20
72	0x24839f2b	5.7081835e-17
73	0xa2407e80	-2.608782e-18
74	0xa4c05041	-8.340268e-17
75	0x808ab398	-1.2737725e-38
76	0x81561b56	-3.9325205e-38
77	0x800f9734	-1.431774e-39
78	0xabb261b0	-1.2674774e-12
79	0xa13252db	-6.0418404e-19
80	0x99953348	-1.5426951e-23
81	0x91254ac9	-1.303925e-28
82	0x1f01c566	2.7480097e-20
83	0x8009777d	-8.69384e-40
84	0x2ea45179	7.472329e-11
85	0xaeab1d95	-7.7814345e-11
86	0x9a5a5293	-4.5148046e-23
87	0xacb5160f	-5.1467784e-12
88	0xab973ce7	-1.0746099e-12
89	0xa557ae95	-1.8707428e-16
90	0x80053ee1	-4.81734e-40
91	0x20a75af2	2.8351083e-19
92	0x9a5cc9ad	-4.5657846e-23
93	0xaf2b41b7	-1.5575706e-10
94	0xab4af179	-7.2099927e-13
95	0x8cee0ddb	-3.6678045e-31
96	0x2b823cdb	9.253946e-13
97	0xb7042663	-7.876751e-06
98	0xb48be399	-2.6056367e-07
99	0x0000996f	5.5042e-41
100	0x038746f2	7.950875e-37
101	0xa1f2e47b	-1.6459036e-18
102	0x1e61d048	1.1954472e-20
103	0x812f4a90	-3.219592e-38
104	0xa982507e	-5.787123e-14
105	0xa8ba3dfe	-2.0677033e-14
106	0xa3a82dbb	-1.8233964e-17
107	0x831b124d	-4.5571414e-37
108	0x8dfc21e5	-1.5538859e-30
109	0x05d599a5	2.0086864e-35
110	0x84df9a6a	-5.2568855e-36
111	0xb1f7bf32	-7.2103825e-09
112	0x169a5b77	2.4937764e-25
113	0x91a8c7f0	-2.6628947e-28
114	0xa1162c97	-5.088099e-19
115	0x8a9c90c8	-1.5076714e-32
116	0x80083128	-7.52318e-40
117	0x1d9d7a3a	4.1683933e-21
118	0xa4198f4a	-3.3297957e-17
119	0x1adb3ce0	9.0674626e-23
120	0x8e8486d3	-3.2670343e-30
121	0x9f9387a8	-6.2481346e-20
122	0x2487f1b3	5.895637e-17
123	0x332427a1	3.8220268e-08
124	0xb0ad6f69	-1.2619071e-09
125	0x199dafaa	1.630437e-23
126	0x00005ca7	3.3237e-41
127	0x2abe0287	3.3752534e-13

fc4.weight f4 [1, 128]
0	0x2f04c345	1.2074704e-10
1	0x80109c66	-1.525473e-39
2	0x97b33e98	-1.1583405e-24
3	0x000015a1	7.759e-42
4	0xa90260c5	-2.8949733e-14
5	0x135addf1	2.7624894e-27
6	0x800379e5	-3.19234e-40
7	0x12156107	4.7135705e-28
8	0xa27e134a	-3.443363e-18
9	0x17cede69	1.3368582e-24
10	0x007fe0dc	1.1743772e-38
11	0x02f31c0e	3.5721744e-37
12	0xac017d67	-1.8401615e-12
13	0x9aa664ea	-6.8819026e-23
14	0x235cde9e	1.1973365e-17
15	0x09deb396	5.3613438e-33
16	0x888d1683	-8.491421e-34
17	0x1b8e8145	2.3575468e-22
18	0x15ee8463	9.6336304e-26
19	0x9dc7e322	-5.290971e-21
20	0x200e64ea	1.2061258e-19
21	0x3b5165e6	0.0031951605
22	0x2e1b75ec	3.5347655e-11
23	0xb241584d	-1.1254156e-08
24	0xad626f90	-1.28713845e-11
25	0x083c63c2	5.6691457e-34
26	0x87e31609	-3.4168115e-34
27	0x000c5d75	1.135552e-39
28	0x2f9e1290	2.8753222e-10
29	0x80091fc7	-8.37919e-40
30	0x9fa145f1	-6.830186e-20
31	0xa8705ebe	-1.334322e-14
32	0x89c83c4f	-4.8204963e-33
33	0x1fba15f9	7.8810415e-20
34	0x9981e90b	-1.3432413e-23
35	0x800a84a2	-9.65935e-40
36	0x00013b23	1.1305e-40
37	0x213bd495	6.3639414e-19
38	0xb827bae4	-3.9989958e-05
39	0x000afa8e	1.008237e-39
40	0x3273b5e1	1.4185816e-08
41	0xa6eec113	-1.65669e-15
42	0x2ed9137a	9.871477e-11
43	0x2b9ec4a6	1.1281156e-12
44	0x1db7b54e	4.862716e-21
45	0x1e7f4587	1.35139655e-20
46	0x21ea9d5a	1.5898107e-18
47	0x0cc9e398	3.1105932e-31
48	0x167ffd19	2.06786e-25
49	0x0f210c80	7.94032e-30
50	0x8c5284d9	-1.6217789e-31
51	0xadd03c4c	-2.367364e-11
52	0xb2979c59	-1.7649812e-08
53	0x9df14a56	-6.386903e-21
54	0xb287d1d8	-1.5811494e-08
55	0x2c2a4502	2.419676e-12
56	0x01a64fed	6.109346e-38
57	0x9d033fb0	-1.7370631e-21
58	0x264dd5a7	7.1413215e-16
59	0x0002f8e7	2.7296e-40
60	0x0001a110	1.49614e-40
61	0x80003e62	-2.2379e-41
62	0x058e3705	1.3373827e-35
63	0x80054da9	-4.87037e-40
64	0x95928885	-5.918432e-26
65	0xbadd9dc1	-0.0016907976
66	0x9520c592	-3.2467598e-26
67	0x9c66f060	-7.6411294e-22
68	0xb4988c42	-2.8414257e-07
69	0x18cb2ea0	5.252135e-24
70	0x8002782d	-2.26782e-40
71	0x1ff1cb3b	1.02403687e-19
72	0xa4c603bd	-8.5875145e-17
73	0xa2ce5665	-5.5927886e-18
74	0x25057538	1.1575626e-16
75	0x80589d78	-8.138013e-39
76	0x0149b6d8	3.7049053e-38
77	0x800e6c96	-1.32465e-39
78	0x2b24b00e	5.850883e-13
79	0xa15f95c8	-7.5753573e-19
80	0x9a609ade	-4.6447215e-23
81	0x110c3a36	1.106199e-28
82	0xa022ccd8	-1.3789711e-19
83	0x0006aa52	6.12112e-40
84	0x2de90069	2.6489215e-11
85	0xad93a2b8	-1.6784227e-11
86	0x19eced00	2.4497552e-23
87	0x2c1722f1	2.1477787e-12
88	0xaa84d53d	-2.3595874e-13
89	0x2597548f	2.6251624e-16
90	0x80065fe3	-5.8541e-40
91	0xa004d949	-1.1252729e-19
92	0x988bb5a5	-3.611407e-24
93	0x31101794	2.096816e-09
94	0x2b532b4d	7.502235e-13
95	0x0cc9396d	3.1003515e-31
96	0xac17d8bd	-2.1578705e-12
97	0xb7025cbe	-7.770197e-06
98	0xb36740e1	-5.3842886e-08
99	0x00012751	1.0594e-40
100	0x8429275e	-1.9883931e-36
101	0xa20cd584	-1.9086572e-18
102	0x1e68be72	1.2321361e-20
103	0x0139349d	3.4016882e-38
104	0x28bdaf05	2.1059118e-14
105	0x27b34c63	4.97653e-15
106	0x23246d1b	8.913562e-18
107	0x81e81f22	-8.5268014e-38
108	0x0f19dba4	7.585784e-30
109	0x86a8d485	-6.3506846e-35
110	0x04d92ba1	5.105652e-36
111	0xb2668209	-1.3417329e-08
112	0x96811a05	-2.0857495e-25
113	0x11d068f8	3.2881306e-28
114	0x20dbacfb	3.7214512e-19
115	0x0a23ace4	7.880682e-33
116	0x80026df9	-2.23122e-40
117	0x9da3fde7	-4.340827e-21
118	0xa3bc4280	-2.0411165e-17
119	0x98f37d2e	-6.2940427e-24
120	0x8ea7da86	-4.137911e-30
121	0x204e1776	1.7456641e-19
122	0x23bbb910	2.0352958e-17
123	0xb42a2cdc	-1.5848804e-07
124	0x3086bade	9.802894e-10
125	0x1a8c983d	5.81486e-23
126	0x8001be33	-1.60066e-40
127	0xab422339	-6.8971527e-13
