Continuous Control/checkpoint_critic.pth (torch_old, 542626 bytes, 5 tensors)

fcs1.weight f4 [400, 33]
000000 15 cf d3 bc 6d 7c 95 bc 67 1b c1 bc 5c 05 84 3c
       -0.02585558 -0.018247807 -0.023572637 0.016115837
000010 d2 92 30 3d 43 f2 02 bc 13 87 5e bd ff 9a 18 bc
       0.04310877 -0.00799233 -0.054328036 -0.009314298
000020 63 eb 2b bb 08 03 e6 3c e8 97 54 3c a2 f3 93 3a
       -0.002623283 0.028077617 0.01297567 0.0011287818
000030 1f 2a d5 3c 1d 6e 52 bc 07 7d 60 ba 8c da b7 3b
       0.026021061 -0.012843636 -0.00085635524 0.0056107696
000040 d7 74 ab 3c 5a c5 16 3d ee c2 69 3b 13 76 f0 bc
       0.020929737 0.036809303 0.0035669166 -0.029353177
000050 e6 c3 39 bd 94 fa bc bc 5b 4a a1 bc 48 b1 88 3b
       -0.04535284 -0.023068704 -0.019688776 0.004171524
000060 26 46 0f bc 21 a5 3f bc e0 ca ae 3c 79 6c ce 3c
       -0.008744752 -0.011697085 0.021336973 0.025198208
000070 3d e0 92 3d 38 d0 00 80 6e 6c ce bc d9 89 00 00
       0.07171676 -7.4695e-41 -0.025198188 4.945e-41
000080 06 21 ba 39 e8 9c de 3c 2e f3 ad bc 62 1d 9f bd
       0.0003550129 0.027174428 -0.021234121 -0.07769276
000090 5b 2f 1e 3c 10 e1 ee 3c f9 14 08 bd f1 47 26 bd
       0.009654845 0.029160053 -0.033223126 -0.040595952
0000a0 a3 26 44 bd 3e 5a 68 3d 11 4d 12 bd 8f 02 2e 3d
       -0.04788841 0.056726687 -0.035718028 0.04248291
0000b0 c2 fc 05 3c 36 dc 11 3d 9c d1 85 3b 94 fb 4b 3d
       0.008177938 0.0356104 0.0040838253 0.04980047
0000c0 de 52 22 3d bf 6e 55 3c 60 b1 5e 3d b8 f8 07 bd
       0.03962981 0.013026892 0.054368377 -0.03319618
0000d0 fe aa d0 bd 96 97 03 bd 22 64 0e bd 38 60 42 bc
       -0.10188864 -0.032126985 -0.034763463 -0.011863761
0000e0 f4 01 88 3b ba ea ad 3c 95 f6 95 bc dc d6 3f bc
       0.0041506235 0.02123009 -0.018306056 -0.011708941
0000f0 84 c3 9f 3c 95 2d 01 3d 9a 4f 00 80 84 c3 9f bc
       0.019502409 0.03153761 -2.8556e-41 -0.019502409
000100 98 37 01 80 9c 7b 33 bc ac c0 d4 3c 02 b2 f6 3c
       -1.11779e-40 -0.010954764 0.02597078 0.030114178
000110 c8 ef 2f bc 8d ff b1 3d 03 dc 4e 3d a2 26 1e 3d
       -0.010738321 0.086913206 0.05050279 0.038611062
000120 54 db fa bc 8a 27 54 3d c4 b7 b6 ba dd 9b 4c bc
       -0.030622162 0.05179552 -0.0013940264 -0.012488333
000130 45 b6 94 3c 4e 77 36 bc 86 ea 0a bd 5c 5a 39 3d
       0.01815332 -0.011136843 -0.033915065 0.04525219
000140 6a f9 fd 3b de 7f 21 bd 55 fa ec 3c 28 b0 fa bb
       0.0077506797 -0.039428584 0.028927961 -0.007650394
000150 f5 fe 84 bd 9f 04 d5 bc c4 c8 04 3a 19 bf 13 bd
       -0.06493942 -0.02600318 0.0005065317 -0.036070917
000160 e5 4b d1 bb c0 06 01 bc 00 2c d7 bc 1f 9e 79 bc
       -0.006387221 -0.0078751445 -0.026266098 -0.015235453
000170 d5 8f 8a bc 2c d8 0e 3d 5c 88 86 3b 9a 0f 01 80
       -0.016914288 0.034874126 0.004105611 -9.7432e-41
000180 2c d8 0e bd ca 7e 00 80 7c 5b 62 3d 18 1c 4f 3b
       -0.034874126 -4.5483e-41 0.055263028 0.0031602439
000190 d1 92 a9 3c 10 d5 29 3d a3 f8 8c bc bc 27 3d bc
       0.02069989 0.041462958 -0.017208403 -0.011545118
0001a0 14 b9 0c bd f0 96 84 bb 90 45 2e bc 71 66 d7 3c
       -0.03435619 -0.0040463135 -0.010636702 0.026293965
0001b0 16 6b ad 3d 71 4e 15 3d aa 42 ea ba b8 ad ea bb
       0.08467691 0.03645176 -0.0017872651 -0.007161822
0001c0 8e 35 58 3d e2 04 78 3d f7 d8 10 bc 14 bd 6f 3c
       0.05278545 0.06055153 -0.008840791 0.014632482
0001d0 cf 75 b9 bc b4 df b2 ba a7 90 0d bd c1 51 a4 bb
       -0.022639183 -0.0013646991 -0.03456178 -0.0050146286
0001e0 dd f2 2f bc bb 2b 12 3c ba 3b d1 3b 94 40 88 3c
       -0.010739055 0.008921559 0.006385294 0.016632356
0001f0 41 5a 85 bc a3 14 7b bd 12 e6 89 3d ad 1d 40 3c
       -0.016278388 -0.061298978 0.067333356 0.011725825
000200 dd 0f 01 00 0e e6 89 bd 0d 29 00 80 aa 56 ae bd
       9.7526e-41 -0.067333326 -1.4726e-41 -0.085126236
000210 04 32 b9 3c 1f e7 e1 3b 9b 1b f4 3c f8 25 d3 3c
       0.022606857 0.006894007 0.02979832 0.02577494
000220 cf 10 0b 3d db dc 97 3d 27 b2 89 3c a2 65 18 3c
       0.033951577 0.07415172 0.016808582 0.009301575
000230 d4 29 d2 bc 84 8c 37 39 3a 90 d4 3b c6 1c 4f 3d
       -0.02565471 0.00017504586 0.0064869197 0.05056455
000240 30 7c 0c 3c ac 16 1b 3b ad cf a4 3c 6a db ae bb
       0.0085745305 0.0023664637 0.020118559 -0.005336215
000250 4d 33 26 3d 42 8d de bc 31 66 1b 3b 8a 01 28 bd
       0.040576268 -0.027166966 0.0023712034 -0.041017093
000260 96 f5 82 bd 39 60 e0 bb ea 51 65 bc 26 62 52 3c
       -0.06394498 -0.006847408 -0.013996581 0.012840783
000270 56 8f a6 3b 10 c8 5d bb 61 c1 a5 3c e0 ad df 3c
       0.005083005 -0.003384117 0.020233812 0.02730459
000280 f1 76 49 bd fa 8f 01 80 8b 41 dc bc 4c 48 01 00
       -0.049185697 -1.43485e-40 -0.026886722 1.17771e-40
000290 13 25 9a 3c 19 e6 ca 3c 25 9e a7 3c 36 d6 43 3d
       0.018816506 0.024767922 0.020461151 0.04781171
0002a0 6f 4c 38 bd 89 df b1 bc ca 99 bd bc 8d 24 87 3d
       -0.044994768 -0.021713035 -0.023144621 0.065987684
0002b0 91 ab 81 3c e4 12 5c bc 4c df 53 bd ac b6 1e bb
       0.01582888 -0.013432238 -0.051726624 -0.0024217768
0002c0 9e a8 53 bc 55 5e 09 3d ca 51 1b 3d ca 79 28 3c
       -0.012918619 0.033537228 0.037919797 0.010282943
0002d0 f6 ab d2 3b f7 66 5a 3d 98 e4 98 bc e8 c8 a2 3c
       0.0064291907 0.05332085 -0.01866369 0.01987119
0002e0 91 12 5e 3c 5a dd 06 bd ec d0 0e 3d c8 db 2c bd
       0.013554231 -0.03292594 0.034867212 -0.042201787
0002f0 e0 24 5d bc 8e 99 3f 3c f0 bf fc bb 2f 6c 84 3c
       -0.013497561 0.011694325 -0.0077133104 0.016164867
000300 d0 c5 89 3d b0 b2 07 bd 8c d9 00 00 d0 c5 89 bd
       0.06727183 -0.033129394 7.8041e-41 -0.06727183
000310 38 33 01 80 0b 58 32 3d 9f d9 0e 3b d7 2d 1a 3d
       -1.1021e-40 0.043540996 0.0021797193 0.037641373
000320 15 f1 76 bd d2 31 1d 3c 14 da df bc 51 e1 9a bc
       -0.060288507 0.009594398 -0.027325667 -0.018906267
000330 03 02 f9 3c 49 d0 6b 3d 6f 63 4a bc 91 20 9b bd
       0.030396467 0.057571683 -0.012352808 -0.07574571
000340 f7 d3 4b bc b1 13 1a bd 4a ce 65 3b 10 c0 c9 3c
       -0.012440673 -0.037616435 0.0035065585 0.024627715
000350 2c b6 4e 3d 10 be fe bc 4c be 25 bd fb 9a fc bc
       0.0504667 -0.031096488 -0.040464684 -0.03083562
000360 9a 58 11 bd 42 4e 0c 3c c0 1b dc bd 89 69 bf bc
       -0.035484888 0.00856358 -0.107474804 -0.023365753
000370 9e f5 8d 3c 49 fc 88 3c ab 9b 9e 3c 91 46 cb 3b
       0.017329033 0.016721861 0.019361338 0.0062034805
000380 78 7d 21 bc 3e bc c7 3c 5b 48 39 3c b0 98 01 00
       -0.009856574 0.024381753 0.011308755 1.4661e-40
000390 3e bc c7 bc 70 1a 01 80 eb ed 45 3d c7 71 ba 3c
       -0.024381753 -1.0132e-40 0.0483226 0.022759331
0003a0 6e 23 cb 3d 9c 82 e7 3d 55 8a 8e bd 32 6f 95 bd
       0.09918867 0.11304209 -0.069599785 -0.072965994
0003b0 5a b9 8b bd cf b6 f2 3c 67 c5 17 bc 37 3b e2 3b
       -0.068224624 0.029628186 -0.009263373 0.0069040316
0003c0 cd b2 e4 ba f9 2a 56 3c 8d cf b1 3c 8b d4 20 bc
       -0.0017448306 0.013071769 0.021705413 -0.009816299
0003d0 a8 32 89 3a 32 95 58 bc d9 71 6d bc 64 8f 12 bc
       0.0010467367 -0.013219165 -0.014492475 -0.00894532
0003e0 22 4a 82 3d b8 0c 43 bb d5 36 f7 3c ca 3f 89 bc
       0.06361796 -0.002976222 0.030177513 -0.01675405
0003f0 6d 3a 2f 3c 96 4b 88 3b fe 1e ac bc 5e 2b e0 bc
       0.010695082 0.004159401 -0.021010872 -0.02736443

fcs1.bias f4 [400]
000000 18 6b ce bc 7e c3 9f bc 2a d8 0e bd 07 e6 89 bd
       -0.02519755 -0.019502398 -0.03487412 -0.06733327
000010 35 6a ea bc c7 c5 89 bd 38 bc c7 bc f1 fd 55 bc
       -0.028615097 -0.06727176 -0.024381742 -0.013061033
000020 5a 49 6d bd 67 ba 38 bd be 29 54 bd dd 8e 21 bc
       -0.05793128 -0.045099642 -0.05179762 -0.009860721
000030 f3 62 da 3c d4 67 82 bc b1 6a 95 3b b8 4f 19 bd
       0.02665851 -0.01591865 0.0045598377 -0.03742954
000040 59 da c0 bc 8b 68 70 bd 6f d1 34 bd 70 8f ad bc
       -0.023541616 -0.05869345 -0.044145044 -0.02118656
000050 34 4b 8f bc 5c a3 a1 bc 65 b7 43 bd 10 1d 47 bd
       -0.017491914 -0.019731216 -0.04778232 -0.0486117
000060 15 41 21 bd a2 9b 94 bc 33 3d e8 bd 95 a0 55 bd
       -0.039368708 -0.018140618 -0.11339798 -0.052155096
000070 2a ba 25 bc 28 10 86 bc 1f d6 0f bc ae 94 b7 bb
       -0.010115186 -0.016365126 -0.008779078 -0.005602441
000080 82 5b 3f bc e1 32 8e bd 0d bb 43 bd b7 f5 b6 bd
       -0.011679532 -0.06943298 -0.047785807 -0.08933585
000090 2c ad 95 bd 14 ea 83 bd 26 77 40 bd ef 1a 87 bd
       -0.073084205 -0.06441131 -0.04698863 -0.06596934
0000a0 3a 2d 3c bd 5c c7 4d bd bd c2 fd bc fc e8 fc bc
       -0.04594157 -0.050238952 -0.030976648 -0.030872814
0000b0 46 d2 77 bd ac 02 17 bd 91 a3 87 bd 59 bc e6 bc
       -0.060503267 -0.036867782 -0.06622995 -0.028165983
0000c0 ca 07 84 bd 36 20 5c bd d7 20 63 bd 49 fb d6 bc
       -0.06446798 -0.053741656 -0.05545124 -0.026242869
0000d0 88 03 57 bc 88 53 ab bc 36 c4 59 bd 89 0d 76 bc
       -0.0131234005 -0.020913854 -0.053165637 -0.0150178755
0000e0 12 88 8e bd 5b 44 09 bd e7 87 d1 bc da e6 2a bd
       -0.06959547 -0.033512454 -0.025577499 -0.041724063
0000f0 8b cb d9 bc 17 91 69 bd d1 22 8a bc cd 72 2e bd
       -0.026586315 -0.057023134 -0.016862305 -0.04258995
000100 30 aa 7c bd 0d b5 88 bd bb 02 72 bd 01 82 43 bd
       -0.06168574 -0.06675158 -0.059084635 -0.047731403
000110 ed aa 68 bd e5 5e b5 bd 0c fb d6 bc ef 8b 3a bc
       -0.056803633 -0.0885599 -0.026242755 -0.011385902
000120 d8 dc 4f bd b6 3e 4c bd fe 6b df bc 9d f2 9d bd
       -0.050747722 -0.049864493 -0.027273174 -0.077122904
000130 6a fb 35 bd 73 ab 05 bd 8e c0 93 bd ae d2 b2 bc
       -0.04442922 -0.03263421 -0.07214461 -0.021828976
000140 86 62 cf bc 87 3e 14 bd ca 97 8f bc 27 7f 6c bd
       -0.025315534 -0.036192443 -0.017528433 -0.05773845
000150 b1 0f 5e bd c5 c6 66 3b 1f 9c 83 bd 46 03 6b 3c
       -0.054214183 0.003521369 -0.06426262 0.014344042
000160 f5 e2 21 bd 15 eb 56 bd 27 67 13 bd e3 f6 e0 bb
       -0.039523084 -0.052470285 -0.035987046 -0.0068653687
000170 ac 52 8b bd 83 c0 0f bd c8 1a 43 bd 18 6f 57 bd
       -0.06802878 -0.035095703 -0.047632962 -0.05259618
000180 9f 34 e8 bc 78 12 50 bd 53 17 43 bd 0c ed 0d bd
       -0.028345404 -0.050798863 -0.047629666 -0.034649894
000190 73 8e 26 bd 26 30 ae b9 c5 fd 87 bd 86 22 1c bd
       -0.040663194 -0.0003322374 -0.066401996 -0.03811886
0001a0 56 05 83 bd 79 8c 97 bc 5e ef 29 bd 15 c0 a0 bc
       -0.06397502 -0.0184996 -0.041488044 -0.019622842
0001b0 11 bf 6b bd 84 07 5c bd 5f 0d ab bd 79 7b 54 bd
       -0.057555262 -0.053718105 -0.0835216 -0.051875565
0001c0 48 98 90 bd 97 4e 73 bd bf 2d 4c bd e5 fb 2b bd
       -0.07060295 -0.05940112 -0.049848314 -0.041988272
0001d0 ff 67 01 bd 05 c6 0c bd 15 06 28 bd 2c c8 87 bd
       -0.03159332 -0.034368534 -0.041021425 -0.06629977
0001e0 c0 31 96 bd 44 a8 6f bd 4c 28 d8 bd cd b3 18 bd
       -0.07333708 -0.05851008 -0.10554561 -0.037280846
0001f0 50 3e a7 bd 36 45 6e bd cc a2 94 bd 8b 7c 37 bd
       -0.08166182 -0.058171473 -0.072576135 -0.044796508
000200 9c ca cc bc 43 a0 db bc 3b 58 29 bd e4 bc 72 bd
       -0.024998955 -0.026809817 -0.04134391 -0.05926217
000210 a7 c6 22 bd 72 c5 50 bc d9 be 99 bc 9a fe 1a bd
       -0.03974023 -0.012742387 -0.018767761 -0.037840463
000220 90 70 9c bb d9 5e 45 3d 52 8c 93 bc bb de df bb
       -0.0047741607 0.048186157 -0.018011246 -0.0068319715
000230 2c d2 7b bd dc 0f 5a bd ef f0 9e bd 96 35 6e bd
       -0.061479732 -0.05323778 -0.07760798 -0.058156572
000240 f8 eb 19 bd e5 a7 cb bb 1e 32 9e bd 8f 9d d8 bc
       -0.037578553 -0.006215083 -0.07724403 -0.026442317
000250 be e8 89 bd f5 46 08 bd a2 d7 a3 bb 45 63 80 bd
       -0.06733845 -0.033270795 -0.0050000707 -0.06268934
000260 ae ac 4d bd 67 fa 34 bd e5 e6 30 bd eb a7 89 bd
       -0.05021351 -0.044184115 -0.04318895 -0.06721481
000270 cf 16 a7 bc 90 89 21 bd 48 1b 18 bd 40 b7 0c bd
       -0.020396618 -0.03943783 -0.037135392 -0.03435445
000280 09 09 40 bd df 2b 9c bc bc 1f 57 bd 4d c9 b1 bc
       -0.046883617 -0.019063888 -0.0525205 -0.021702433
000290 da 2d 74 bd bb c9 92 bd 70 6a 98 bc db 2b 89 bc
       -0.05961404 -0.07167383 -0.01860544 -0.016744545
0002a0 0c 0f 81 bd 73 b8 dd bd 5f b0 ab bd 7c 85 63 3c
       -0.06301698 -0.108261965 -0.083832495 0.013886806
0002b0 d5 c5 4a bd 9f 50 51 bc 25 8f 7a bc 05 81 65 bd
       -0.049505074 -0.012775569 -0.015292917 -0.056031246
0002c0 7f b3 14 bd 23 59 b7 bd f9 9b 8a bd d1 60 a9 bb
       -0.036303993 -0.08952548 -0.06768031 -0.005169012
0002d0 34 64 f0 bc d9 89 a7 bd 76 65 a7 bd 1e 60 ab bd
       -0.029344656 -0.08180589 -0.08173649 -0.08367942
0002e0 76 13 ed bc 7d 5c 76 bd 0c f1 51 bd 07 c3 58 bd
       -0.028939944 -0.060146797 -0.05125527 -0.052920368
0002f0 c5 e0 11 bd ce 93 04 bd 14 43 c8 bd f2 5e 28 bd
       -0.035614748 -0.03236752 -0.09778419 -0.041106172
000300 6a 30 31 bd 5f 96 20 bd c1 c3 f8 bc 03 38 48 bd
       -0.043259062 -0.039205905 -0.03036678 -0.048881542
000310 88 e3 60 bd 9a c3 cb bc 61 72 43 bd 66 a6 40 bd
       -0.05490449 -0.024873544 -0.047716502 -0.04703369
000320 53 e0 eb bc f5 4e 04 3b f4 3d 4d bd ce 53 15 bd
       -0.02879349 0.0020188664 -0.05010791 -0.036456876
000330 1d 5e 58 bd 63 ca 12 bd 28 47 27 bd f0 49 36 bc
       -0.05282413 -0.035837542 -0.040839344 -0.0111260265
000340 80 4a ca bc 31 c5 8b bd 66 86 6b bd 89 5f c2 bc
       -0.024693727 -0.06824721 -0.05750122 -0.023727195
000350 8e e7 e4 bc 13 44 ae bc 50 0c 9b bc c1 a0 40 3b
       -0.027942445 -0.021272695 -0.01892677 0.0029392692
000360 43 bd 27 bd 09 f1 88 bd 23 7b f3 3c a7 fb 8a bd
       -0.04095198 -0.06686599 0.029721802 -0.0678628
000370 7a 4d a7 bd 9a 81 e5 bd 0a cf ae bd a2 3a 40 bd
       -0.08169074 -0.1120636 -0.08535583 -0.046930917
000380 dd 0b 6f bd b3 cc 34 bd 40 3c 43 bd c0 10 c2 bc
       -0.058360923 -0.04414053 -0.04766488 -0.023689628
000390 1d 8f 44 bd 21 1b e1 bc d7 ae 54 bd 24 ff 56 bd
       -0.047988046 -0.027478756 -0.051924553 -0.052489415
0003a0 1e ba ee bb a0 30 ce bc 9e 7d e7 bc 6f 86 e5 bc
       -0.0072853705 -0.02516967 -0.028258141 -0.028018204
0003b0 46 bb ad bd a5 c8 f6 bc c0 95 1e bd e2 a6 51 bc
       -0.08482985 -0.030124972 -0.03871703 -0.012796136
0003c0 f3 49 9a bd b2 89 5e bd d1 ad d3 bc 4e 21 60 bd
       -0.07533636 -0.054330535 -0.025839718 -0.05471926
0003d0 34 ea 9c bc b3 bd c1 bd 01 f9 59 bd a9 76 e0 bc
       -0.019154646 -0.094600104 -0.053215984 -0.027400332
0003e0 5a b9 af bc df 07 5d bd bb 3c 04 bd 1f 94 9d bd
       -0.021450687 -0.053962585 -0.03228448 -0.076942675
0003f0 99 5a 06 bd d9 e7 8f bd 33 5f 51 bd 4c c9 92 bd
       -0.032801244 -0.07026643 -0.05111618 -0.071673006

fc2.weight f4 [300, 404]
000000 ff 6c 00 00 4e 1b 00 80 7a 25 00 80 22 9f 00 00
       3.91e-41 -9.795e-42 -1.3444e-41 5.7086e-41
000010 08 c2 00 00 22 41 00 00 41 d1 00 80 b5 02 00 80
       6.9605e-41 2.3365e-41 -7.5066e-41 -9.71e-43
000020 b7 4b 00 00 eb 88 00 80 60 aa 00 00 05 1b 00 80
       2.7161e-41 -4.9117e-41 6.1119e-41 -9.693e-42
000030 01 75 00 00 ba 03 00 80 be 3f 00 80 53 00 00 80
       4.1973e-41 -1.337e-42 -2.2866e-41 -1.16e-43
000040 0a a6 00 00 35 6f 00 80 dd ce 00 80 6d 44 00 00
       5.9564e-41 -3.9894e-41 -7.4209e-41 2.4547e-41
000050 26 3f 00 00 da 60 00 80 4a 92 00 00 4f 14 00 80
       2.2653e-41 -3.4744e-41 5.2479e-41 -7.285e-42
000060 3a 7a 00 00 0e 28 00 80 2c 24 00 80 a4 c3 00 80
       4.3847e-41 -1.4369e-41 -1.2976e-41 -7.0183e-41
000070 ae 4e 00 00 26 85 00 80 66 b2 00 80 ab 97 00 80
       2.8225e-41 -4.7765e-41 -6.3997e-41 -5.4408e-41
000080 60 83 00 80 ea b2 00 00 ed 12 00 00 84 27 00 80
       -4.7128e-41 6.4182e-41 6.789e-42 -1.4176e-41
000090 ee 65 00 00 d5 c9 00 80 f1 88 00 80 a6 11 00 80
       3.6565e-41 -7.2404e-41 -4.9125e-41 -6.331e-42
0000a0 ea 15 00 80 25 98 00 80 10 13 00 80 a3 c1 00 00
       -7.861e-42 -5.4579e-41 -6.838e-42 6.9464e-41
0000b0 b5 96 00 00 d1 33 00 80 bb 9a 00 80 ce 73 00 80
       5.4063e-41 -1.8588e-41 -5.5507e-41 -4.1543e-41
0000c0 74 1a 00 80 d7 a5 00 00 ff 8e 00 80 13 b1 00 00
       -9.49e-42 5.9492e-41 -5.1297e-41 6.3522e-41
0000d0 7c ac 00 00 7b 91 00 00 36 cc 00 80 ec 0c 00 00
       6.1876e-41 5.2189e-41 -7.3257e-41 4.635e-42
0000e0 4b 32 00 00 02 06 00 80 56 22 00 00 09 93 00 00
       1.8042e-41 -2.155e-42 1.2317e-41 5.2746e-41
0000f0 f1 72 00 00 56 bb 00 80 4c 99 00 00 d1 1a 00 80
       4.1233e-41 -6.7203e-41 5.4993e-41 -9.62e-42
000100 0f 0c 00 00 9b 33 00 00 1e 7f 00 80 f0 ca 00 00
       4.326e-42 1.8513e-41 -4.5601e-41 7.28e-41
000110 c0 4b 00 00 2e 7a 00 00 2a 42 00 00 2a c4 00 00
       2.7174e-41 4.383e-41 2.3735e-41 7.037e-41
000120 9a c7 00 00 d4 a3 00 80 0e ad 00 80 65 04 00 00
       7.1604e-41 -5.877e-41 -6.208e-41 1.576e-42
000130 f5 8b 00 00 cf 59 00 80 fc b6 00 80 a6 7b 00 80
       5.0207e-41 -3.2217e-41 -6.5642e-41 -4.4357e-41
000140 e8 0c 00 00 cf 9e 00 00 9d 9d 00 00 29 c3 00 80
       4.63e-42 5.697e-41 5.6541e-41 -7.001e-41
000150 10 9a 00 80 5d c9 00 00 e1 60 00 80 09 9e 00 80
       -5.5267e-41 7.2236e-41 -3.4754e-41 -5.6692e-41
000160 3b ba 00 00 dd cf 00 80 6e c3 00 00 8b 1c 00 00
       6.6807e-41 -7.4567e-41 7.0107e-41 1.0239e-41
000170 c2 c2 00 00 1d 7a 00 80 60 9b 00 80 ab 4b 00 80
       6.9866e-41 -4.3806e-41 -5.5738e-41 -2.7145e-41
000180 e2 25 00 80 56 9a 00 80 79 c6 00 00 98 cb 00 80
       -1.359e-41 -5.5365e-41 7.1199e-41 -7.3036e-41
000190 2c 2e 00 00 bb 4a 00 80 87 9b 00 80 ab 20 00 00
       1.6563e-41 -2.6808e-41 -5.5793e-41 1.1719e-41
0001a0 e5 17 00 00 12 42 00 00 44 7e 00 00 e2 c2 00 80
       8.572e-42 2.3702e-41 4.5296e-41 -6.9911e-41
0001b0 14 b7 00 80 b5 a4 00 00 4a 4a 00 00 f4 1e 00 00
       -6.5676e-41 5.9086e-41 2.665e-41 1.1104e-41
0001c0 61 0a 00 80 2c 78 00 00 68 c5 00 00 39 cc 00 80
       -3.723e-42 4.311e-41 7.0816e-41 -7.3261e-41
0001d0 ac 88 00 80 88 d9 00 00 49 aa 00 80 28 df 00 00
       -4.9029e-41 7.8036e-41 -6.1087e-41 8.0053e-41
0001e0 97 c5 00 00 3f 3f 00 00 82 86 00 00 7d db 00 80
       7.0882e-41 2.2688e-41 4.8252e-41 -7.8738e-41
0001f0 92 2f 00 80 16 bd 00 00 8b be 00 80 37 44 00 80
       -1.7065e-41 6.7831e-41 -6.8354e-41 -2.4471e-41
000200 8e c5 00 80 1c cb 00 80 83 72 00 00 e6 26 00 80
       -7.0869e-41 -7.2862e-41 4.1079e-41 -1.3954e-41
000210 9a 4e 00 00 f9 8f 00 80 a7 bd 00 00 56 68 00 00
       2.8197e-41 -5.1648e-41 6.8034e-41 3.7429e-41
000220 a6 69 00 00 87 07 d1 17 41 19 00 80 cc 0a 00 00
       3.79e-41 1.3508209e-24 -9.06e-42 3.873e-42
000230 00 eb 00 00 8d a1 00 80 9a 3e 00 00 ad 6f 00 00
       8.4302e-41 -5.7954e-41 2.2457e-41 4.0062e-41
000240 a4 61 00 00 a0 bc 00 80 a2 1a 00 80 51 53 00 80
       3.5027e-41 -6.7666e-41 -9.554e-42 -2.9888e-41
000250 36 b9 00 00 fa 17 00 80 ba 2e 00 00 a3 05 00 00
       6.6441e-41 -8.601e-42 1.6762e-41 2.022e-42
000260 c8 00 00 80 6b bc 00 00 b2 27 00 80 0f 5b 00 80
       -2.8e-43 6.7592e-41 -1.424e-41 -3.2666e-41
000270 6f d7 00 00 3a 37 00 00 7f 1e 00 00 d9 8d 00 80
       7.7283e-41 1.9812e-41 1.094e-41 -5.0885e-41
000280 06 ab 00 00 8c cc 00 00 88 73 00 80 eb ca 00 00
       6.1352e-41 7.3378e-41 -4.1445e-41 7.2793e-41
000290 5c c9 00 80 0c 5c 00 80 a4 b6 00 80 fc 1e 00 80
       -7.2234e-41 -3.302e-41 -6.5519e-41 -1.1115e-41
0002a0 95 cb 00 00 ef bf 00 00 96 01 00 80 e8 4c 00 00
       7.3031e-41 6.8853e-41 -5.69e-43 2.7589e-41
0002b0 35 54 00 80 11 53 00 00 5f ac 00 00 f4 a1 00 80
       -3.0208e-41 2.9799e-41 6.1835e-41 -5.8098e-41
0002c0 71 a2 00 00 65 3b 00 80 9a 8c 00 00 d4 6e 00 00
       5.8273e-41 -2.1307e-41 5.0438e-41 3.9758e-41
0002d0 9d 5f 00 80 58 91 00 80 47 b6 00 80 b1 7d 00 80
       -3.43e-41 -5.214e-41 -6.5389e-41 -4.509e-41
0002e0 cd d0 00 00 44 31 00 00 2c 4d 00 80 50 c6 00 00
       7.4904e-41 1.7673e-41 -2.7684e-41 7.1141e-41
0002f0 39 46 00 80 f5 5e 00 00 84 ac 00 00 9d 7c 00 00
       -2.5191e-41 3.4064e-41 6.1887e-41 4.4703e-41
000300 8e 73 00 00 27 28 00 00 c6 15 00 00 6c c3 00 80
       4.1453e-41 1.4404e-41 7.811e-42 -7.0104e-41
000310 f3 8d 00 00 a9 7c 00 80 1c 54 00 00 f4 ce 00 00
       5.0922e-41 -4.472e-41 3.0173e-41 7.4241e-41
000320 07 b9 00 00 ec d8 00 00 f2 c4 00 00 0f 95 00 80
       6.6375e-41 7.7817e-41 7.065e-41 -5.3472e-41
000330 16 72 00 00 f8 56 00 00 49 98 00 00 b2 05 00 00
       4.0926e-41 3.1199e-41 5.463e-41 2.043e-42
000340 bb 53 00 00 89 0b 00 80 63 ec 00 80 f5 3a 00 80
       3.0037e-41 -4.138e-42 -8.48e-41 -2.115e-41
000350 d3 82 00 80 89 bb 00 80 c6 58 00 00 6b 2d 00 00
       -4.6931e-41 -6.7275e-41 3.1846e-41 1.6293e-41
000360 a1 a7 00 80 7a c4 00 80 19 b6 00 00 30 48 00 00
       -6.0134e-41 -7.0483e-41 6.5324e-41 2.5896e-41
000370 0a 50 00 00 22 53 00 00 6b e5 00 80 74 cd 00 00
       2.8713e-41 2.9822e-41 -8.23e-41 7.3703e-41
000380 e0 1f 00 80 2c 97 00 80 c4 c7 00 80 39 cb 00 80
       -1.1435e-41 -5.423e-41 -7.1662e-41 -7.2903e-41
000390 a8 a2 00 80 25 a6 00 00 6c 9d 00 00 2e 2c 00 80
       -5.835e-41 5.9601e-41 5.6472e-41 -1.5849e-41
0003a0 13 16 00 00 19 6a 00 80 2c ca 00 00 f2 1a 00 00
       7.919e-42 -3.806e-41 7.2526e-41 9.666e-42
0003b0 41 55 00 80 d8 c8 00 80 71 9f 00 80 39 08 00 00
       -3.0583e-41 -7.2049e-41 -5.7197e-41 2.95e-42
0003c0 3a 42 00 80 83 37 00 80 d3 6f 00 00 ec ab 00 00
       -2.3758e-41 -1.9914e-41 4.0115e-41 6.1674e-41
0003d0 d5 12 00 80 f7 0b 00 80 41 a1 00 80 ba 5d 00 80
       -6.756e-42 -4.292e-42 -5.7847e-41 -3.3623e-41
0003e0 ff 29 00 00 f3 6e 00 80 5f cb 00 00 74 32 00 00
       1.5065e-41 -3.9801e-41 7.2956e-41 1.8099e-41
0003f0 10 8f 00 80 af 20 00 80 86 60 00 00 34 b9 00 80
       -5.1321e-41 -1.1725e-41 3.4626e-41 -6.6438e-41

fc2.bias f4 [300]
000000 dc 32 8a a2 01 5a ef ba dc 34 fc 3d 96 05 d3 3d
       -3.7458824e-18 -0.0018261076 0.123147696 0.103038
000010 a2 df 75 b9 13 aa 9d b3 99 22 af ba d5 34 81 a9
       -0.0002344833 -7.3418185e-08 -0.0013361751 -5.737916e-14
000020 36 b0 30 b8 76 5f 24 bb 9e 89 48 b7 e6 aa 1d 3e
       -4.212578e-05 -0.0025081313 -1.195297e-05 0.15397224
000030 78 3a e0 b7 cc ed 56 b4 f9 c9 cf ba 31 8d 85 8d
       -2.6730107e-05 -2.0016813e-07 -0.0015853039 -8.230748e-31
000040 f1 f7 9f b9 aa c3 02 bb 5d 0d 8a b9 a0 f7 32 b3
       -0.00030511574 -0.001995305 -0.00026331368 -4.1669068e-08
000050 a8 32 14 ab 27 2f c9 3c 93 e6 2e bb db fd 51 af
       -5.265046e-13 0.024558617 -0.0026687726 -1.9098627e-10
000060 be 76 8c a3 cc 5c 6b ba ad 0f 59 b7 0e fd 04 b7
       -1.522912e-17 -0.00089783664 -1.2937858e-05 -7.926732e-06
000070 20 81 27 b2 13 00 84 b3 f7 d9 9c ba 33 0b 80 ba
       -9.750039e-09 -6.1467425e-08 -0.0011966814 -0.0009768963
000080 70 47 c8 b6 3d 3b 53 3d 35 01 86 bb 74 d7 55 8b
       -5.968781e-06 0.051570166 -0.0040894994 -4.1184397e-32
000090 d1 4b 8c b8 f4 fd 90 ba 6f 5a 5b ba a0 a1 b1 3d
       -6.689842e-05 -0.0011062012 -0.00083676627 0.08673406
0000a0 a1 cf 15 bb f8 5e 97 99 39 cb d7 8a c8 08 65 ab
       -0.0022859352 -1.5651392e-23 -2.0780191e-32 -8.136933e-13
0000b0 86 90 81 af 8f e3 91 91 b7 e4 27 98 2a b3 3e b6
       -2.3567653e-10 -2.301721e-28 -2.1699716e-24 -2.8416493e-06
0000c0 04 a5 97 b4 a5 db 61 b9 40 9c bc ad 89 f5 c6 3c
       -2.8246006e-07 -0.00021539496 -2.1442514e-11 0.024287002
0000d0 1b a8 09 ba dd c6 44 b5 38 a5 9b b6 ca 84 57 3d
       -0.0005251185 -7.3305074e-07 -4.638594e-06 0.052616872
0000e0 ca 75 41 b9 df 90 00 b3 b1 df 4d bb 35 78 c5 ba
       -0.00018449794 -2.9934082e-08 -0.0031413848 -0.0015065732
0000f0 90 04 d2 ba f0 4e ee b7 f3 12 c0 ba e0 2b 49 ac
       -0.0016023088 -2.8408569e-05 -0.0014654085 -2.8588173e-12
000100 7a 95 16 a7 4c c4 a6 3d 08 e7 82 ba a9 ae a6 b5
       -2.0897713e-15 0.081429094 -0.0009987066 -1.2418797e-06
000110 10 f9 85 3b e0 d8 65 ab 55 85 62 3d 7c f3 bb 39
       0.0040885285 -8.165812e-13 0.055302937 0.0003584883
000120 3f 75 35 3d 70 2c 0b b9 8d b9 4b ba 64 28 24 b8
       0.044301268 -0.00013272627 -0.00077714847 -3.9138264e-05
000130 88 90 7c ae 13 ad 21 3d 8f e3 c7 b1 e1 98 a8 3d
       -5.7426536e-11 0.039471697 -5.8175327e-09 0.08232284
000140 39 88 2b ae ba 41 48 a1 81 89 5b b8 f4 7f 21 b8
       -3.900189e-11 -6.7849624e-19 -5.234173e-05 -3.8504557e-05
000150 c0 08 12 bc 2a 6a 92 aa 39 c3 98 3d 6e 97 8c b2
       -0.008913219 -2.6008476e-13 0.07459111 -1.6367007e-08
000160 c7 37 91 b5 d8 6b 71 b0 95 78 bc ba 32 d7 97 ae
       -1.0819575e-06 -8.7828544e-10 -0.0014379198 -6.9049114e-11
000170 45 14 a9 ad 29 fe 30 ba fb 24 57 bb 92 38 93 b9
       -1.9222077e-11 -0.000675174 -0.0032828439 -0.00028080173
000180 3f fb 9f b9 3c 46 ca a4 a0 68 ff ba 97 c1 61 ba
       -0.00030514036 -8.772252e-17 -0.0019486137 -0.0008611916
000190 5f 6b 0e b8 b8 52 4b a6 90 ac 94 b9 ff b0 6f b6
       -3.3955435e-05 -7.054188e-16 -0.0002835733 -3.57168e-06
0001a0 1f ce 71 ab fb e8 12 a3 58 c7 2e bd cf 2c e1 b9
       -8.590645e-13 -7.964011e-18 -0.042670578 -0.0004294873
0001b0 7b 33 24 ba d1 21 8b ab d7 66 09 b9 92 c4 fd b6
       -0.00062637747 -9.88593e-13 -0.00013103649 -7.5628714e-06
0001c0 f6 5f 80 ba f6 ea 3b b1 97 67 07 ba c1 95 c2 ba
       -0.0009794224 -2.7345641e-09 -0.00051652774 -0.0014845656
0001d0 8a 01 a2 bc 7e a3 05 3e db 2d e2 b8 6f 89 d7 3d
       -0.019776125 0.13050649 -0.00010785061 0.1052426
0001e0 bc 5e 45 b9 c2 b5 ce ba 9e 13 70 b9 75 98 9b bd
       -0.00018822675 -0.0015770721 -0.00022895492 -0.07597438
0001f0 09 3b b0 a8 6c 7d 0e b8 44 bb b9 ba cb 68 16 b7
       -1.9565528e-14 -3.3972246e-05 -0.0014170189 -8.965096e-06
000200 17 a1 1e a7 49 ad a5 b9 ad 46 a5 bb 34 14 ff ba
       -2.2014232e-15 -0.0003160036 -0.0050438256 -0.0019460977
000210 e9 77 1b bb 1e aa b2 ba 16 f5 5b 99 79 4a d1 af
       -0.0023722595 -0.0013631021 -1.1371529e-23 -3.8069795e-10
000220 b1 f7 8b bb 4e c1 90 8c a0 3b 75 ba bb 9e 43 3d
       -0.0042714705 -2.2303054e-31 -0.0009354893 0.0477588
000230 6e 1c 9d b6 2b 15 75 9b f2 6f e2 3c 5b 37 bb ba
       -4.6822743e-06 -2.0272765e-22 0.02764127 -0.0014283465
000240 05 a6 7b b3 7e 06 49 b2 ef 9c 75 3d 54 88 17 ba
       -5.8591485e-08 -1.1701216e-08 0.059964117 -0.00057805073
000250 ec c2 00 9f 26 1d 8d b8 8d 62 97 b8 81 7f 62 8e
       -2.726629e-20 -6.728833e-05 -7.2185976e-05 -2.7918042e-30
000260 3c b2 9c ba 32 80 26 ab 75 de 00 bb 09 43 88 af
       -0.0011954973 -5.9152954e-13 -0.0019663845 -2.4785887e-10
000270 42 ca cd af 39 8d 91 b3 a1 00 07 bc 71 9e 55 a9
       -3.7432996e-10 -6.777777e-08 -0.008239896 -4.7432927e-14
000280 af 8c a6 3d ea 93 96 b9 3e 1b e6 3c e8 69 f5 ba
       0.08132302 -0.00028720434 0.028089162 -0.0018723579
000290 59 09 f7 b6 17 cf a9 b6 82 85 2b ba 24 ad 83 3c
       -7.362262e-06 -5.060701e-06 -0.00065430265 0.01607377
0002a0 c5 52 63 bb d9 4b c8 ba 0b 61 b3 ba c0 28 88 ba
       -0.0034686786 -0.0015281393 -0.0013685537 -0.0010388121
0002b0 e0 a3 db aa 23 c8 a8 9e 96 9c a8 ba b7 9d 14 3b
       -3.9015926e-13 -1.7870466e-20 -0.0012864049 0.0022677013
0002c0 d7 b8 1d bd 43 0b 02 8e ed a0 b0 b2 4a 3f 6a ba
       -0.038506355 -1.602916e-30 -2.0562277e-08 -0.00089358224
0002d0 98 49 75 bb fc d3 5e a8 3e de 01 b8 1d 7a 8b b3
       -0.0037427898 -1.2369442e-14 -3.0962976e-05 -6.494904e-08
0002e0 26 53 4e b8 fb 66 5a 3d 6c f5 3e 3d 7e 05 0f b2
       -4.9191665e-05 0.053320866 0.04662077 -8.324944e-09
0002f0 a7 a0 9e bb f6 39 76 3d d0 69 84 ba f4 b3 fc b9
       -0.0048409286 0.06011387 -0.0010102335 -0.0004819926
000300 b0 49 6d b9 bd 12 87 bb d9 14 d8 b4 26 d8 18 ba
       -0.00022629532 -0.004122107 -4.0248304e-07 -0.00058305485
000310 bc f1 3b 3e 62 93 b8 b4 df 19 93 b8 52 cf 3d 8e
       0.18353933 -3.4379906e-07 -7.014325e-05 -2.339587e-30
000320 b2 81 4b a0 bc 88 73 b9 59 42 4c b7 fe 14 23 b6
       -1.7237681e-19 -0.00023225223 -1.2174795e-05 -2.4301112e-06
000330 d4 b9 3c b9 98 90 3d b8 c7 09 31 9f 70 ae c3 b5
       -0.00017998304 -4.5195775e-05 -3.7489296e-20 -1.45794e-06
000340 94 e3 71 b9 53 f7 14 ba 18 03 cd ba d7 7a a6 39
       -0.0002306833 -0.0005682606 -0.0015641181 0.0003175351
000350 6a 2d fd ab fb f6 10 ba f3 73 7e a9 78 d5 8b bb
       -1.7989336e-12 -0.0005529967 -5.64999e-14 -0.004267391
000360 8a e1 f5 b8 02 13 9d b8 4d 0e 33 b6 25 29 26 a3
       -0.0001172452 -7.489884e-05 -2.6681403e-06 -9.007591e-18
000370 9e 29 98 b8 cd e3 1f b1 96 81 04 3d e8 4c 8e b7
       -7.2556766e-05 -2.3267035e-09 0.032350145 -1.6963531e-05
000380 e0 4f 4b b0 a1 01 10 aa 48 a3 86 ba 3c 24 e5 b8
       -7.396448e-10 -1.2790334e-13 -0.001027205 -0.0001092632
000390 3b 96 9d b1 18 f1 8a ae 88 c9 e6 ab 32 f7 22 a6
       -4.5863806e-09 -6.31834e-11 -1.6398419e-12 -5.6540053e-16
0003a0 f2 2b b1 b9 98 52 6b 98 d0 8c fd b3 0e cf ab ad
       -0.00033792813 -3.0414737e-24 -1.1806844e-07 -1.95324e-11
0003b0 6f 0f 8e 3d 3a c8 9a bb 54 00 68 b1 9c fc 56 b1
       0.069365375 -0.004723576 -3.376063e-09 -3.128469e-09
0003c0 75 8c 80 ad 53 9f c0 bd 63 33 f8 b4 d5 18 14 b7
       -1.461429e-11 -0.09405389 -4.6230988e-07 -8.827269e-06
0003d0 7f ba 12 bb ff 1f bc b9 2b 9d 98 b9 81 d2 86 a1
       -0.0022388992 -0.00035881993 -0.00029108798 -9.135913e-19
0003e0 71 c1 24 bb fa 0c e5 bc f2 25 4a 3e 60 bd 23 b8
       -0.0025139714 -0.02796029 0.19741037 -3.9038598e-05
0003f0 b2 e5 29 bd cd 19 7f b9 e0 b9 b2 ba d8 d8 08 8f
       -0.04147882 -0.00024328307 -0.0013635717 -6.74708e-30

fc3.weight f4 [1, 300]
000000 3d 8c 48 38 bc 1a 58 bb 60 40 b5 3e 78 c7 7b 3e
       4.7814323e-05 -0.003297492 0.35400677 0.2458781
000010 3a d7 cf 38 dd a4 0d 38 62 1c cb ba 9a c6 78 37
       9.910618e-05 3.377056e-05 -0.001549613 1.4828192e-05
000020 d4 8a 9d b8 7b 43 1f b9 31 0c a3 ba 42 96 6d 3e
       -7.512202e-05 -0.0001518856 -0.0012439546 0.2320185
000030 b4 24 59 36 ea b3 31 37 5b 82 f4 37 ba 2c 8f 38
       3.2356884e-06 1.0591912e-05 2.9147768e-05 6.827102e-05
000040 28 33 59 39 2d 87 bd 3a 51 50 67 37 b5 af 06 3a
       0.0002071379 0.0014459841 1.3787373e-05 0.0005137877
000050 eb 83 46 b7 56 7f 6e 3d a1 79 60 38 88 23 78 b9
       -1.1832434e-05 0.058226906 5.3519037e-05 -0.0002366436
000060 7a 4a 74 b9 19 bb e6 3a af 42 79 ba 63 4a 50 39
       -0.00023297398 0.0017603367 -0.0009508533 0.00019864137
000070 ab 6a db ba 07 61 08 3a f4 b5 f4 38 79 f9 a0 37
       -0.0016740164 0.00052024465 0.00011668718 1.9189656e-05
000080 0d 6e 6d 3a 56 c8 08 3f 0e 34 c1 39 f2 4e 88 b5
       0.00090572314 0.5343069 0.00036850612 -1.0155766e-06
000090 fb af e6 ba be 68 72 39 60 28 90 b8 de f8 1c 3e
       -0.0017600054 0.00023117938 -6.8739755e-05 0.1532931
0000a0 6d 47 b3 39 95 d5 9b 37 5b e6 cd 35 0b a6 49 38
       0.00034194757 1.8576897e-05 1.5340732e-06 4.8076774e-05
0000b0 d2 71 98 b9 c2 54 88 37 f7 79 9e 38 94 e6 9b 39
       -0.00029076502 1.6251932e-05 7.556745e-05 0.00029735698
0000c0 98 ba 2c b7 eb d7 98 39 71 60 bf ba 58 ab 11 3f
       -1.0295444e-05 0.0002915257 -0.0014600885 0.56902075
0000d0 76 73 5f b7 57 ff 11 bb b3 b7 b7 37 ed 7f 0b 3f
       -1.3318719e-05 -0.0022277439 2.1900842e-05 0.54492074
0000e0 47 21 6b 3b 04 f6 a3 38 0c 0a 91 ba d0 ea da 38
       0.003587799 7.81827e-05 -0.0011065616 0.00010438787
0000f0 7e f2 32 b9 01 1f 00 b8 84 15 4c 3a d6 1a 94 b6
       -0.00017065738 -3.0546453e-05 0.00077851885 -4.413868e-06
000100 94 f0 fd b5 a0 70 54 3e 00 0e 96 3a 56 bd 3e b6
       -1.8919986e-06 0.20746088 0.0011448264 -2.8422414e-06
000110 4c 1f 27 be 8a f5 6e b7 d0 bb fa 3e 17 7c 1a 38
       -0.16320533 -1.42430745e-05 0.48971415 3.683203e-05
000120 e0 03 db 3e 92 5d bd 38 5f 9f bd 3a 61 30 e4 3a
       0.42776394 9.029651e-05 0.0014467052 0.0017409438
000130 c7 86 c3 36 13 c9 b6 3e 5a 25 e8 ba 7a 77 01 3f
       5.827143e-06 0.35700282 -0.0017711327 0.5057293
000140 65 7d 87 38 d5 a6 c2 b9 b3 c8 bc b8 82 22 22 ba
       6.460658e-05 -0.00037126863 -9.001922e-05 -0.00061849516
000150 20 83 2a be 5a b8 7e 37 e6 d4 81 3e aa 9e 37 ba
       -0.16651583 1.51825025e-05 0.2535774 -0.0007004539
000160 9a 19 c0 37 b6 89 6b 3a 82 fb 86 ba 7a 85 06 3a
       2.2900105e-05 0.0008985059 -0.0010298344 0.0005131584
000170 64 bd a3 37 de a8 12 3a 3f d8 49 37 8b fa b1 b8
       1.9519306e-05 0.0005594621 1.2030882e-05 -8.486685e-05
000180 be 14 b8 ba 80 9c ae 36 81 24 a5 b9 31 ff 25 b8
       -0.0014044268 5.203823e-06 -0.0003149845 -3.957673e-05
000190 81 b9 f2 b9 7c c4 43 3a ed a3 28 b5 62 96 5d 3a
       -0.00046296048 0.0007467938 -6.282342e-07 0.000845289
0001a0 a4 5e bc b8 98 62 92 39 a1 95 9c be e4 1a 00 b9
       -8.982167e-05 0.00027920748 -0.30582908 -0.00012217049
0001b0 03 0b 5b ba e5 b2 59 39 5b b1 22 ba c1 12 46 b6
       -0.0008355828 0.00020761376 -0.00062062376 -2.9515215e-06
0001c0 b2 47 ee 3a 62 db 76 38 9d b6 38 39 2d 1d f7 ba
       0.0018179326 5.8855287e-05 0.00017615636 -0.00188533
0001d0 3b 24 dd bd c4 dd 64 3e 1b fd 11 b9 ce 2a 5b 3e
       -0.10797926 0.22350222 -0.00013922567 0.21403047
0001e0 cf 43 60 bb 61 c1 81 ba 9a 76 af ba 8e 95 30 be
       -0.0034220105 -0.000989955 -0.0013386786 -0.1724455
0001f0 ca 06 d4 b9 30 5f 2d b9 c6 0c 82 b7 e2 96 44 3b
       -0.0004044085 -0.00016534026 -1.5503156e-05 0.002999716
000200 92 88 a7 b9 82 43 be 39 83 4c 37 3b a9 b8 1c 39
       -0.00031954475 0.0003628992 0.0027969189 0.0001494611
000210 cb 76 8e 3b 4a b6 b6 3a 42 2f 7c 31 94 79 3e 39
       0.0043476573 0.0013939824 3.669769e-09 0.00018165103
000220 11 de 4d be 72 00 d3 37 6d 18 f2 b8 8d e2 4c 3e
       -0.20104243 2.5153367e-05 -0.00011544009 0.20008297
000230 0b 46 be 3a 7d 0d 91 b8 3a 25 6e 3e 2d a0 c2 38
       0.0014516724 -6.916651e-05 0.23256388 9.280476e-05
000240 0a 05 a0 38 7a bd d7 3a 6e 1e ab 3e d9 5d cb 37
       7.630333e-05 0.0016459667 0.33421654 2.4243187e-05
000250 19 c2 a2 3a 17 5c 0f 3a 15 ba 1f 37 96 43 94 39
       0.0012417465 0.00054687395 9.520464e-06 0.00028279115
000260 d0 ba 0f 3b 32 7c 00 ba 04 f2 d9 ba 8f 4b 3d b7
       0.0021931417 -0.0004901319 -0.0016627912 -1.128287e-05
000270 2d 29 62 b7 ff 77 5a 3a 08 51 66 3e 3d 83 9f 38
       -1.3480237e-05 0.0008333921 0.22491848 7.606156e-05
000280 13 f0 90 3e e4 47 9d b9 50 e2 64 3e 17 7c 4b bb
       0.28308162 -0.00029998936 0.22351956 -0.0031049305
000290 9e c8 2e b6 2c 5e df ba 04 db 04 b8 02 f7 6f 3d
       -2.6044795e-06 -0.0017041615 -3.1675227e-05 0.058585174
0002a0 03 dd c1 b9 76 ab b4 ba 49 b8 bc 39 dc 60 48 3a
       -0.00036976495 -0.001378401 0.00035995457 0.00076438277
0002b0 83 b2 a6 38 bf 92 a7 3a 1e e8 8d 3a 99 6d 2a bb
       7.948747e-05 0.0012784823 0.0010826623 -0.0026005267
0002c0 64 49 a7 bd d7 43 1c b8 9e 1f 72 ba 1b 6f 28 ba
       -0.08168295 -3.725648e-05 -0.0009236279 -0.00064252474
0002d0 cb 8a 1a b9 30 3a 5f b7 b3 8d 35 3b d4 35 51 b9
       -0.00014738289 -1.3305384e-05 0.0027702868 -0.00019951846
0002e0 6b 09 89 b8 e5 d4 50 3e 71 43 87 3e c5 45 b8 37
       -6.534423e-05 0.20393713 0.2641864 2.1966998e-05
0002f0 49 80 b9 b9 f8 39 10 3f 27 fb 97 38 30 d6 d6 b9
       -0.0003538153 0.56338453 7.247022e-05 -0.00040976843
000300 30 70 87 b6 bd 60 37 ba ec 0f 90 b9 d3 cf 21 b5
       -4.036374e-06 -0.0006995311 -0.00027477683 -6.02796e-07
000310 b2 17 3f 3e 8e 5a c8 b9 51 63 a6 35 ef a5 da 32
       0.18661383 -0.0003821444 1.2396869e-06 2.5453998e-08
000320 31 2f a9 b9 5d 09 65 3a ac b4 82 38 b9 f9 9e 38
       -0.00032269352 0.0008737052 6.232536e-05 7.5805416e-05
000330 d2 f7 c5 b8 af 90 d2 36 6e f8 11 38 e0 8a a7 38
       -9.439852e-05 6.275331e-06 3.4802062e-05 7.989048e-05
000340 57 c6 1c b8 6b 33 0d 3b 3e 8b 01 3b 63 fd 8c 3b
       -3.7378017e-05 0.002154554 0.0019766833 0.004302667
000350 d2 c0 5e b6 52 4d 04 b8 34 18 01 39 38 0a c4 3a
       -3.3192814e-06 -3.1543263e-05 0.00012311415 0.0014956659
000360 e9 81 f6 b9 01 9b e8 38 a7 47 6d 37 90 b5 30 ba
       -0.00047017567 0.00011091494 1.4142984e-05 -0.0006740922
000370 74 c6 34 bb 30 45 23 36 ef af 13 3e 8b 91 78 ba
       -0.0027584108 2.4329165e-06 0.14422582 -0.0009482137
000380 21 1d db b8 71 0f e4 b7 0e 98 ce 3a 74 48 19 b7
       -0.000104481594 -2.7186908e-05 0.0015761869 -9.13638e-06
000390 f9 7e c6 b8 54 02 35 b7 c1 3c 03 b9 5f b9 26 b5
       -9.465026e-05 -1.0788983e-05 -0.00012515766 -6.210957e-07
0003a0 fe f3 f2 ba 6a 24 76 b9 69 82 82 ba be 6e 14 b8
       -0.001853585 -0.00023473953 -0.0009957078 -3.5389086e-05
0003b0 ba f2 31 3f a0 c2 cb ba 07 8d aa 38 a8 6b 45 ba
       0.69510996 -0.0015545674 8.1325e-05 -0.00075309956
0003c0 d3 8f 4d b9 80 bc 31 be b3 53 c2 ba 23 18 66 ba
       -0.00019603902 -0.17357063 -0.001482597 -0.00087774004
0003d0 73 15 5c 39 dd f2 de ba 30 26 17 37 53 21 75 37
       0.00020988825 -0.0017009635 9.009193e-06 1.4610897e-05
0003e0 b1 23 84 3a 1f 33 4d be de 34 99 3e f1 be b3 39
       0.0010081438 -0.20039032 0.29923147 0.00034283803
0003f0 9d 4e 10 be 88 3a de ba df 4f 9e 3a 9b 71 8a 37
       -0.14092489 -0.00169547 0.0012078247 1.6503784e-05
