Continuous Control/checkpoint_actor.pth (torch_old, 157992 bytes, 14 tensors)

fc1.weight f4 [200, 33]
0	0x3d008436	0.031376086
1	0x3c1c2d40	0.009532273
2	0xbce9f5a5	-0.028559515
3	0xbda557a6	-0.08073358
4	0x3ac16cb1	0.0014757124
5	0xbd4c7288	-0.049913913
6	0x3c5dc82a	0.013536492
7	0x3d7cd22c	0.061723873
8	0x3d782846	0.060585283
9	0x3db7ef94	0.08981243
10	0xbd3ffcde	-0.046872012
11	0xbc0a1ef7	-0.008430234
12	0xbc60b888	-0.013715871
13	0x3d92aff8	0.071624696
14	0x3e0395fb	0.12850182
15	0xbc300a26	-0.010744607
16	0x3a043238	0.00050428836
17	0xbd00b03c	-0.03141807
18	0xbd45402c	-0.048156902
19	0x3db719e5	0.08940486
20	0xbbebc2c6	-0.0071948497
21	0x3d30561f	0.04305088
22	0xbd2ebcc6	-0.042660497
23	0x3c2ed267	0.010670281
24	0x3bcee453	0.0063138395
25	0x3c9ec5cb	0.019381424
26	0xbd61b71d	-0.05510627
27	0x3ce1841b	0.027528813
28	0xbd375d66	-0.044766806
29	0x3d63d7de	0.05562579
30	0xbd768197	-0.06018218
31	0xbd32da72	-0.043665357
32	0x3cec9923	0.028881615
33	0xbc9fa8fa	-0.019489754
34	0x3dbe3bcf	0.09288751
35	0x3cee5d7c	0.029097311
36	0x3cf07c7b	0.029356232
37	0x3d63fa47	0.055658605
38	0x3bce9621	0.006304518
39	0x3c1b5591	0.00948085
40	0xbd590eb6	-0.052992545
41	0xbb54f1d0	-0.0032492764
42	0xbb280735	-0.0025639061
43	0xbc071800	-0.008245468
44	0x3cc950ef	0.024574725
45	0xbd0ed691	-0.034872595
46	0xbd9ba71d	-0.07600234
47	0xbc2d675e	-0.010583727
48	0xbbb0267e	-0.0053756824
49	0xbd5cd519	-0.053914163
50	0xbce30f6e	-0.027717318
51	0x3cc8d101	0.024513723
52	0x3b76a323	0.0037633858
53	0xbdc5e009	-0.09661872
54	0xbb8e368a	-0.0043399977
55	0xbd5fd58f	-0.054647025
56	0x3cc64814	0.024204291
57	0xbd3128e0	-0.043251872
58	0x3dadc0c5	0.084840335
59	0x3d83657b	0.0641584
60	0x3d1eff37	0.03881761
61	0xbd2a0312	-0.041506834
62	0xbcffd4fe	-0.031229492
63	0xbb8b3cbb	-0.004249183
64	0x3c530940	0.012880623
65	0x3ca28b81	0.019841911
66	0xbd458c8a	-0.04822973
67	0xbd994e3c	-0.07485625
68	0xbc9611a8	-0.018318966
69	0xbcf64c4f	-0.030065684
70	0xbd5f85f4	-0.054571107
71	0xbcdc4beb	-0.02689167
72	0x3b771584	0.0037702033
73	0xbca8e477	-0.020616753
74	0x3d9f3df3	0.07775488
75	0x3bb59898	0.0055418722
76	0x3cd0f2dd	0.025506431
77	0xbd6dc63e	-0.058050387
78	0x3db2d717	0.087324314
79	0xbd510e47	-0.051039007
80	0xbdadf48c	-0.08493909
81	0x3d3024ba	0.043003775
82	0x3d84cef5	0.064847864
83	0xbd2d45e6	-0.04230299
84	0xbd837f82	-0.064208046
85	0xbd552087	-0.052032974
86	0xbd6074d5	-0.05479892
87	0xbd2e037a	-0.042483784
88	0xbc418d7b	-0.011813517
89	0x3a4954f9	0.00076802034
90	0x3ca7e08b	0.020492813
91	0xbd5e9bc3	-0.054347765
92	0x3c4665d4	0.012109239
93	0x3bb87a42	0.0056298086
94	0x3c745a60	0.014914125
95	0xbb333100	-0.0027342439
96	0x3cd61425	0.026132653
97	0xbb8c08a0	-0.004273489
98	0xbdf7a340	-0.12091684
99	0x3d8d4d1b	0.06899472
100	0x3d994e87	0.07485681
101	0xbd24f68b	-0.040274184
102	0x3d482532	0.048863597
103	0xbd617a85	-0.055048484
104	0x3ccacc3b	0.024755588
105	0xbcde8a81	-0.027165653
106	0xbc852747	-0.01625408
107	0xbd2f810d	-0.04284768
108	0xbddbcd3f	-0.10732507
109	0x3d31f7c5	0.043449182
110	0xbc7d83ba	-0.015473301
111	0x3ca3359a	0.01992302
112	0xbd8b4905	-0.06801037
113	0xbd460296	-0.04834231
114	0x3ca1f74a	0.019771237
115	0xbbe25370	-0.006906919
116	0xbd4e96cb	-0.050436776
117	0xbc9fb131	-0.019493671
118	0x3cf029d9	0.02931683
119	0xbc9c6661	-0.019091787
120	0x3d668b77	0.056285348
121	0xbbde75c2	-0.00678894
122	0xbc70f5aa	-0.014707008
123	0xbae705d9	-0.0017625644
124	0xbcb86ace	-0.022511866
125	0x3c9fdbf7	0.019514067
126	0xbb74c317	-0.0037347728
127	0xbd7a80a9	-0.061157856
128	0x3ce7b7cc	0.028285883
129	0xbcd146ee	-0.025546517
130	0x3ba349e0	0.004983172
131	0x3d691260	0.05690229
132	0x3d6e9bec	0.058254167
133	0x3b888da8	0.0041672774
134	0xbd34193a	-0.04396937
135	0xbd40a7ac	-0.047034904
136	0x3d56e4f0	0.052464426
137	0xbbb913f7	-0.005648132
138	0xbce47e4b	-0.027892252
139	0xbdd1152a	-0.10209115
140	0xbce1018b	-0.027466556
141	0xbde6a384	-0.11261657
142	0xbd4a857e	-0.049443714
143	0xbd865b33	-0.065603636
144	0x3d1d8344	0.038455263
145	0x3d0a8de9	0.033826742
146	0xbcc4eb1a	-0.024037886
147	0xbc68c908	-0.014208086
148	0xbc979ebf	-0.018508313
149	0xbb9f724f	-0.0048659216
150	0x3d143338	0.03618166
151	0x3b9a6509	0.0047117514
152	0xbd93ead8	-0.07222527
153	0x3c9cbf5a	0.019134212
154	0x3c8af75d	0.016963655
155	0xbc969b58	-0.01838462
156	0xbd693306	-0.056933425
157	0xbc2ede83	-0.010673168
158	0x3d041f04	0.03225614
159	0xbca36c85	-0.019949207
160	0x3d20b7ea	0.039237894
161	0xbc07a63c	-0.008279379
162	0xba1400ac	-0.0005645852
163	0xbd268934	-0.04065819
164	0xbca2cff3	-0.019874549
165	0x3c90cf4e	0.017676976
166	0x3d26998e	0.040673785
167	0x3d028376	0.031863652
168	0x3c326f9c	0.010890868
169	0xbd0f00e2	-0.03491295
170	0xbc86c2ae	-0.016450252
171	0x3ce5b017	0.028038068
172	0x3c9996f9	0.018748747
173	0xbd4fd720	-0.05074227
174	0x3d8449b9	0.06459374
175	0x3b5fe21c	0.0034161871
176	0x3cc531eb	0.024071654
177	0x3d1945c6	0.037420057
178	0xbd1f03a1	-0.03882182
179	0x3cc6e190	0.024277478
180	0xbccb1a3e	-0.024792787
181	0xbc31a83e	-0.010843335
182	0x3a8d6d20	0.0010789968
183	0x3d00e7bc	0.031471
184	0xbcf201d1	-0.029541882
185	0xbcb77fd8	-0.022399828
186	0x3ca94024	0.020660467
187	0x3c1dac2b	0.009623568
188	0xbcd971d5	-0.026543537
189	0xbc1cb098	-0.009563588
190	0xbc5e567f	-0.013570427
191	0x3c8d8173	0.01727364
192	0xbd12e308	-0.035861045
193	0xbd486afe	-0.04893016
194	0xbca2d4d0	-0.019876868
195	0xbc291621	-0.010320217
196	0x3ce6d424	0.028177328
197	0xbe0ad3e1	-0.13557388
198	0xbde506f1	-0.111829646
199	0xbd0f8dac	-0.03504722
200	0x3bbd04c3	0.00576839
201	0xbdc9c71e	-0.09852432
202	0xbc462cee	-0.012095673
203	0xbcb3ccb5	-0.021948198
204	0xbc45d569	-0.012074807
205	0xbd531cea	-0.051541246
206	0xbdb98eff	-0.090604775
207	0x3d87b453	0.06626191
208	0x3d2425d8	0.040075153
209	0xbd291a02	-0.04128457
210	0x3d2560fe	0.040375702
211	0xbd891f7d	-0.06695459
212	0x3cc10f6c	0.023566924
213	0xbcc3cd29	-0.023901539
214	0xbd74aee1	-0.05973709
215	0x3d051f28	0.032500416
216	0xbb29d5b3	-0.0025914728
217	0xbd2af555	-0.041737873
218	0xbd4c4db7	-0.049878802
219	0xbb6209f9	-0.0034490807
220	0xbd173bc6	-0.03692224
221	0xbc31cd5f	-0.010852187
222	0x3c66873f	0.014070331
223	0xbc6ab335	-0.014324953
224	0xbda187ac	-0.078872055
225	0x3d2dbaa9	0.04241434
226	0xbd05fae9	-0.03270999
227	0x3d66766e	0.056265287
228	0x3c5f97de	0.013647048
229	0x3d62b8f6	0.055352174
230	0x3d7ee1f8	0.06222722
231	0xbcdfffaf	-0.0273436
232	0x3d4af082	0.049545772
233	0x3bb50048	0.005523715
234	0x3be4d7b4	0.0069837216
235	0x3d005ffa	0.03134153
236	0x3c3029d0	0.010752156
237	0xbd9805d0	-0.07422984
238	0xbd8ce0f0	-0.06878841
239	0xbd2ccf60	-0.042189956
240	0xbcfb410b	-0.030670663
241	0xbc9dea2d	-0.019276703
242	0x3ca0e578	0.01964067
243	0xbd4fdede	-0.050749652
244	0x3cb82bf8	0.022481903
245	0xbd9a2988	-0.07527453
246	0xbc380cf3	-0.011233556
247	0xbb528999	-0.0032125472
248	0x3cd016ea	0.025401551
249	0xbb5b391e	-0.0033450793
250	0x3d0f2fc3	0.03495766
251	0x3d0a7ab2	0.033808418
252	0xbc141875	-0.009039034
253	0xb984f227	-0.0002535742
254	0x3dac8066	0.084229276
255	0x3b14513b	0.0022631425

fc1.bias f4 [200]
0	0xbe1f4df2	-0.15557078
1	0x3b140a52	0.002258916
2	0x3dbd0a23	0.09230449
3	0x3cf05d88	0.029341474
4	0xbe2cad70	-0.16863036
5	0x3e28715c	0.16449493
6	0x3c821b40	0.015882134
7	0xbd45c5a0	-0.048284173
8	0xbe183f7e	-0.1486797
9	0x3dbd3c15	0.09239975
10	0x3d9b62a9	0.07587177
11	0x3dd7e0d0	0.105409265
12	0x3decc904	0.11561778
13	0x3d49ffd3	0.04931624
14	0xbe0c5a64	-0.13706356
15	0xbdf97f87	-0.12182527
16	0x3e27dec7	0.16393577
17	0x3d8da947	0.06917053
18	0xbe1f8ea3	-0.15581755
19	0xbdf093f9	-0.117469735
20	0x3e122804	0.14273077
21	0xbdab38d8	-0.083604515
22	0x3d78aa3b	0.06070922
23	0xbd2015f2	-0.03908343
24	0x3d8ef0fd	0.069795586
25	0xbd1fb5f8	-0.0389919
26	0x3d495e06	0.049161933
27	0xbdd204c3	-0.102548145
28	0x3df9dc52	0.12200226
29	0xbda2a44d	-0.07941494
30	0xbe2fbae6	-0.1716114
31	0x3d2e21d8	0.042512745
32	0x3d80f5c2	0.062968746
33	0xbdca63af	-0.098822944
34	0xbd5b66c8	-0.053564817
35	0x3e116018	0.14196813
36	0xbd004cf1	-0.031323377
37	0x3dcc957b	0.09989449
38	0x3e23f8ac	0.1601283
39	0x3da7a1cf	0.081851594
40	0x3dd9b05c	0.10629341
41	0xbe023ba4	-0.12718064
42	0xbddb10d8	-0.10696572
43	0xbd095c23	-0.033535134
44	0xbd342a66	-0.043985747
45	0xbc1cfffa	-0.009582514
46	0x3dde74ff	0.10862159
47	0xbe2ce7e7	-0.16885339
48	0x3ddf6cff	0.10909461
49	0x3e211bf9	0.15733327
50	0x3de08fb4	0.10964909
51	0x3dfecfd8	0.12441987
52	0x3e124f90	0.14288163
53	0xbcf304c7	-0.029665364
54	0xbd5fd674	-0.054647878
55	0xbe10f3ef	-0.14155553
56	0x3e00309a	0.1251854
57	0x3d1bb348	0.038012773
58	0x3aa34bfe	0.001245856
59	0xbdc370d0	-0.09543002
60	0x3cc1ede7	0.023673011
61	0xbde1c27f	-0.11023425
62	0xbe2de74f	-0.16982768
63	0xbd78f438	-0.06077978
64	0x3d351d81	0.04421759
65	0xbe1ad080	-0.15118599
66	0x3e1fc2b3	0.15601616
67	0x3d412fda	0.047164775
68	0xbda91ffe	-0.08258055
69	0x3bd3cb92	0.0064634765
70	0xbd708f53	-0.058730435
71	0x3dfa62e8	0.12225896
72	0xbe08167b	-0.13289826
73	0x3e1545ac	0.14577359
74	0xbdbfc377	-0.09363454
75	0x3e1b726c	0.15180367
76	0xbde68a1e	-0.112568125
77	0xbe0bc91a	-0.13650933
78	0xbd925bf1	-0.07146443
79	0xbc63357a	-0.01386773
80	0xbd885428	-0.066566765
81	0xbe21455d	-0.15749116
82	0xbe167aa5	-0.14695223
83	0x3e243008	0.16033947
84	0xbe2836dc	-0.16427177
85	0x3cef25a7	0.029192759
86	0xbe1da135	-0.15393527
87	0x3e226491	0.15858676
88	0xbde4f39b	-0.111792766
89	0x3e22c65e	0.15895984
90	0x3e093ceb	0.13402145
91	0xbe1e67e1	-0.15469314
92	0xbda3c5e8	-0.07996732
93	0xbd906a8d	-0.07051573
94	0x3dc35459	0.095375724
95	0xbd039a56	-0.032129608
96	0x3cb7b643	0.022425776
97	0xbda8288f	-0.08210861
98	0xbd37eefb	-0.044905644
99	0x3dfff5c4	0.12498048
100	0xbe10f62b	-0.14156406
101	0x3c0eee03	0.008723739
102	0x3d97c93c	0.07411429
103	0xbca304b3	-0.019899702
104	0x3d7c1539	0.061543677
105	0xbda682af	-0.08130395
106	0xbdb8a923	-0.09016635
107	0x3dfe8230	0.12427175
108	0x3bbbd0f6	0.005731697
109	0x3daabf62	0.083372846
110	0xbdef90e4	-0.116975576
111	0xbe3148bd	-0.17312904
112	0xbd978cf6	-0.07399933
113	0x3e25574f	0.16146587
114	0x3dffe1aa	0.12494214
115	0x3e169199	0.14703979
116	0xbe2ac17b	-0.1667537
117	0x3de0b97a	0.10972877
118	0xbdd9199c	-0.10600588
119	0x3df08e30	0.1174587
120	0xbd1b197f	-0.03786611
121	0x3e2291b2	0.15875891
122	0xbdd4f0e8	-0.10397512
123	0xbde8888e	-0.11354171
124	0xbd9791a3	-0.07400825
125	0x3ba83ac5	0.005133959
126	0xbcbee063	-0.023300355
127	0x3dfc81fb	0.12329479
128	0x3df9896a	0.12184413
129	0xbd3df954	-0.046380356
130	0x3d63f67e	0.055654995
131	0x3da4ee52	0.080532685
132	0x3d7a41ed	0.061098028
133	0xbc2ccc16	-0.010546705
134	0xbdd034f6	-0.101663515
135	0x3dee3577	0.11631291
136	0x3e26b70e	0.16280767
137	0xbdb75651	-0.089520104
138	0x3e14c9a8	0.14530051
139	0xbc62f990	-0.013853446
140	0x3ce8ac5b	0.028402498
141	0xbd03a7b5	-0.03214236
142	0x3b89d452	0.0042062188
143	0x3cb3dbe3	0.021955436
144	0xbdc36091	-0.09539903
145	0x3d574ece	0.05256539
146	0x3d97c076	0.07409756
147	0x3e05881a	0.130402
148	0x3dd334bf	0.10312795
149	0xbd8a86c1	-0.067639835
150	0xbe322750	-0.17397809
151	0x3cd740fd	0.026276106
152	0xbce7af74	-0.028281905
153	0x3e18f02f	0.14935373
154	0x3e1fd48e	0.15608427
155	0x3e073d57	0.13206993
156	0x3e230c3e	0.15922639
157	0x3d149cb2	0.03628225
158	0x3ca9dcec	0.020735227
159	0xbe069c98	-0.13145673
160	0xbcc7f59b	-0.024409106
161	0x3d4bfd3b	0.049802046
162	0xbe2d6e50	-0.16936612
163	0x3dcc601a	0.099792674
164	0x3db92b0b	0.09041413
165	0xbe10c0a8	-0.14135993
166	0x3d00fa00	0.03148842
167	0x3db709c2	0.08937408
168	0x3e246fb2	0.16058233
169	0x3d49c486	0.049259685
170	0xbd920c3a	-0.07131238
171	0x3debd623	0.11515453
172	0xbe039ecd	-0.12853546
173	0xbda9d81b	-0.08293172
174	0x3d1cc6bf	0.038275477
175	0xbdaca3fa	-0.084297135
176	0x3dd85329	0.105627365
177	0x3d9b753c	0.0759072
178	0xbd8b51ce	-0.068027124
179	0xbe2462ca	-0.1605331
180	0xbe14ebe3	-0.14543109
181	0x3c4de100	0.012565851
182	0x3c68d20c	0.014210235
183	0x3cc8adc6	0.024496924
184	0xbe17be57	-0.14818703
185	0x3d90c99b	0.07069703
186	0xbe0df097	-0.13861309
187	0x3d03f95b	0.032220226
188	0xbd0b46b8	-0.03400299
189	0xbdbddf00	-0.092710495
190	0xbd8cf9bd	-0.06883571
191	0xbd35c4a0	-0.04437697
192	0xbd1d0523	-0.038334977
193	0xbdb3cbfe	-0.08779143
194	0xbe20e7c3	-0.1571341
195	0xbdea65f8	-0.1144523
196	0x3d837d51	0.064203866
197	0x3ddc8ea2	0.107693925
198	0xbe01ffab	-0.12695186
199	0xbddc6097	-0.107606106

bn1.weight f4 [200]
0	0x3ebfb338	0.3744142
1	0x3eb64708	0.35601068
2	0x3ef76623	0.48320112
3	0x3f22e8ca	0.6363646
4	0x3f48dd41	0.78462607
5	0x3eee1b50	0.46505213
6	0x3e7be6c0	0.24599743
7	0x3e6f2bbd	0.23356529
8	0x3f18c25b	0.5967156
9	0x3f1a571c	0.6028917
10	0x3e9c84c2	0.30570036
11	0x3f08ab45	0.53386337
12	0x3f5ee7db	0.87072533
13	0x3f63c8b1	0.88978106
14	0x3efb6df1	0.49107316
15	0x3f4dacc3	0.8034174
16	0x3eee7663	0.46574697
17	0x3e336ada	0.1752123
18	0x3f11b830	0.5692167
19	0x3f0c0a27	0.5470299
20	0x3f067558	0.525228
21	0x3ea35cd2	0.31906754
22	0x3efa4611	0.4888158
23	0x3e36a191	0.1783507
24	0x3f629e88	0.8852315
25	0x3e4a445a	0.19752637
26	0x3e306a65	0.17228086
27	0x3f2bd31a	0.6711899
28	0x3eef00e1	0.46680358
29	0x3ec4d118	0.38440776
30	0x3f3a317b	0.7273175
31	0x3f5ac3c5	0.8545497
32	0x3f65b269	0.8972536
33	0x3ef4ddf6	0.47825593
34	0x3f05646a	0.52106345
35	0x3f48b69a	0.7840363
36	0x3f756ae5	0.95866233
37	0x3ed45199	0.41468504
38	0x3edc37b0	0.43011236
39	0x3eed57eb	0.4635614
40	0x3f106295	0.56400424
41	0x3e852eba	0.26012212
42	0x3f757c44	0.9589274
43	0x3ef27834	0.47357333
44	0x3f25cc80	0.6476517
45	0x3f6264bd	0.88434964
46	0x3f40212d	0.7505062
47	0x3eb38dd9	0.3506916
48	0x3f66d0ba	0.9016224
49	0x3f1dfe79	0.6171642
50	0x3eca65c0	0.39530754
51	0x3f63d39d	0.8899477
52	0x3e371269	0.17878117
53	0x3f3c290d	0.7350014
54	0x3e85b92e	0.26117843
55	0x3f4e5a8b	0.8060691
56	0x3e32c715	0.17458756
57	0x3ea3e8e9	0.32013634
58	0x3f5821db	0.8442666
59	0x3f1a78fb	0.6034085
60	0x3e0e5caa	0.13902536
61	0x3e04b1a3	0.12958388
62	0x3e6e3546	0.2326251
63	0x3f4530ac	0.7702739
64	0x3e2609bb	0.1621465
65	0x3efc5c47	0.49289152
66	0x3e90b3b5	0.28262106
67	0x3f5544e2	0.8330823
68	0x3f3eea74	0.745765
69	0x3eb7e48c	0.35916555
70	0x3ec03dfe	0.37547296
71	0x3e985b09	0.29756954
72	0x3eb3e561	0.3513594
73	0x3eaeb269	0.3412049
74	0x3edfae0e	0.4368748
75	0x3f50eadc	0.81608367
76	0x3e50d0dd	0.20392175
77	0x3f364cba	0.71210825
78	0x3a1491ff	0.0005667507
79	0x3eb60046	0.35547084
80	0x3e8d492f	0.27594897
81	0x3f3db10a	0.74098265
82	0x3f279775	0.6546548
83	0x3eb3810b	0.3505939
84	0x3e2b85dc	0.16750282
85	0x3e781f9d	0.2423081
86	0x3e02778b	0.12740915
87	0x3f01e697	0.5074248
88	0x3f535f06	0.8256687
89	0x3eeb7d18	0.45993876
90	0x3f31e379	0.6948772
91	0x3eb0b052	0.34509522
92	0x3f1c2fcf	0.6101045
93	0x3e814083	0.2524453
94	0x3ecd1da6	0.40061682
95	0x3f548fd5	0.8303197
96	0x3f6565d5	0.8960851
97	0x3f28ad76	0.6588968
98	0x3eed74ec	0.46378267
99	0x3f0579c6	0.52138937
100	0x3e5fd342	0.21857932
101	0x3ee8e915	0.45490327
102	0x3ebeeeeb	0.37291655
103	0x3f33c322	0.70219624
104	0x3e2821bc	0.16419119
105	0x3f1c9fc6	0.61181295
106	0x3f162b05	0.5865939
107	0x3dcebd75	0.1009473
108	0x3eb2e5c7	0.3494093
109	0x3f4ba2a1	0.79545027
110	0x3ef20043	0.47265825
111	0x3f3ad740	0.72984695
112	0x3f5b66c2	0.8570367
113	0x3e6d20ee	0.23157093
114	0x3f1df4a0	0.61701393
115	0x3f4548ec	0.77064395
116	0x3e9e2a70	0.30891752
117	0x3e75fc56	0.2402204
118	0x3f378bc4	0.7169764
119	0x3ecb7e0a	0.39744598
120	0x3ef51ee3	0.47875127
121	0x3ec2d75f	0.3805494
122	0x3e24d583	0.16097073
123	0x3f150a2e	0.5821866
124	0x3f18946c	0.59601474
125	0x3f49da6e	0.7884892
126	0x3ebfcd46	0.374613
127	0x3f61c2ed	0.8818806
128	0x3e3a7eb5	0.18212397
129	0x3f3016ed	0.6878498
130	0x3f705cac	0.93891406
131	0x3f2a0980	0.66420746
132	0x3f10bb6c	0.56535983
133	0x3eca2cbe	0.3948726
134	0x3f093017	0.53589004
135	0x3f702bd7	0.93816894
136	0x3ec8fb40	0.3925419
137	0x3f4daac3	0.80338687
138	0x3e5584bf	0.2085142
139	0x3f2048e2	0.6261121
140	0x3e9c00ec	0.30469453
141	0x3e3a60dd	0.18201013
142	0x3f611a71	0.8793097
143	0x3ece05a4	0.40238678
144	0x3ee24db9	0.44199923
145	0x3efdb562	0.49552447
146	0x3f54da8f	0.83145994
147	0x3e88a705	0.26689926
148	0x3eab610a	0.33472472
149	0x3f02c9b8	0.5108905
150	0x3f08a5de	0.53378093
151	0x3e737f4e	0.23779032
152	0x3f302da8	0.68819666
153	0x3e1537f9	0.14572133
154	0x3f6d88c6	0.92786825
155	0x3f4ca1bd	0.79934293
156	0x3f122ca0	0.5709934
157	0x3f4ef405	0.80841094
158	0x3df21445	0.11820272
159	0x3f407ef4	0.75193715
160	0x3e333b9f	0.17503212
161	0x3f5e74bd	0.8689688
162	0x3eab7243	0.33485612
163	0x3f44f0e3	0.76930064
164	0x3f08bdb0	0.5341444
165	0x3e9ffa23	0.31245527
166	0x3ec0ed8b	0.3768123
167	0x3f6f4243	0.9346048
168	0x3e9aa319	0.3020256
169	0x3f2ddcee	0.67915237
170	0x3f5c5c40	0.8607826
171	0x3ecf50a5	0.40491214
172	0x3eeff6c5	0.46867958
173	0x3f1c9689	0.611672
174	0x3f3f531e	0.747362
175	0x3f19ce57	0.60080475
176	0x3f08d63b	0.5345189
177	0x3e0e4837	0.13894735
178	0x3e3e14ba	0.18562594
179	0x3ecc9bb9	0.39962557
180	0x3e6e0682	0.2324467
181	0x3ec6a741	0.3879948
182	0x3f4db411	0.80352885
183	0x3eac4358	0.3364513
184	0x3f4a17cb	0.78942555
185	0x3e283415	0.16426118
186	0x3f54a51d	0.8306444
187	0x3e9bbc78	0.30417228
188	0x3f6fc6df	0.9366283
189	0x3e591b22	0.21201757
190	0x3e39032d	0.18067618
191	0x3f670aef	0.9025106
192	0x3f38d681	0.72202307
193	0x3e00e5a5	0.12587602
194	0x3e297184	0.16547209
195	0x3f7170ff	0.94313043
196	0x3f2b296c	0.6686008
197	0x3e3a9a04	0.18222815
198	0x3ecb32a0	0.3968706
199	0x3ede942d	0.43472424

bn1.bias f4 [200]
0	0xbd50bfce	-0.05096417
1	0xbda310bd	-0.07962177
2	0xbd6b8ab2	-0.057505317
3	0xbdf44406	-0.11927037
4	0xbc7be932	-0.015375422
5	0xbddd2a3c	-0.10799071
6	0xbcb16c3c	-0.021658055
7	0x3ae14134	0.001718557
8	0xbcfc2e85	-0.030783901
9	0xbd8b2bb9	-0.06795449
10	0xbcbc4b59	-0.022985147
11	0xbd39d58a	-0.045369662
12	0xbdb25696	-0.08707921
13	0xbdf533b5	-0.11972753
14	0xbccaedb9	-0.024771558
15	0xbcdab429	-0.026697235
16	0xbdb1d3dc	-0.08682987
17	0x3d358605	0.044317264
18	0xbd0ecc06	-0.03486254
19	0x3c3d8c3e	0.011569081
20	0xbd1fdd53	-0.03902943
21	0x3c45cce0	0.012072772
22	0xbd053d8b	-0.032529395
23	0x3ca41208	0.02002813
24	0xbdb6c135	-0.0892357
25	0xbcfb9426	-0.030710291
26	0x3c9aca9a	0.018895436
27	0xbdbd786c	-0.09251484
28	0xbd8635c1	-0.065532215
29	0xbd302236	-0.043001376
30	0xbdcf3699	-0.101178356
31	0xbd95c426	-0.07312803
32	0xbd65cf77	-0.056106057
33	0x3c323420	0.010876685
34	0xbd180d10	-0.037121832
35	0xbcf53dc1	-0.029936673
36	0xbdf53edd	-0.11974881
37	0xbca91039	-0.020637618
38	0xbcb6148f	-0.0222266
39	0x3ccf25c3	0.02528656
40	0x3c95397c	0.018215887
41	0xbbcd9225	-0.0062735253
42	0xbd5c73be	-0.053821318
43	0x3cf2b134	0.029625513
44	0xbd0ba9e7	-0.03409758
45	0xbda409c3	-0.080096744
46	0xbd89fe83	-0.067379974
47	0x3bc26d50	0.005933441
48	0xbd94cd97	-0.07265776
49	0xbbaa9b62	-0.0052065114
50	0xbcffe992	-0.031239305
51	0xbd9c2add	-0.07625363
52	0x3d57742a	0.052601017
53	0xbd5da071	-0.054108087
54	0xbce29df7	-0.027663214
55	0xbdcbfe96	-0.09960668
56	0x3ceb73f9	0.028741824
57	0xbdaef7f5	-0.08543388
58	0xbde539fd	-0.11192701
59	0xbd217f38	-0.039427966
60	0xbbc7508a	-0.006082599
61	0x38f414b0	0.0001163868
62	0xbc8188c4	-0.015812285
63	0xbdd692a5	-0.10477189
64	0xbab9164f	-0.0014121028
65	0xbcc1730b	-0.023614427
66	0xbd1457d9	-0.03621659
67	0xbd638169	-0.055543337
68	0xbcc90e77	-0.02454303
69	0xbcfe833e	-0.03106844
70	0xbce3817b	-0.027771702
71	0xbd94d630	-0.072674155
72	0x3c803eab	0.015654882
73	0xbc9872ac	-0.018609367
74	0xbafc3af2	-0.0019243641
75	0xbd120223	-0.03564657
76	0xbbbe0713	-0.005799183
77	0x3bea6416	0.0071530445
78	0xbb810a54	-0.003937999
79	0xbcc81793	-0.024425304
80	0xbd416f52	-0.047225304
81	0xbe0667b3	-0.13125496
82	0xbd901669	-0.070355244
83	0xbcd925b1	-0.02650723
84	0x3ca50f48	0.020148888
85	0xbd0f20ff	-0.034943577
86	0xbc6f1681	-0.014592768
87	0xbdf234a3	-0.11826446
88	0xbd924712	-0.07142462
89	0xbcbed17b	-0.023293247
90	0xbdfa6e49	-0.122280665
91	0x3d4eaa74	0.050455526
92	0xbd7cc32c	-0.061709568
93	0xbd937b51	-0.07201255
94	0xbd200354	-0.039065674
95	0xbbae97c6	-0.0053281514
96	0xbb33ec34	-0.002745402
97	0xbda288b2	-0.07936229
98	0xbdc0f2ae	-0.094212875
99	0xbd7b561d	-0.06136142
100	0xbcd1b866	-0.025600623
101	0x3d7122f2	0.058871217
102	0xbd249d28	-0.04018894
103	0xbd4fcbcc	-0.050731465
104	0xbcc9fa90	-0.02465561
105	0xbd0a1700	-0.03371334
106	0xbd674f9b	-0.056472402
107	0x3c34e7cf	0.011041596
108	0xbd474c44	-0.048656717
109	0xbd80c352	-0.062872544
110	0x3b0a67af	0.002111893
111	0xbd69f789	-0.057120834
112	0xbdb279f9	-0.08714671
113	0xbcac804d	-0.021057272
114	0xbbad707a	-0.0052929493
115	0xbd238dc3	-0.039930116
116	0xbd98397d	-0.0743284
117	0xbc8cabcc	-0.017171763
118	0xbd99f4d1	-0.07517398
119	0xbd25a174	-0.040437177
120	0xbd4e0832	-0.050300784
121	0x3bff11cd	0.0077841044
122	0x3c34cc32	0.011035012
123	0xbd8a8286	-0.067631766
124	0xbdc8480c	-0.09779367
125	0xbce7b027	-0.028282238
126	0xbd01b89f	-0.03167021
127	0xbe3b7d90	-0.18309617
128	0xbd461233	-0.0483572
129	0xbdaa544d	-0.0831686
130	0xbdbbc031	-0.09167517
131	0xbd1fc0ab	-0.039002102
132	0xbd42abaa	-0.047526993
133	0xbda07772	-0.078352824
134	0xbbee7dee	-0.0072781956
135	0xbc8ff32c	-0.017572008
136	0xbdbd5e76	-0.092465326
137	0xbe4ef192	-0.2020934
138	0x3d11f487	0.03563359
139	0xbc176696	-0.009240767
140	0xbaa93a7b	-0.0012911105
141	0xbc1b5d1b	-0.009482647
142	0xbceb6bc1	-0.028737905
143	0xbd5593cb	-0.0521429
144	0xbc4bcb23	-0.012438568
145	0xbc8c8fb4	-0.017158367
146	0xbe0a6e5c	-0.13518661
147	0x3d9ce902	0.0766163
148	0xbd5e4ba3	-0.05427135
149	0x3a9fec66	0.001220119
150	0xbd8df63b	-0.0693173
151	0x3ab16fd7	0.0013537359
152	0xbdb13d45	-0.08654264
153	0xbcc582f6	-0.024110299
154	0xbe0c64e9	-0.13710369
155	0xbdd139f0	-0.10216129
156	0xbcfb335c	-0.030664138
157	0xbdefb365	-0.11704139
158	0x3b83ab86	0.00401825
159	0xbda69ca9	-0.08135349
160	0xbd2c0fd8	-0.042007297
161	0xbda79877	-0.08183377
162	0x3c75cd8c	0.0150026195
163	0xbdc609c4	-0.096698314
164	0xbca4cd0d	-0.020117307
165	0xbd579edc	-0.052641734
166	0x3c9c8a54	0.019108929
167	0xbe039848	-0.1285106
168	0xbd236ed6	-0.039900623
169	0xbce0a845	-0.027423987
170	0xbe14411e	-0.14477965
171	0xbdb028ab	-0.08601507
172	0xbd9876cf	-0.07444536
173	0xbd1b01f9	-0.03784368
174	0xbd57fdcd	-0.052732278
175	0xbcead231	-0.02866468
176	0xbd572092	-0.052521296
177	0x3d596dcf	0.053083237
178	0xbd0feb8a	-0.035136737
179	0x3becf2c5	0.007231089
180	0xbd0e2666	-0.03470459
181	0x3c300c42	0.01074511
182	0xbd4f9239	-0.05067656
183	0xbbfa61ea	-0.007641067
184	0xbd0277d6	-0.031852566
185	0x3d294161	0.041322116
186	0xbd0d9e19	-0.0345746
187	0xbd7bb12a	-0.061448254
188	0x3ca0a0a7	0.019607855
189	0x3c9cc9e7	0.019139243
190	0xbc395860	-0.011312574
191	0xbdc20d65	-0.09475211
192	0xbce3ff3f	-0.027831672
193	0x3d07aae2	0.03312195
194	0xbb90b6d2	-0.004416325
195	0xbd966d6f	-0.073450916
196	0xbdfe8689	-0.12428004
197	0x3ca7440e	0.020418193
198	0x3cccaea4	0.024985619
199	0xbbfef2df	-0.0077804173

bn1.running_mean f4 [200]
0	0xbed87b8f	-0.42281768
1	0xbf1792c2	-0.5920831
2	0x3e27912e	0.16363975
3	0xbe00d914	-0.12582809
4	0xbe1cb0a2	-0.15301755
5	0xbc805986	-0.015667688
6	0xbeccf8e5	-0.4003364
7	0x3db2d1ed	0.087314464
8	0xbe76386e	-0.24044964
9	0x3e3ff4e0	0.18745756
10	0xbd1550ad	-0.03645389
11	0x3e481dee	0.19542667
12	0x3da4bea7	0.080441765
13	0xbdfc305f	-0.123139136
14	0xbdfb2d07	-0.12264448
15	0xbed3dfc7	-0.41381666
16	0xbea26eda	-0.31725198
17	0x3cda37b1	0.026637884
18	0xbecee632	-0.4041
19	0xbe42f8c4	-0.19040209
20	0xbdb298f4	-0.0872058
21	0x3d89ce0b	0.06728753
22	0xbbf181ff	-0.007370233
23	0x3d785bec	0.06063454
24	0xbe67944e	-0.22615167
25	0x3dbc0082	0.09179784
26	0x3e44346d	0.19160624
27	0xbeed00bc	-0.46289623
28	0x3dd9862f	0.106212966
29	0xbe61a848	-0.2203685
30	0xbd882b04	-0.066488296
31	0xbd95f7b7	-0.073226385
32	0x3e4ec01e	0.20190474
33	0xbda893ad	-0.08231292
34	0xbe532ca9	-0.20622505
35	0xbdc8407e	-0.09777926
36	0xbb944dac	-0.004525861
37	0xbde24e6c	-0.11050114
38	0x3eca96b4	0.39568102
39	0x3f024155	0.5088094
40	0x3e39da93	0.18149786
41	0xbd81e67b	-0.06342789
42	0xbdcd739e	-0.10031818
43	0xbe5a1021	-0.21295215
44	0xbe9a431a	-0.3012932
45	0xbe5fe7b2	-0.21865728
46	0xbd62aa30	-0.055338085
47	0xbe139233	-0.1441124
48	0x3e756458	0.2396406
49	0x3dc10227	0.09424239
50	0xbd5ef745	-0.054435033
51	0xbe183ed9	-0.14867724
52	0x3eaed65e	0.34147924
53	0xbdf5ddcf	-0.12005197
54	0xbe86d905	-0.26337448
55	0xbeaec455	-0.34134164
56	0xbe1f250d	-0.15541478
57	0x3e77059e	0.24123237
58	0xbde9b0fe	-0.11410712
59	0xbdc2de05	-0.09515003
60	0x3ea03c13	0.31295833
61	0xbccf4deb	-0.025305709
62	0xbe73b11f	-0.23798035
63	0xbebb9e20	-0.36644077
64	0x3eddd265	0.4332458
65	0x3d6b19dc	0.05739771
66	0x3ecfa4a4	0.40555298
67	0x3d85769f	0.06516766
68	0xbe057720	-0.13033724
69	0xbf088d54	-0.5334065
70	0xbef0bd0f	-0.4701924
71	0xbcb06662	-0.021533195
72	0xbcd5a4c0	-0.026079535
73	0x3d8e9e45	0.06963781
74	0xbd93a41e	-0.07209037
75	0x3d9db415	0.077003635
76	0x3cd0f02f	0.025505153
77	0xbe033f90	-0.12817216
78	0xbe8fc26a	-0.28078014
79	0x3da3f092	0.080048695
80	0xbefc6c72	-0.49301487
81	0xbe2f12bc	-0.1709699
82	0xbe78d2a5	-0.24299105
83	0x3e9c5304	0.30532086
84	0x3d4e495a	0.050362922
85	0x3e33c685	0.17556198
86	0xbe1cd93a	-0.1531724
87	0x3efc49fc	0.49275196
88	0xbea1092a	-0.31452304
89	0x3dfeb286	0.124363944
90	0xbe72f4f0	-0.23726249
91	0xbe1942fe	-0.14966962
92	0xbdd5d34d	-0.10440693
93	0x3dfcf47e	0.12351321
94	0x3dbccf12	0.09219183
95	0xbd88eada	-0.066854194
96	0x3e737f77	0.23779093
97	0xbe4a9156	-0.19782004
98	0xbe5fd47a	-0.21858397
99	0x3cb3622c	0.021897398
100	0xbed0d6b2	-0.407888
101	0x3df9fce1	0.12206436
102	0xbe7da5e8	-0.2477032
103	0xbebbbfb0	-0.36669683
104	0x3e1a7a2e	0.1508567
105	0xbdb7adbf	-0.08968686
106	0xbd7ff326	-0.062487744
107	0x3e94aacd	0.2903656
108	0x3d1e0016	0.0385743
109	0xbde5766a	-0.11204226
110	0xbd6027eb	-0.05472557
111	0x3da56617	0.08076113
112	0xbd90e19f	-0.07074284
113	0x3e2e8e2b	0.1704642
114	0x3e6d4af6	0.23173127
115	0x3f306a96	0.6891264
116	0xbea5c55d	-0.3237714
117	0x3eb84f57	0.35998031
118	0xbdecdfbc	-0.115661114
119	0x3cbe436a	0.023225505
120	0x3b86700f	0.004102714
121	0x3d78294a	0.06058625
122	0xbeb8eaf9	-0.3611677
123	0xbea1b1f7	-0.3158109
124	0x3d5635d9	0.052297447
125	0xbd15df99	-0.036590192
126	0xbe83922e	-0.25697464
127	0xbea9220b	-0.33033785
128	0x3e7954e8	0.24348795
129	0xbd2760f8	-0.04086396
130	0x3e875b73	0.26436958
131	0xbb8b6c8e	-0.004254884
132	0x3dc058fb	0.09391972
133	0xbd8582b6	-0.06519072
134	0x3d8c313b	0.068453275
135	0x3d565116	0.052323423
136	0xbda8433d	-0.0821595
137	0xbe23dcb4	-0.1600216
138	0x3dfa02e1	0.1220758
139	0xbd8efb1f	-0.06981491
140	0xbdf4d103	-0.11953928
141	0x3cf47af8	0.029843792
142	0xbdc4ff13	-0.09618964
143	0xbbec850e	-0.00721801
144	0x3e13d8b8	0.1443814
145	0x3e95f198	0.29285884
146	0xbe8650b4	-0.26233447
147	0x3e8e1ee2	0.27757937
148	0xbdeef4a4	-0.11667755
149	0x3e0efb1c	0.13962978
150	0xbe137b1f	-0.14402436
151	0xbeb91eab	-0.3615621
152	0xbe1f288f	-0.15542816
153	0x3e8745fe	0.26420587
154	0xbd04f50a	-0.03246025
155	0x3e9ff0bd	0.31238356
156	0xbeafe395	-0.3435332
157	0x3f00b8bc	0.5028188
158	0x3eb6844b	0.35647807
159	0xbea8b6c2	-0.32951933
160	0x3cf7e5b2	0.030260894
161	0xbf29ff2b	-0.6640498
162	0xbd470eb3	-0.048598003
163	0xbcd07d4a	-0.025450367
164	0x3e5a17ef	0.21298192
165	0xbedbc3ba	-0.42922765
166	0x3d8c8d17	0.06862848
167	0xbd56603e	-0.052337877
168	0x3d9a7478	0.07541746
169	0x3d8cda6e	0.068776
170	0xbe6ee073	-0.23327808
171	0x3ec785e0	0.38969326
172	0xbe305b47	-0.1722232
173	0xbe49e109	-0.1971475
174	0xbecb3a98	-0.3969314
175	0x3e2ed90c	0.17074984
176	0x3ec31890	0.38104677
177	0x3e9a4d0e	0.30136913
178	0xbedf5f20	-0.43627262
179	0xbe0776b6	-0.13228878
180	0xbe86ac19	-0.26303175
181	0xbd8c430e	-0.06848727
182	0xbe485dcc	-0.1956703
183	0x3d40071c	0.04688178
184	0xbeaa4b64	-0.33260643
185	0x3e8d98a8	0.2765553
186	0xbe87ecd4	-0.26547873
187	0xbec1b873	-0.37836036
188	0xbe205e97	-0.15661083
189	0xbd76d1ba	-0.060258605
190	0x3d89ca60	0.06728053
191	0xbe989cda	-0.29807168
192	0xbdcd99a8	-0.10039073
193	0x3e828e88	0.25499368
194	0xbeb448b4	-0.35211718
195	0x3d2c09d3	0.042001557
196	0xbe14032b	-0.14454333
197	0x3e1cc3bf	0.15309046
198	0xbdddb658	-0.10825795
199	0xbd4c861c	-0.049932584

bn1.running_var f4 [200]
0	0x3f5149d1	0.8175326
1	0x3f72af7a	0.94799006
2	0x3f713534	0.94221807
3	0x3e9478a7	0.289983
4	0x3fbd950f	1.4811114
5	0x3e8cb33b	0.27480492
6	0x3f4085f4	0.75204396
7	0x3f810772	1.0080397
8	0x3f058d59	0.52168804
9	0x3edcf6dd	0.43157092
10	0x3f0d0792	0.55089676
11	0x3f264eab	0.6496379
12	0x3ed23758	0.4105785
13	0x3e862ddb	0.2620686
14	0x3e9e52fc	0.30922687
15	0x3e799e51	0.24376799
16	0x3ecc830e	0.39943737
17	0x3ec5c534	0.38627017
18	0x3e8eb603	0.2787324
19	0x3ee71543	0.4513341
20	0x3f6f9e03	0.9360048
21	0x3e15141d	0.14558454
22	0x3f1d0962	0.6134244
23	0x3eecb56c	0.46232164
24	0x3f5a4356	0.85258996
25	0x3ea27021	0.31726173
26	0x3f0826be	0.53184116
27	0x3eb7d65f	0.3590574
28	0x3f1265a7	0.5718636
29	0x3ee01f18	0.43773723
30	0x3e99ce29	0.300401
31	0x3f09376a	0.5360018
32	0x3f5ecaf9	0.8702846
33	0x3f51ca62	0.81949437
34	0x3f2e687a	0.6812817
35	0x400705fa	2.1097398
36	0x3f4cc123	0.79982203
37	0x3f14a517	0.5806441
38	0x3e902a68	0.28157353
39	0x3fa85f1a	1.3154023
40	0x3f812058	1.0087996
41	0x3ecbc3c8	0.39797807
42	0x3e8b883c	0.27252376
43	0x3f49b608	0.7879338
44	0x3ef5bee5	0.47997203
45	0x3f54292f	0.8287534
46	0x3ea82bdb	0.3284596
47	0x3f5c39d5	0.86025745
48	0x3ebd3d46	0.3696081
49	0x3e9c0cb9	0.30478457
50	0x3ec9093e	0.39264864
51	0x3f57409d	0.8408297
52	0x3f4127b5	0.75451213
53	0x3f8f7477	1.1207417
54	0x3ea976e1	0.3309851
55	0x404aa01d	3.1660225
56	0x3f264965	0.6495574
57	0x3f36639e	0.71245754
58	0x3ea3a0ad	0.31958523
59	0x3f217b3b	0.6307866
60	0x3e36466a	0.17800298
61	0x3f07378c	0.5281913
62	0x3ecf9201	0.4054108
63	0x3e734e58	0.23760355
64	0x3f2c5a11	0.6732493
65	0x3efc260a	0.49247772
66	0x3e93c484	0.28860867
67	0x3f633e1d	0.8876665
68	0x3f785bb9	0.9701496
69	0x3f4d1e2f	0.8012418
70	0x3e1dd5f2	0.15413645
71	0x3f1fe7d7	0.62463135
72	0x3f249afe	0.64299
73	0x3ea2df5a	0.3181103
74	0x3f9d2e22	1.2279704
75	0x3f36f32e	0.7146481
76	0x3f17168d	0.59018785
77	0x3e94b284	0.29042447
78	0x3fb780d9	1.4336196
79	0x3e6c5ba0	0.23081827
80	0x3f5b35ce	0.85628974
81	0x3e70dd7e	0.23521993
82	0x3eea9ea8	0.4582417
83	0x3eaf4fd1	0.34240583
84	0x3ee886e1	0.45415404
85	0x3eb7c448	0.35891938
86	0x3e0dce8b	0.13848321
87	0x3ec66338	0.38747573
88	0x3f13904c	0.57642055
89	0x3e09470c	0.13406008
90	0x3f48fa72	0.7850715
91	0x3f8b82b3	1.0899261
92	0x3f74b97b	0.9559552
93	0x3eabe2a4	0.3357135
94	0x3dce2cf2	0.100671664
95	0x3ed241fb	0.41065964
96	0x3fa0200d	1.2509781
97	0x3ed36893	0.4129072
98	0x3edb9402	0.42886358
99	0x3e086c6e	0.13322613
100	0x3e724746	0.23660001
101	0x3e250a4f	0.16117214
102	0x3e83f8c3	0.25775728
103	0x3f692fdf	0.9108867
104	0x3f58e7b9	0.8472858
105	0x3f03bb54	0.51457715
106	0x3ebe0511	0.3711324
107	0x3fcbb297	1.5913876
108	0x3e6057e9	0.21908535
109	0x3e3595a3	0.17732863
110	0x3f0459bf	0.5169944
111	0x3f015b6e	0.50530136
112	0x3ebadb38	0.36495376
113	0x3e60ea0b	0.2196428
114	0x3f9b534c	1.2134795
115	0x3f36200f	0.7114267
116	0x401a3965	2.409753
117	0x3f40b95f	0.75282854
118	0x3eecf8ef	0.4628367
119	0x3ec7067b	0.38872132
120	0x3ed4047b	0.41409668
121	0x3f83649b	1.0265077
122	0x3f203676	0.625831
123	0x3f5cb8db	0.8621957
124	0x402cf05d	2.7021706
125	0x3ea194e1	0.31558898
126	0x3edd0638	0.43168807
127	0x3edac72a	0.42730075
128	0x3f0006e0	0.5001049
129	0x3ef718d2	0.48261124
130	0x3ed197b8	0.40936065
131	0x3f9f40aa	1.2441609
132	0x3f4e3934	0.80556035
133	0x3f43ef36	0.7653688
134	0x3ee6bf89	0.45068005
135	0x3fc9354f	1.5719393
136	0x3e4673b2	0.19380072
137	0x3eabd7fe	0.33563226
138	0x3f2fe77d	0.687126
139	0x3f17c918	0.5929122
140	0x3e7ee906	0.24893579
141	0x3f342553	0.7036945
142	0x3f8d6b4c	1.104837
143	0x3edc3958	0.430125
144	0x3f423729	0.7586542
145	0x3f1f4c68	0.6222596
146	0x3ec6717f	0.38758466
147	0x3f5b2e77	0.85617775
148	0x3f327596	0.6971067
149	0x3f784e77	0.9699473
150	0x3ee9464a	0.4556144
151	0x3e9a885d	0.30182162
152	0x3ec9c56a	0.39408427
153	0x3ed3f4db	0.41397747
154	0x3eda842a	0.42678958
155	0x3f89afa9	1.0756732
156	0x3fb7abaa	1.4349263
157	0x3efb5a79	0.49092463
158	0x3f144834	0.57922673
159	0x3eab0eee	0.33409828
160	0x3e16cfd4	0.14727718
161	0x3f595fb5	0.8491166
162	0x3efcac4c	0.49350202
163	0x3efb38a4	0.4906665
164	0x3f89f06e	1.0776498
165	0x3f7e89fd	0.99429303
166	0x3ed87814	0.42279112
167	0x3f60f616	0.878755
168	0x3e7d4a1d	0.24735303
169	0x3e980fd9	0.2969959
170	0x3e9612ae	0.29311126
171	0x3f08ffe8	0.5351548
172	0x3f3bdef9	0.73387104
173	0x3eab125d	0.33412448
174	0x3ef065fa	0.46952802
175	0x3efa225b	0.48854336
176	0x3f1aea1e	0.60513484
177	0x3fa7bab2	1.310385
178	0x3ea3133d	0.31850615
179	0x3f379057	0.7170462
180	0x3ebe8b40	0.37215614
181	0x3f8649f4	1.0491319
182	0x3e8b1a58	0.27168536
183	0x3e516d48	0.20451844
184	0x3f518477	0.8184275
185	0x3f53a60d	0.8267525
186	0x3ea5bd83	0.32371148
187	0x3f1f1dd5	0.62154895
188	0x3e9f1b12	0.3107534
189	0x3ebc684e	0.36798328
190	0x3eb990fc	0.36243427
191	0x3f6cf952	0.9256793
192	0x3fb98c5c	1.4495959
193	0x3f85ceb2	1.0453703
194	0x3f1dd072	0.6164619
195	0x3f1ae2be	0.6050223
196	0x3eb356ee	0.3502726
197	0x3eb87f8a	0.36034805
198	0x3dca6880	0.09883213
199	0x3e70b528	0.23506606

fc2.weight f4 [150, 200]
0	0xbc68714d	-0.014187169
1	0x3bda532c	0.006662747
2	0x3d550687	0.052008178
3	0x3d2cc482	0.042179592
4	0x3c8bac7e	0.017050024
5	0x3d75469f	0.059881803
6	0xbba60cd3	-0.0050674467
7	0xbc6dd493	-0.014516014
8	0x3c90a724	0.017657824
9	0xbdf6ccc0	-0.12050772
10	0x3cbe2c86	0.02321459
11	0xbc65bade	-0.014021603
12	0x3d96bbc7	0.073600344
13	0xbc3e544b	-0.011616777
14	0xbd3c0643	-0.04590441
15	0xbc48b7c1	-0.012250842
16	0x3d28f657	0.041250553
17	0xbc471047	-0.012149877
18	0xbd4f2ee4	-0.050581828
19	0xbd8269c3	-0.06367829
20	0x3c728a02	0.014803411
21	0xbd79fa05	-0.061029453
22	0xbcd58559	-0.026064562
23	0xbcd0b19b	-0.025475314
24	0xb9275719	-0.00015958807
25	0xbcdebe5e	-0.027190384
26	0xbcf84100	-0.030304432
27	0x3d8b22a0	0.067937136
28	0xbd5640ec	-0.052308008
29	0x3de106d0	0.109876275
30	0x3dc2715f	0.0949428
31	0x3cd3106d	0.025764668
32	0xbd3d223a	-0.04617522
33	0x3cfa21f9	0.030533778
34	0x3c9918ac	0.018688522
35	0xbcddf5e1	-0.027094783
36	0x3c64dfa3	0.013969335
37	0x3dae5450	0.08512175
38	0xbd5ef59b	-0.054433446
39	0x3bfc3d80	0.007697761
40	0xbcd9fde9	-0.026610332
41	0xbd9ae9e8	-0.07564145
42	0xbd2a8edc	-0.041640148
43	0xbc101f2d	-0.008796495
44	0xbb821504	-0.0039697904
45	0x3cfaccec	0.030615292
46	0xbc00d43f	-0.007863103
47	0x3d0019ac	0.031274483
48	0x3cc95d35	0.024580577
49	0x3d0d8e1e	0.03455936
50	0xbcf6023d	-0.030030364
51	0xbc8d612e	-0.017258253
52	0xb91a939a	-0.0001474157
53	0x3c1286de	0.008943288
54	0xbcf6ac9d	-0.030111605
55	0x3cf7e366	0.0302598
56	0xbda93a40	-0.082630634
57	0xbb9ddffb	-0.0048179603
58	0x3c6aa301	0.01432109
59	0x3d31535b	0.043292385
60	0xbd3b05a0	-0.04565966
61	0x3d16ffa6	0.0368649
62	0xbc627643	-0.013822141
63	0x3d587842	0.05284906
64	0xbd22e28d	-0.039766837
65	0x3c9d5fd3	0.019210732
66	0xbc48b4a8	-0.012250103
67	0x3b9fa7e1	0.0048723076
68	0x3d6ee27c	0.05832146
69	0x3c504ecb	0.012714098
70	0xbddc5c80	-0.107598305
71	0xbdb33475	-0.0875024
72	0xbd092ffd	-0.03349303
73	0x3cb2715f	0.021782575
74	0xbd95a298	-0.07306403
75	0x3cdbeaff	0.026845453
76	0x3d7a175a	0.061057426
77	0xbe0404c4	-0.12892443
78	0x3da3f115	0.08004967
79	0x3bf9eef3	0.007627362
80	0x3d03843f	0.03210854
81	0xbc928b64	-0.017888732
82	0xbc454e83	-0.012042644
83	0x3c867ee7	0.016417934
84	0x3d83abf6	0.06429283
85	0x3d82df5d	0.063902594
86	0x3ddfe83c	0.10932967
87	0x3e01cc43	0.12675576
88	0x3d225b37	0.03963777
89	0xbd4c68e6	-0.049904726
90	0xbcd82721	-0.026385846
91	0xb85d172b	-5.2712083e-05
92	0x3d90c450	0.07068694
93	0x3d274ea8	0.040846497
94	0xbc5c643e	-0.013451634
95	0x3db0d952	0.086352006
96	0x3d80d5c5	0.06290773
97	0xbdb4169b	-0.08793374
98	0xbd925557	-0.071451835
99	0x3d2a01d9	0.04150567
100	0x3d5b73df	0.0535773
101	0xbddee2a5	-0.10883073
102	0x3ddc74aa	0.107644394
103	0xbc8072b1	-0.01567969
104	0x3d8ad101	0.067781456
105	0x3ca686c6	0.020327937
106	0xbda0c324	-0.0784972
107	0x3d162f43	0.036666166
108	0x3d8501c5	0.06494478
109	0xbcaffa1a	-0.021481562
110	0x3d8c1365	0.06839637
111	0xbd06911c	-0.03285323
112	0x3ca4304a	0.020042557
113	0xbbfe25d5	-0.007755975
114	0xbd0e5a94	-0.03475435
115	0x3d1590e8	0.036515146
116	0x3c9716b5	0.018443445
117	0x3d9463bf	0.072455876
118	0xbd3168b2	-0.043312736
119	0xb93cde0f	-0.000180118
120	0x3d5e2ae9	0.05424014
121	0x3d87b8f4	0.06627074
122	0xbd8ce661	-0.06879879
123	0xbccb2a19	-0.024800347
124	0xbc41108f	-0.011783733
125	0xbce487b1	-0.027896734
126	0x3c3a4dae	0.011371059
127	0xbd1b3806	-0.037895225
128	0x3d96a4e6	0.07355671
129	0xbcdc3492	-0.026880536
130	0xbda754bd	-0.081704594
131	0xbd7d2401	-0.061801914
132	0xbd16e5bf	-0.036840197
133	0x3d2c164a	0.042013444
134	0x3d7ca229	0.061678085
135	0x3aaf5559	0.0013376876
136	0xbd04f32c	-0.03245847
137	0xba979c6f	-0.0011567007
138	0x3cca86cd	0.024722481
139	0x3d8a72d9	0.06760187
140	0xbbd91447	-0.0066247317
141	0x3dbc3289	0.09189326
142	0x3d3820f8	0.044953316
143	0x3b67d131	0.003537249
144	0xbc081923	-0.008306774
145	0xbdd968c1	-0.10615683
146	0x3cec0567	0.02881117
147	0xbd05ef9d	-0.032699216
148	0xbd4ae95c	-0.049538955
149	0xbd3787e1	-0.04480732
150	0xbd2f2d17	-0.04276761
151	0xbdc1de2c	-0.09466204
152	0xbd440d8c	-0.04786448
153	0xbdb6dadc	-0.08928463
154	0x3b9d814d	0.0048066736
155	0xba861db8	-0.0010232246
156	0x3d143ecf	0.03619271
157	0xbaf896a7	-0.0018965796
158	0x3d8758af	0.06608712
159	0x3d6e9852	0.058250733
160	0x3d13f7e3	0.036125075
161	0x3bce77cf	0.0063009034
162	0xbd44554f	-0.04793292
163	0x3dbf54d7	0.09342354
164	0x3cdf875f	0.02728623
165	0xbc9eb9e3	-0.019375747
166	0x3de3558c	0.11100301
167	0x3ca261e5	0.01982207
168	0xbcb07fa1	-0.021545233
169	0x3cb931fd	0.022606844
170	0xbbb652a9	-0.005564053
171	0xbc78bed6	-0.015182218
172	0xbcfee6e2	-0.031115953
173	0xbd3b9812	-0.045799322
174	0x3bf33476	0.0074220253
175	0xbc033aa2	-0.008009585
176	0x3da4ff2f	0.08056485
177	0x3da9be29	0.08288223
178	0xbc5fd72e	-0.013662143
179	0xbbb8a878	-0.0056353174
180	0x3e022f93	0.1271346
181	0xbc0a7fba	-0.008453304
182	0xbd895096	-0.06704824
183	0xbdd66fc5	-0.10470537
184	0xbd0aa588	-0.03384927
185	0x3dd50bad	0.104026176
186	0x3d02325e	0.031786315
187	0xbca30452	-0.019899521
188	0xbcfcf958	-0.030880615
189	0xbdcc0b78	-0.09963125
190	0x3d59d48f	0.053181227
191	0x3c72cf5e	0.014819948
192	0x3d298250	0.04138404
193	0xbad3433d	-0.0016118061
194	0x3d62f761	0.0554117
195	0x3c53ec92	0.012934821
196	0x3d9ff88d	0.07811079
197	0xbd2e7258	-0.042589515
198	0xbd8dbb83	-0.06920531
199	0x3cc82f6e	0.024436679
200	0xbd129768	-0.035788924
201	0x3cffc581	0.031222107
202	0xbc50ced8	-0.012744628
203	0x398a1c04	0.00026342284
204	0x3d058b29	0.032603417
205	0xbc3c00ad	-0.0114747705
206	0x3c999442	0.018747453
207	0xbc75f6f5	-0.015012492
208	0x3b72a0d3	0.0037022128
209	0xbd000f84	-0.031264797
210	0xbadcd2f7	-0.001684754
211	0xbd07d883	-0.033165466
212	0x3ca346b7	0.01993118
213	0xba834604	-0.0010015373
214	0x3c80cf56	0.015723865
215	0xbd9273cf	-0.07150995
216	0x3d14c162	0.036317237
217	0x3c9de630	0.019274801
218	0xbcdc4e9d	-0.026892954
219	0xbd6b6374	-0.057467893
220	0x3cef5e6e	0.029219832
221	0xbe086faf	-0.13323854
222	0xbcc92e9a	-0.024558354
223	0xbb880b54	-0.004151741
224	0x3d165e93	0.036711287
225	0xbc417a83	-0.011808994
226	0x3e0ab73f	0.13546465
227	0x3d14d1a7	0.036332753
228	0x3c9cd102	0.019142631
229	0xbcec9bff	-0.028882978
230	0xbd5eed20	-0.05442536
231	0xbc90cfbc	-0.01767718
232	0xbc3b1dcf	-0.011420681
233	0xbcffaef9	-0.031211363
234	0xbd040ad7	-0.0322369
235	0x3cb05c16	0.021528285
236	0xbd2d9440	-0.04237771
237	0xbda2259e	-0.07917331
238	0xbb77c96f	-0.0037809273
239	0x3d12af3e	0.035811655
240	0xbd011979	-0.031518433
241	0xbe147975	-0.14499457
242	0x3cf1437e	0.029451128
243	0xbcc597e1	-0.024120273
244	0x3caeb6bb	0.021327367
245	0xbc0c09ad	-0.008547229
246	0xbd8b2525	-0.06794194
247	0xbd36a518	-0.04459104
248	0x3988b1e1	0.00026072472
249	0x3cda90ac	0.026680313
250	0x3ccfc824	0.02536399
251	0x3d7966ee	0.060889177
252	0x3d3d1b48	0.046168596
253	0xbd486a9f	-0.048929807
254	0xbe1bf302	-0.15229419
255	0x3d1bce51	0.038038556

fc2.bias f4 [150]
0	0xbd67445f	-0.056461688
1	0x3d28e318	0.0412322
2	0xbd173bb8	-0.036922187
3	0x3d3ab545	0.04558303
4	0x3c73c1d7	0.014877758
5	0x3cccf329	0.025018292
6	0xbd8eff25	-0.06982259
7	0x3d1c147b	0.03810547
8	0x3c6cd5a5	0.014455234
9	0x3ccc4033	0.024932956
10	0xbbfd5990	-0.007731624
11	0xbba02762	-0.0048875073
12	0x3d3ac3ff	0.045597073
13	0x3cb8f2e6	0.02257676
14	0xbc6e9580	-0.014562011
15	0xbbd94928	-0.0066310354
16	0x3b8c7b4b	0.0042871586
17	0x3ce1d626	0.027567934
18	0x3d892f66	0.06698494
19	0xbd4d87be	-0.050178282
20	0x3d7c3747	0.061576154
21	0xbc72a652	-0.014810162
22	0x3cf68ec6	0.030097377
23	0xbd06ea34	-0.032938197
24	0x3cb88013	0.022522008
25	0x3d625a55	0.05526193
26	0x3d547894	0.051872805
27	0xbcf43ae0	-0.02981323
28	0x3d220eb7	0.039564814
29	0x3d8db8bc	0.06920001
30	0xbd5fee06	-0.054670356
31	0xbc8a4472	-0.01687834
32	0x3d453b8e	0.0481525
33	0xbb880528	-0.0041510053
34	0x3c834e90	0.016028672
35	0x3d7babde	0.061443202
36	0xbd8358be	-0.064134106
37	0x3d4db6e7	0.050223257
38	0xbd1c4ae7	-0.03815737
39	0x3c53f982	0.012937905
40	0xbd32184e	-0.04348021
41	0x3d0898c2	0.033348806
42	0xbcfc849d	-0.030824954
43	0x3d07d827	0.033165123
44	0xbcf92216	-0.030411761
45	0x3d70c650	0.058782876
46	0xbd2cd945	-0.042199392
47	0x3be518e7	0.006991494
48	0x3c2f0b83	0.010683897
49	0x3d085965	0.03328838
50	0x3d8de052	0.06927551
51	0xbcd25292	-0.025674138
52	0xbc0ed42b	-0.008717577
53	0x3d832fb6	0.064055845
54	0x3d8b660e	0.06806575
55	0xbd0a022b	-0.033693474
56	0xbd844241	-0.064579494
57	0x3d84efdf	0.06491064
58	0x3d724f7e	0.05915784
59	0xbc5cdb33	-0.013479996
60	0x3cae1093	0.021248138
61	0xbd1fb95f	-0.038995143
62	0x3c98f95c	0.018673591
63	0x3d525799	0.05135307
64	0x3d823a2b	0.06358751
65	0x3bd2fbe8	0.006438721
66	0xbc9aeac6	-0.018910777
67	0x3d901e43	0.07037022
68	0x3bb921c1	0.0056497757
69	0xbd69ebda	-0.05710969
70	0x3d0c1457	0.034199085
71	0xbd81347c	-0.06308839
72	0x3d0804a5	0.033207554
73	0x3d8f16d8	0.06986779
74	0xbc3c1066	-0.011478519
75	0x3c2ac002	0.010421755
76	0x3cc394a4	0.023874588
77	0xbd1ea50e	-0.038731627
78	0x3c126505	0.008935218
79	0x3d5a3eb8	0.05328247
80	0xbd6e22f2	-0.058138795
81	0x3ca1ff2f	0.019775001
82	0x3cd39f57	0.025832815
83	0xbcccdf30	-0.025008768
84	0xbd8ee736	-0.06977694
85	0xbbd60a36	-0.006531979
86	0x3d296550	0.041356385
87	0xbca5c6ec	-0.020236455
88	0xbbd6546e	-0.0065408265
89	0xbd84e922	-0.06489779
90	0xbd805452	-0.06266083
91	0x3d6625a2	0.056188233
92	0xbc23ca67	-0.009996987
93	0xbc0639f6	-0.00819253
94	0x3b2556ee	0.0025228816
95	0xbcf21378	-0.029550299
96	0xbc853a6f	-0.016263215
97	0x3c9845b0	0.018587917
98	0xbd763357	-0.060107555
99	0x3d2edff4	0.042694047
100	0xbc123a0f	-0.008924975
101	0xbcedcd37	-0.029028518
102	0x3d3cccc1	0.046093706
103	0xbc7bef16	-0.015376827
104	0x3abb2e10	0.0014280695
105	0x3c44dd43	0.0120156435
106	0xbc4eaac9	-0.012613961
107	0xbd0fb059	-0.035080288
108	0xbd3232e0	-0.04350555
109	0x3bec72b3	0.0072158216
110	0xbcf0f55a	-0.029413868
111	0xbd71318d	-0.058885146
112	0xbbd7fc08	-0.0065913238
113	0x3d87a544	0.06623319
114	0x3d8d6c78	0.069054544
115	0xbae294ca	-0.0017286774
116	0x3c4d9e8b	0.012550007
117	0xbd875c2a	-0.06609376
118	0x3d5e817f	0.054322716
119	0xbaa4f4a4	-0.0012585116
120	0x3d4dcbba	0.050243117
121	0xbd5ed5a3	-0.05440296
122	0xbd8da9ab	-0.06917127
123	0xbbffe63b	-0.007809428
124	0x3c7fee4c	0.015620779
125	0xbd4782a1	-0.04870856
126	0xbc841544	-0.016123421
127	0x3d4d3267	0.050096896
128	0x3d4d7322	0.050158627
129	0x3c56b476	0.013104549
130	0x3d3e163c	0.046407923
131	0xbd0aeb11	-0.033915583
132	0xbd0f4343	-0.034976255
133	0xbca510a7	-0.020149542
134	0xbd8bb33b	-0.06821295
135	0x3d89b0b6	0.06723158
136	0xbbdb054f	-0.0066839824
137	0xbd1e41b0	-0.038636863
138	0xbc8a9170	-0.016915053
139	0x3d6c1823	0.057640206
140	0xbd3e251e	-0.046422116
141	0x3d0e4a1f	0.034738656
142	0xbd2d5145	-0.042313833
143	0x3c3c7ffb	0.011505122
144	0xbc4019db	-0.011724914
145	0x3d0443cd	0.032291222
146	0x3d722e02	0.059125908
147	0x3d1fa52f	0.03897589
148	0xbd4c3a7b	-0.04986046
149	0xbcf6d871	-0.030132504

bn2.weight f4 [150]
0	0x3f8b9a73	1.0906509
1	0x3f3d04ca	0.7383543
2	0x3f066756	0.5250143
3	0x3f92afbb	1.1459879
4	0x3f3d3ddb	0.7392251
5	0x3f498098	0.78711843
6	0x3f8dceed	1.1078774
7	0x3f624e3e	0.8840064
8	0x3f9b542c	1.2135062
9	0x3f31d0b3	0.69459075
10	0x3f2675da	0.6502358
11	0x3f4425bd	0.76620084
12	0x3f7ff376	0.99980867
13	0x3fa3375c	1.2751269
14	0x3f31f539	0.69514805
15	0x3f8809c3	1.0627979
16	0x3f33d418	0.70245504
17	0x3f5644e9	0.836989
18	0x3f8487d5	1.0353953
19	0x3f418992	0.7560054
20	0x3efc3dd2	0.49265915
21	0x3f02e3c5	0.511288
22	0x3f31bc43	0.6942789
23	0x3f8c43aa	1.095815
24	0x3f8fc0c2	1.12307
25	0x3f343d44	0.70405984
26	0x3f111ae9	0.56681687
27	0x3efd3ea8	0.49461865
28	0x3f5c9206	0.86160314
29	0x3f12a280	0.57279205
30	0x3f209663	0.6272947
31	0x3f928ebb	1.1449808
32	0x3f2a24d8	0.6646247
33	0x3f6f1023	0.93384
34	0x3f2f9a4c	0.68594813
35	0x3f464953	0.77455634
36	0x3f23d12f	0.63991064
37	0x3f611f5f	0.87938493
38	0x3f479ca8	0.77973413
39	0x3f6fedf7	0.9372248
40	0x3f7f3a47	0.996983
41	0x3fa5390d	1.2908036
42	0x3f204e1b	0.6261918
43	0x3f3c42c6	0.7353939
44	0x3f50e1e7	0.815947
45	0x3f8ba291	1.0908986
46	0x3fb0cd3e	1.3812635
47	0x3f68c944	0.90932107
48	0x3ede1578	0.43375754
49	0x3f044594	0.5166867
50	0x3ec3a3c5	0.38210884
51	0x3f8d6eb7	1.1049412
52	0x3fa1b4bd	1.2633282
53	0x3f8831d7	1.064021
54	0x3f723a6b	0.9462039
55	0x3ee1c1ca	0.44093162
56	0x3f1ec295	0.6201566
57	0x3fb09c06	1.3797615
58	0x3f82c3d3	1.0216011
59	0x3edb142a	0.4278882
60	0x3f66a417	0.9009413
61	0x3f99020c	1.195375
62	0x3f846a41	1.0344926
63	0x3f83ef70	1.0307446
64	0x3f6efa73	0.93350905
65	0x3ec51f0e	0.38500255
66	0x3f5a0776	0.85167634
67	0x3f31259f	0.6919803
68	0x3f906d7c	1.1283412
69	0x3f0b288f	0.5435876
70	0x3ea0affa	0.3138426
71	0x3f9c26be	1.2199323
72	0x3fa57937	1.2927617
73	0x3f8c70bf	1.0971907
74	0x3f65e71f	0.8980579
75	0x3f22ded4	0.6362126
76	0x3f5dde3b	0.8666722
77	0x3f484477	0.7822947
78	0x3ef90cf4	0.48642695
79	0x3f5397b2	0.82653344
80	0x3f8c6bfe	1.0970457
81	0x3f66aea6	0.9011024
82	0x3f95ec2e	1.1712701
83	0x3ebf747c	0.37393558
84	0x3ee82161	0.45337966
85	0x3f9966e6	1.1984527
86	0x3faf0bc3	1.3675464
87	0x3f1e0305	0.6172336
88	0x3f29e4ad	0.66364557
89	0x3ee5c391	0.44875768
90	0x3f5d7287	0.8650288
91	0x3fa3b3ec	1.2789283
92	0x3fad3499	1.3531677
93	0x3f101fae	0.5629834
94	0x3f2bc3b0	0.6709547
95	0x3f5e79f7	0.86904854
96	0x3f6f8676	0.93564546
97	0x3f41e78e	0.7574395
98	0x3f5355dd	0.8255289
99	0x3f7304bc	0.949291
100	0x3f91b02f	1.1381892
101	0x3f6383e3	0.8887312
102	0x3edcc291	0.43117192
103	0x3f35f6b6	0.71079576
104	0x3f400958	0.7501426
105	0x3f0fa675	0.5611337
106	0x3f40850a	0.75203
107	0x3f85e4ed	1.0460488
108	0x3f06f852	0.52722657
109	0x3f50aa89	0.81510216
110	0x3ef439e1	0.47700408
111	0x3f44e36b	0.7690951
112	0x3faf2583	1.3683323
113	0x3f1758f9	0.59120136
114	0x3f9905f7	1.1954945
115	0x3f066482	0.5249711
116	0x3f32b889	0.6981283
117	0x3f8d70bd	1.105003
118	0x3f499c01	0.7875367
119	0x3f2c4a13	0.6730053
120	0x3f708599	0.93953854
121	0x3f9c3670	1.2204113
122	0x3f130f09	0.57444817
123	0x3f8f48fa	1.1194146
124	0x3ef618e3	0.48065862
125	0x3edc4b1c	0.43026054
126	0x3f5b31ce	0.8562287
127	0x3f962349	1.1729518
128	0x3fabccae	1.3421838
129	0x3f8f0995	1.1174799
130	0x3f879f6c	1.0595527
131	0x3fa16db7	1.2611607
132	0x3f8e708c	1.1128097
133	0x3f0a3306	0.53984106
134	0x3fa707b8	1.304923
135	0x3f34eae4	0.70670915
136	0x3f23831d	0.6387194
137	0x3f04f5c7	0.51937526
138	0x3f834c5c	1.0257678
139	0x3f3c9edf	0.7367992
140	0x3f19436e	0.59868515
141	0x3f4da74f	0.8033342
142	0x3f5e5978	0.8685527
143	0x3f6fb6e6	0.93638456
144	0x3ef74494	0.48294508
145	0x3f999bdf	1.2000693
146	0x3fa546cf	1.2912234
147	0x3ecb6a68	0.3972962
148	0x3fa3e671	1.28047
149	0x3f5907e2	0.84777653
